HloModule jit_optimized_compute, is_scheduled=true, entry_computation_layout={()->f32[]{:T(128)}}, allow_spmd_sharding_propagation_to_output={true}

FileNames
1 "<string>"
2 "/workspace/kernel-evolve/docker/evaluate.py"

FunctionNames
1 "optimized_compute"
2 "_make_test_data"
3 "fused_chunk_fwd_kernel"
4 "<module>"
5 "main"
6 "stage_benchmark"
7 "optimized_compute.<locals>.loss_fn"
8 "fused_chunk_simple_gla"
9 "fused_chunk_simple_gla.<locals>._fwd"
10 "fused_chunk_simple_gla_fwd"
11 "fused_chunk_fwd"

FileLocations
1 {file_name_id=1 function_name_id=1 line=987 end_line=987 column=27 end_column=69}
2 {file_name_id=1 function_name_id=2 line=39 end_line=39 column=21 end_column=45}
3 {file_name_id=1 function_name_id=3 line=454 end_line=454 column=8 end_column=29}
4 {file_name_id=1 function_name_id=3 line=388 end_line=388 column=9 end_column=32}
5 {file_name_id=1 function_name_id=3 line=389 end_line=389 column=9 end_column=32}
6 {file_name_id=1 function_name_id=3 line=390 end_line=390 column=9 end_column=32}
7 {file_name_id=1 function_name_id=3 line=432 end_line=452 column=20 end_column=34}
8 {file_name_id=1 function_name_id=3 line=455 end_line=455 column=8 end_column=31}
9 {file_name_id=2 function_name_id=4 line=1107 end_line=1107 column=4 end_column=10}
10 {file_name_id=2 function_name_id=5 line=982 end_line=985 column=17 end_column=3}
11 {file_name_id=2 function_name_id=6 line=227 end_line=227 column=14 end_column=35}
12 {file_name_id=1 function_name_id=1 line=996 end_line=996 column=14 end_column=73}
13 {file_name_id=1 function_name_id=7 line=994 end_line=994 column=10 end_column=15}
14 {file_name_id=1 function_name_id=2 line=38 end_line=38 column=10 end_column=34}
15 {file_name_id=1 function_name_id=2 line=39 end_line=39 column=4 end_column=18}
16 {file_name_id=1 function_name_id=2 line=40 end_line=40 column=8 end_column=63}
17 {file_name_id=1 function_name_id=2 line=41 end_line=41 column=12 end_column=67}
18 {file_name_id=1 function_name_id=2 line=42 end_line=42 column=8 end_column=63}
19 {file_name_id=1 function_name_id=2 line=43 end_line=43 column=23 end_column=69}
20 {file_name_id=1 function_name_id=2 line=43 end_line=43 column=15 end_column=70}
21 {file_name_id=1 function_name_id=2 line=43 end_line=43 column=14 end_column=76}
22 {file_name_id=1 function_name_id=7 line=992 end_line=992 column=12 end_column=33}
23 {file_name_id=1 function_name_id=7 line=992 end_line=992 column=35 end_column=56}
24 {file_name_id=1 function_name_id=7 line=993 end_line=993 column=12 end_column=33}
25 {file_name_id=1 function_name_id=7 line=991 end_line=994 column=15 end_column=9}
26 {file_name_id=1 function_name_id=8 line=978 end_line=978 column=11 end_column=28}
27 {file_name_id=1 function_name_id=9 line=951 end_line=953 column=15 end_column=9}
28 {file_name_id=1 function_name_id=10 line=497 end_line=500 column=11 end_column=5}
29 {file_name_id=1 function_name_id=11 line=485 end_line=489 column=11 end_column=5}

StackFrames
1 {file_location_id=1 parent_frame_id=1}
2 {file_location_id=2 parent_frame_id=2}
3 {file_location_id=3 parent_frame_id=1}
4 {file_location_id=4 parent_frame_id=1}
5 {file_location_id=5 parent_frame_id=1}
6 {file_location_id=6 parent_frame_id=1}
7 {file_location_id=7 parent_frame_id=1}
8 {file_location_id=8 parent_frame_id=1}
9 {file_location_id=9 parent_frame_id=1}
10 {file_location_id=10 parent_frame_id=10}
11 {file_location_id=11 parent_frame_id=11}
12 {file_location_id=12 parent_frame_id=12}
13 {file_location_id=13 parent_frame_id=13}
14 {file_location_id=1 parent_frame_id=12}
15 {file_location_id=14 parent_frame_id=15}
16 {file_location_id=1 parent_frame_id=16}
17 {file_location_id=14 parent_frame_id=17}
18 {file_location_id=2 parent_frame_id=15}
19 {file_location_id=1 parent_frame_id=19}
20 {file_location_id=2 parent_frame_id=20}
21 {file_location_id=15 parent_frame_id=15}
22 {file_location_id=16 parent_frame_id=2}
23 {file_location_id=17 parent_frame_id=2}
24 {file_location_id=18 parent_frame_id=2}
25 {file_location_id=19 parent_frame_id=2}
26 {file_location_id=20 parent_frame_id=15}
27 {file_location_id=21 parent_frame_id=15}
28 {file_location_id=22 parent_frame_id=13}
29 {file_location_id=23 parent_frame_id=13}
30 {file_location_id=24 parent_frame_id=13}
31 {file_location_id=12 parent_frame_id=1}
32 {file_location_id=25 parent_frame_id=32}
33 {file_location_id=26 parent_frame_id=33}
34 {file_location_id=27 parent_frame_id=34}
35 {file_location_id=28 parent_frame_id=35}
36 {file_location_id=29 parent_frame_id=36}
37 {file_location_id=1 parent_frame_id=21}
38 {file_location_id=2 parent_frame_id=38}
39 {file_location_id=4 parent_frame_id=37}
40 {file_location_id=5 parent_frame_id=37}
41 {file_location_id=6 parent_frame_id=37}
42 {file_location_id=7 parent_frame_id=37}
43 {file_location_id=3 parent_frame_id=37}
44 {file_location_id=8 parent_frame_id=37}


%fused_computation.58 (param_0.664: u32[], param_1.871: u32[], param_2.828: u32[], param_3.794: u32[16], param_4.720: u32[4096], param_5.687: u32[10], param_6.721: u32[16], param_7.727: u32[4096], param_8.720: u32[10], param_9.728: u32[], param_10.748: u32[], param_11.758: u32[], param_12.766: u32[], param_13.772: u32[], param_14.810: u32[]) -> (f32[10,16,4096,128], f32[10,16,4096,128], f32[10,16,4096,128]) {
  %constant.684 = bf16[]{:T(256)} constant(-0.9961), metadata={op_name="jit(optimized_compute)/jit(_normal)/jit(_normal_real)" stack_frame_id=22}
  %max.17 = bf16[10,4096,16,128]{3,1,2,0:T(8,128)(2,1)} broadcast(%constant.684), dimensions={}, metadata={op_name="jit(optimized_compute)/jit(_normal)/jit(_normal_real)/jit(_uniform)/max" stack_frame_id=22}
  %convert.18 = f32[10,4096,16,128]{3,1,2,0:T(8,128)} convert(%max.17)
  %param_8.720 = u32[10]{0:T(128)S(1)} parameter(8)
  %broadcast.1279 = u32[10,4096,16,128]{3,1,2,0:T(8,128)} broadcast(%param_8.720), dimensions={0}, metadata={op_name="jit(optimized_compute)/jit(_normal)/jit(_normal_real)/jit(_uniform)/iota_2x32_shape" stack_frame_id=22}
  %param_7.727 = u32[4096]{0:T(1024)S(1)} parameter(7)
  %broadcast.1278 = u32[10,4096,16,128]{3,1,2,0:T(8,128)} broadcast(%param_7.727), dimensions={1}, metadata={op_name="jit(optimized_compute)/jit(_normal)/jit(_normal_real)/jit(_uniform)/iota_2x32_shape" stack_frame_id=22}
  %add.1460 = u32[10,4096,16,128]{3,1,2,0:T(8,128)} add(%broadcast.1279, %broadcast.1278), metadata={op_name="jit(optimized_compute)/jit(_normal)/jit(_normal_real)/jit(_uniform)/iota_2x32_shape" stack_frame_id=22}
  %param_6.721 = u32[16]{0:T(128)S(1)} parameter(6)
  %broadcast.1277 = u32[10,4096,16,128]{3,1,2,0:T(8,128)} broadcast(%param_6.721), dimensions={2}, metadata={op_name="jit(optimized_compute)/jit(_normal)/jit(_normal_real)/jit(_uniform)/iota_2x32_shape" stack_frame_id=22}
  %add.1459 = u32[10,4096,16,128]{3,1,2,0:T(8,128)} add(%add.1460, %broadcast.1277), metadata={op_name="jit(optimized_compute)/jit(_normal)/jit(_normal_real)/jit(_uniform)/iota_2x32_shape" stack_frame_id=22}
  %iota.51 = u32[10,4096,16,128]{3,1,2,0:T(8,128)} iota(), iota_dimension=3, metadata={op_name="jit(optimized_compute)/jit(_normal)/jit(_normal_real)/jit(_uniform)/iota_2x32_shape" stack_frame_id=22}
  %add.1458 = u32[10,4096,16,128]{3,1,2,0:T(8,128)} add(%add.1459, %iota.51), metadata={op_name="jit(optimized_compute)/jit(_normal)/jit(_normal_real)/jit(_uniform)/iota_2x32_shape" stack_frame_id=22}
  %compare.74 = pred[10,4096,16,128]{3,1,2,0:T(8,128)(4,1)} compare(%add.1458, %add.1459), direction=LT, metadata={op_name="jit(optimized_compute)/jit(_normal)/jit(_normal_real)/jit(_uniform)/iota_2x32_shape" stack_frame_id=22}
  %compare.73 = pred[10,4096,16,128]{3,1,2,0:T(8,128)(4,1)} compare(%add.1459, %add.1460), direction=LT, metadata={op_name="jit(optimized_compute)/jit(_normal)/jit(_normal_real)/jit(_uniform)/iota_2x32_shape" stack_frame_id=22}
  %compare.72 = pred[10,4096,16,128]{3,1,2,0:T(8,128)(4,1)} compare(%add.1460, %broadcast.1279), direction=LT, metadata={op_name="jit(optimized_compute)/jit(_normal)/jit(_normal_real)/jit(_uniform)/iota_2x32_shape" stack_frame_id=22}
  %param_5.687 = u32[10]{0:T(128)S(1)} parameter(5)
  %broadcast.1276 = u32[10,4096,16,128]{3,1,2,0:T(8,128)} broadcast(%param_5.687), dimensions={0}, metadata={op_name="jit(optimized_compute)/jit(_normal)/jit(_normal_real)/jit(_uniform)/iota_2x32_shape" stack_frame_id=22}
  %param_4.720 = u32[4096]{0:T(1024)S(1)} parameter(4)
  %broadcast.1275 = u32[10,4096,16,128]{3,1,2,0:T(8,128)} broadcast(%param_4.720), dimensions={1}, metadata={op_name="jit(optimized_compute)/jit(_normal)/jit(_normal_real)/jit(_uniform)/iota_2x32_shape" stack_frame_id=22}
  %add.1457 = u32[10,4096,16,128]{3,1,2,0:T(8,128)} add(%broadcast.1276, %broadcast.1275), metadata={op_name="jit(optimized_compute)/jit(_normal)/jit(_normal_real)/jit(_uniform)/iota_2x32_shape" stack_frame_id=22}
  %constant.850 = u32[]{:T(128)} constant(1), metadata={op_name="jit(optimized_compute)/jit(_threefry_split)/_make_test_data" stack_frame_id=38}
  %broadcast.1274 = u32[10,4096,16,128]{3,1,2,0:T(8,128)} broadcast(%constant.850), dimensions={}, metadata={op_name="jit(optimized_compute)/jit(_normal)/jit(_normal_real)/jit(_uniform)/iota_2x32_shape" stack_frame_id=22}
  %add.1456 = u32[10,4096,16,128]{3,1,2,0:T(8,128)} add(%add.1457, %broadcast.1274), metadata={op_name="jit(optimized_compute)/jit(_normal)/jit(_normal_real)/jit(_uniform)/iota_2x32_shape" stack_frame_id=22}
  %select.84 = u32[10,4096,16,128]{3,1,2,0:T(8,128)} select(%compare.72, %add.1456, %add.1457), metadata={op_name="jit(optimized_compute)/jit(_normal)/jit(_normal_real)/jit(_uniform)/iota_2x32_shape" stack_frame_id=22}
  %param_3.794 = u32[16]{0:T(128)S(1)} parameter(3)
  %broadcast.1273 = u32[10,4096,16,128]{3,1,2,0:T(8,128)} broadcast(%param_3.794), dimensions={2}, metadata={op_name="jit(optimized_compute)/jit(_normal)/jit(_normal_real)/jit(_uniform)/iota_2x32_shape" stack_frame_id=22}
  %add.1455 = u32[10,4096,16,128]{3,1,2,0:T(8,128)} add(%select.84, %broadcast.1273), metadata={op_name="jit(optimized_compute)/jit(_normal)/jit(_normal_real)/jit(_uniform)/iota_2x32_shape" stack_frame_id=22}
  %add.1454 = u32[10,4096,16,128]{3,1,2,0:T(8,128)} add(%add.1455, %broadcast.1274), metadata={op_name="jit(optimized_compute)/jit(_normal)/jit(_normal_real)/jit(_uniform)/iota_2x32_shape" stack_frame_id=22}
  %select.83 = u32[10,4096,16,128]{3,1,2,0:T(8,128)} select(%compare.73, %add.1454, %add.1455), metadata={op_name="jit(optimized_compute)/jit(_normal)/jit(_normal_real)/jit(_uniform)/iota_2x32_shape" stack_frame_id=22}
  %add.1453 = u32[10,4096,16,128]{3,1,2,0:T(8,128)} add(%select.83, %broadcast.1274), metadata={op_name="jit(optimized_compute)/jit(_normal)/jit(_normal_real)/jit(_uniform)/iota_2x32_shape" stack_frame_id=22}
  %select.82 = u32[10,4096,16,128]{3,1,2,0:T(8,128)} select(%compare.74, %add.1453, %select.83), metadata={op_name="jit(optimized_compute)/jit(_normal)/jit(_normal_real)/jit(_uniform)/iota_2x32_shape" stack_frame_id=22}
  %constant.667 = u32[]{:T(128)} constant(0), metadata={op_name="jit(optimized_compute)/jit(_normal)/jit(_normal_real)/jit(_uniform)/iota_2x32_shape" stack_frame_id=22}
  %broadcast.1272 = u32[10,4096,16,128]{3,1,2,0:T(8,128)} broadcast(%constant.667), dimensions={}, metadata={op_name="jit(optimized_compute)/jit(_normal)/jit(_normal_real)/jit(_uniform)/iota_2x32_shape" stack_frame_id=22}
  %shift-right-logical.112 = u32[10,4096,16,128]{3,1,2,0:T(8,128)} shift-right-logical(%select.82, %broadcast.1272), metadata={op_name="jit(optimized_compute)/jit(_normal)/jit(_normal_real)/jit(_uniform)/iota_2x32_shape" stack_frame_id=22}
  %param_2.828 = u32[]{:T(128)} parameter(2)
  %add.1452 = u32[10,4096,16,128]{3,1,2,0:T(8,128)} broadcast(%param_2.828), dimensions={}, metadata={op_name="jit(optimized_compute)/jit(_normal)/jit(_normal_real)/jit(_uniform)/add" stack_frame_id=24}
  %add.1451 = u32[10,4096,16,128]{3,1,2,0:T(8,128)} add(%shift-right-logical.112, %add.1452), metadata={op_name="jit(optimized_compute)/jit(_normal)/jit(_normal_real)/jit(_uniform)/add" stack_frame_id=24}
  %param_1.871 = u32[]{:T(128)} parameter(1)
  %add.1450 = u32[10,4096,16,128]{3,1,2,0:T(8,128)} broadcast(%param_1.871), dimensions={}, metadata={op_name="jit(optimized_compute)/jit(_normal)/jit(_normal_real)/jit(_uniform)/add" stack_frame_id=24}
  %add.1449 = u32[10,4096,16,128]{3,1,2,0:T(8,128)} add(%add.1458, %add.1450), metadata={op_name="jit(optimized_compute)/jit(_normal)/jit(_normal_real)/jit(_uniform)/add" stack_frame_id=24}
  %add.1448 = u32[10,4096,16,128]{3,1,2,0:T(8,128)} add(%add.1451, %add.1449), metadata={op_name="jit(optimized_compute)/jit(_normal)/jit(_normal_real)/jit(_uniform)/add" stack_frame_id=24}
  %constant.883 = u32[]{:T(128)} constant(13), metadata={op_name="jit(optimized_compute)/jit(_threefry_split)/_make_test_data" stack_frame_id=38}
  %broadcast.1271 = u32[10,4096,16,128]{3,1,2,0:T(8,128)} broadcast(%constant.883), dimensions={}, metadata={op_name="jit(optimized_compute)/jit(_normal)/jit(_normal_real)/jit(_uniform)" stack_frame_id=22}
  %shift_left.555 = u32[10,4096,16,128]{3,1,2,0:T(8,128)} shift-left(%add.1449, %broadcast.1271), metadata={op_name="jit(optimized_compute)/jit(_normal)/jit(_normal_real)/jit(_uniform)/shift_left" stack_frame_id=24}
  %constant.877 = u32[]{:T(128)} constant(19), metadata={op_name="jit(optimized_compute)/jit(_threefry_split)/_make_test_data" stack_frame_id=38}
  %broadcast.1270 = u32[10,4096,16,128]{3,1,2,0:T(8,128)} broadcast(%constant.877), dimensions={}, metadata={op_name="jit(optimized_compute)/jit(_normal)/jit(_normal_real)/jit(_uniform)" stack_frame_id=22}
  %shift_right_logical.572 = u32[10,4096,16,128]{3,1,2,0:T(8,128)} shift-right-logical(%add.1449, %broadcast.1270), metadata={op_name="jit(optimized_compute)/jit(_normal)/jit(_normal_real)/jit(_uniform)/shift_right_logical" stack_frame_id=24}
  %or.592 = u32[10,4096,16,128]{3,1,2,0:T(8,128)} or(%shift_left.555, %shift_right_logical.572), metadata={op_name="jit(optimized_compute)/jit(_normal)/jit(_normal_real)/jit(_uniform)/or" stack_frame_id=24}
  %xor.587 = u32[10,4096,16,128]{3,1,2,0:T(8,128)} xor(%add.1448, %or.592), metadata={op_name="jit(optimized_compute)/jit(_normal)/jit(_normal_real)/jit(_uniform)/xor" stack_frame_id=24}
  %add.1447 = u32[10,4096,16,128]{3,1,2,0:T(8,128)} add(%add.1448, %xor.587), metadata={op_name="jit(optimized_compute)/jit(_normal)/jit(_normal_real)/jit(_uniform)/add" stack_frame_id=24}
  %constant.873 = u32[]{:T(128)} constant(15), metadata={op_name="jit(optimized_compute)/jit(_threefry_split)/_make_test_data" stack_frame_id=38}
  %broadcast.1269 = u32[10,4096,16,128]{3,1,2,0:T(8,128)} broadcast(%constant.873), dimensions={}, metadata={op_name="jit(optimized_compute)/jit(_normal)/jit(_normal_real)/jit(_uniform)" stack_frame_id=22}
  %shift_left.554 = u32[10,4096,16,128]{3,1,2,0:T(8,128)} shift-left(%xor.587, %broadcast.1269), metadata={op_name="jit(optimized_compute)/jit(_normal)/jit(_normal_real)/jit(_uniform)/shift_left" stack_frame_id=24}
  %constant.867 = u32[]{:T(128)} constant(17), metadata={op_name="jit(optimized_compute)/jit(_threefry_split)/_make_test_data" stack_frame_id=38}
  %broadcast.1268 = u32[10,4096,16,128]{3,1,2,0:T(8,128)} broadcast(%constant.867), dimensions={}, metadata={op_name="jit(optimized_compute)/jit(_normal)/jit(_normal_real)/jit(_uniform)" stack_frame_id=22}
  %shift_right_logical.571 = u32[10,4096,16,128]{3,1,2,0:T(8,128)} shift-right-logical(%xor.587, %broadcast.1268), metadata={op_name="jit(optimized_compute)/jit(_normal)/jit(_normal_real)/jit(_uniform)/shift_right_logical" stack_frame_id=24}
  %or.591 = u32[10,4096,16,128]{3,1,2,0:T(8,128)} or(%shift_left.554, %shift_right_logical.571), metadata={op_name="jit(optimized_compute)/jit(_normal)/jit(_normal_real)/jit(_uniform)/or" stack_frame_id=24}
  %xor.586 = u32[10,4096,16,128]{3,1,2,0:T(8,128)} xor(%add.1447, %or.591), metadata={op_name="jit(optimized_compute)/jit(_normal)/jit(_normal_real)/jit(_uniform)/xor" stack_frame_id=24}
  %add.1446 = u32[10,4096,16,128]{3,1,2,0:T(8,128)} add(%add.1447, %xor.586), metadata={op_name="jit(optimized_compute)/jit(_normal)/jit(_normal_real)/jit(_uniform)/add" stack_frame_id=24}
  %constant.861 = u32[]{:T(128)} constant(26), metadata={op_name="jit(optimized_compute)/jit(_threefry_split)/_make_test_data" stack_frame_id=38}
  %broadcast.1267 = u32[10,4096,16,128]{3,1,2,0:T(8,128)} broadcast(%constant.861), dimensions={}, metadata={op_name="jit(optimized_compute)/jit(_normal)/jit(_normal_real)/jit(_uniform)" stack_frame_id=22}
  %shift_left.553 = u32[10,4096,16,128]{3,1,2,0:T(8,128)} shift-left(%xor.586, %broadcast.1267), metadata={op_name="jit(optimized_compute)/jit(_normal)/jit(_normal_real)/jit(_uniform)/shift_left" stack_frame_id=24}
  %constant.855 = u32[]{:T(128)} constant(6), metadata={op_name="jit(optimized_compute)/jit(_threefry_split)/_make_test_data" stack_frame_id=38}
  %broadcast.1266 = u32[10,4096,16,128]{3,1,2,0:T(8,128)} broadcast(%constant.855), dimensions={}, metadata={op_name="jit(optimized_compute)/jit(_normal)/jit(_normal_real)/jit(_uniform)" stack_frame_id=22}
  %shift_right_logical.570 = u32[10,4096,16,128]{3,1,2,0:T(8,128)} shift-right-logical(%xor.586, %broadcast.1266), metadata={op_name="jit(optimized_compute)/jit(_normal)/jit(_normal_real)/jit(_uniform)/shift_right_logical" stack_frame_id=24}
  %or.590 = u32[10,4096,16,128]{3,1,2,0:T(8,128)} or(%shift_left.553, %shift_right_logical.570), metadata={op_name="jit(optimized_compute)/jit(_normal)/jit(_normal_real)/jit(_uniform)/or" stack_frame_id=24}
  %xor.585 = u32[10,4096,16,128]{3,1,2,0:T(8,128)} xor(%add.1446, %or.590), metadata={op_name="jit(optimized_compute)/jit(_normal)/jit(_normal_real)/jit(_uniform)/xor" stack_frame_id=24}
  %add.1445 = u32[10,4096,16,128]{3,1,2,0:T(8,128)} add(%add.1446, %xor.585), metadata={op_name="jit(optimized_compute)/jit(_normal)/jit(_normal_real)/jit(_uniform)/add" stack_frame_id=24}
  %add.1444 = u32[10,4096,16,128]{3,1,2,0:T(8,128)} add(%add.1445, %add.1450), metadata={op_name="jit(optimized_compute)/jit(_normal)/jit(_normal_real)/jit(_uniform)/add" stack_frame_id=24}
  %shift_left.552 = u32[10,4096,16,128]{3,1,2,0:T(8,128)} shift-left(%xor.585, %broadcast.1266), metadata={op_name="jit(optimized_compute)/jit(_normal)/jit(_normal_real)/jit(_uniform)/shift_left" stack_frame_id=24}
  %shift_right_logical.569 = u32[10,4096,16,128]{3,1,2,0:T(8,128)} shift-right-logical(%xor.585, %broadcast.1267), metadata={op_name="jit(optimized_compute)/jit(_normal)/jit(_normal_real)/jit(_uniform)/shift_right_logical" stack_frame_id=24}
  %or.589 = u32[10,4096,16,128]{3,1,2,0:T(8,128)} or(%shift_left.552, %shift_right_logical.569), metadata={op_name="jit(optimized_compute)/jit(_normal)/jit(_normal_real)/jit(_uniform)/or" stack_frame_id=24}
  %xor.584 = u32[10,4096,16,128]{3,1,2,0:T(8,128)} xor(%add.1445, %or.589), metadata={op_name="jit(optimized_compute)/jit(_normal)/jit(_normal_real)/jit(_uniform)/xor" stack_frame_id=24}
  %param_0.664 = u32[]{:T(128)S(6)} parameter(0)
  %add.1443 = u32[10,4096,16,128]{3,1,2,0:T(8,128)} broadcast(%param_0.664), dimensions={}, metadata={op_name="jit(optimized_compute)/jit(_normal)/jit(_normal_real)/jit(_uniform)/add" stack_frame_id=24}
  %add.1442 = u32[10,4096,16,128]{3,1,2,0:T(8,128)} add(%xor.584, %add.1443), metadata={op_name="jit(optimized_compute)/jit(_normal)/jit(_normal_real)/jit(_uniform)/add" stack_frame_id=24}
  %add.1441 = u32[10,4096,16,128]{3,1,2,0:T(8,128)} add(%add.1442, %broadcast.1274), metadata={op_name="jit(optimized_compute)/jit(_normal)/jit(_normal_real)/jit(_uniform)/add" stack_frame_id=24}
  %add.1440 = u32[10,4096,16,128]{3,1,2,0:T(8,128)} add(%add.1444, %add.1441), metadata={op_name="jit(optimized_compute)/jit(_normal)/jit(_normal_real)/jit(_uniform)/add" stack_frame_id=24}
  %shift_left.551 = u32[10,4096,16,128]{3,1,2,0:T(8,128)} shift-left(%add.1441, %broadcast.1268), metadata={op_name="jit(optimized_compute)/jit(_normal)/jit(_normal_real)/jit(_uniform)/shift_left" stack_frame_id=24}
  %shift_right_logical.568 = u32[10,4096,16,128]{3,1,2,0:T(8,128)} shift-right-logical(%add.1441, %broadcast.1269), metadata={op_name="jit(optimized_compute)/jit(_normal)/jit(_normal_real)/jit(_uniform)/shift_right_logical" stack_frame_id=24}
  %or.588 = u32[10,4096,16,128]{3,1,2,0:T(8,128)} or(%shift_left.551, %shift_right_logical.568), metadata={op_name="jit(optimized_compute)/jit(_normal)/jit(_normal_real)/jit(_uniform)/or" stack_frame_id=24}
  %xor.583 = u32[10,4096,16,128]{3,1,2,0:T(8,128)} xor(%add.1440, %or.588), metadata={op_name="jit(optimized_compute)/jit(_normal)/jit(_normal_real)/jit(_uniform)/xor" stack_frame_id=24}
  %add.1439 = u32[10,4096,16,128]{3,1,2,0:T(8,128)} add(%add.1440, %xor.583), metadata={op_name="jit(optimized_compute)/jit(_normal)/jit(_normal_real)/jit(_uniform)/add" stack_frame_id=24}
  %constant.844 = u32[]{:T(128)} constant(29), metadata={op_name="jit(optimized_compute)/jit(_threefry_split)/_make_test_data" stack_frame_id=38}
  %broadcast.1265 = u32[10,4096,16,128]{3,1,2,0:T(8,128)} broadcast(%constant.844), dimensions={}, metadata={op_name="jit(optimized_compute)/jit(_normal)/jit(_normal_real)/jit(_uniform)" stack_frame_id=22}
  %shift_left.550 = u32[10,4096,16,128]{3,1,2,0:T(8,128)} shift-left(%xor.583, %broadcast.1265), metadata={op_name="jit(optimized_compute)/jit(_normal)/jit(_normal_real)/jit(_uniform)/shift_left" stack_frame_id=24}
  %constant.837 = u32[]{:T(128)} constant(3), metadata={op_name="jit(optimized_compute)/jit(_threefry_split)/_make_test_data" stack_frame_id=38}
  %broadcast.1264 = u32[10,4096,16,128]{3,1,2,0:T(8,128)} broadcast(%constant.837), dimensions={}, metadata={op_name="jit(optimized_compute)/jit(_normal)/jit(_normal_real)/jit(_uniform)" stack_frame_id=22}
  %shift_right_logical.567 = u32[10,4096,16,128]{3,1,2,0:T(8,128)} shift-right-logical(%xor.583, %broadcast.1264), metadata={op_name="jit(optimized_compute)/jit(_normal)/jit(_normal_real)/jit(_uniform)/shift_right_logical" stack_frame_id=24}
  %or.587 = u32[10,4096,16,128]{3,1,2,0:T(8,128)} or(%shift_left.550, %shift_right_logical.567), metadata={op_name="jit(optimized_compute)/jit(_normal)/jit(_normal_real)/jit(_uniform)/or" stack_frame_id=24}
  %xor.582 = u32[10,4096,16,128]{3,1,2,0:T(8,128)} xor(%add.1439, %or.587), metadata={op_name="jit(optimized_compute)/jit(_normal)/jit(_normal_real)/jit(_uniform)/xor" stack_frame_id=24}
  %add.1438 = u32[10,4096,16,128]{3,1,2,0:T(8,128)} add(%add.1439, %xor.582), metadata={op_name="jit(optimized_compute)/jit(_normal)/jit(_normal_real)/jit(_uniform)/add" stack_frame_id=24}
  %constant.829 = u32[]{:T(128)} constant(16), metadata={op_name="jit(optimized_compute)/jit(_threefry_split)/_make_test_data" stack_frame_id=38}
  %broadcast.1263 = u32[10,4096,16,128]{3,1,2,0:T(8,128)} broadcast(%constant.829), dimensions={}, metadata={op_name="jit(optimized_compute)/jit(_normal)/jit(_normal_real)/jit(_uniform)/iota_2x32_shape" stack_frame_id=22}
  %shift_left.549 = u32[10,4096,16,128]{3,1,2,0:T(8,128)} shift-left(%xor.582, %broadcast.1263), metadata={op_name="jit(optimized_compute)/jit(_normal)/jit(_normal_real)/jit(_uniform)/shift_left" stack_frame_id=24}
  %shift_right_logical.566 = u32[10,4096,16,128]{3,1,2,0:T(8,128)} shift-right-logical(%xor.582, %broadcast.1263), metadata={op_name="jit(optimized_compute)/jit(_normal)/jit(_normal_real)/jit(_uniform)/shift_right_logical" stack_frame_id=24}
  %or.586 = u32[10,4096,16,128]{3,1,2,0:T(8,128)} or(%shift_left.549, %shift_right_logical.566), metadata={op_name="jit(optimized_compute)/jit(_normal)/jit(_normal_real)/jit(_uniform)/or" stack_frame_id=24}
  %xor.581 = u32[10,4096,16,128]{3,1,2,0:T(8,128)} xor(%add.1438, %or.586), metadata={op_name="jit(optimized_compute)/jit(_normal)/jit(_normal_real)/jit(_uniform)/xor" stack_frame_id=24}
  %add.1437 = u32[10,4096,16,128]{3,1,2,0:T(8,128)} add(%add.1438, %xor.581), metadata={op_name="jit(optimized_compute)/jit(_normal)/jit(_normal_real)/jit(_uniform)/add" stack_frame_id=24}
  %add.1436 = u32[10,4096,16,128]{3,1,2,0:T(8,128)} add(%add.1437, %add.1443), metadata={op_name="jit(optimized_compute)/jit(_normal)/jit(_normal_real)/jit(_uniform)/add" stack_frame_id=24}
  %constant.820 = u32[]{:T(128)} constant(24), metadata={op_name="jit(optimized_compute)/jit(_threefry_split)/_make_test_data" stack_frame_id=38}
  %broadcast.1262 = u32[10,4096,16,128]{3,1,2,0:T(8,128)} broadcast(%constant.820), dimensions={}, metadata={op_name="jit(optimized_compute)/jit(_normal)/jit(_normal_real)/jit(_uniform)" stack_frame_id=22}
  %shift_left.548 = u32[10,4096,16,128]{3,1,2,0:T(8,128)} shift-left(%xor.581, %broadcast.1262), metadata={op_name="jit(optimized_compute)/jit(_normal)/jit(_normal_real)/jit(_uniform)/shift_left" stack_frame_id=24}
  %constant.814 = u32[]{:T(128)} constant(8), metadata={op_name="jit(optimized_compute)/jit(_threefry_split)/_make_test_data" stack_frame_id=38}
  %broadcast.1261 = u32[10,4096,16,128]{3,1,2,0:T(8,128)} broadcast(%constant.814), dimensions={}, metadata={op_name="jit(optimized_compute)/jit(_normal)/jit(_normal_real)/jit(_uniform)" stack_frame_id=22}
  %shift_right_logical.565 = u32[10,4096,16,128]{3,1,2,0:T(8,128)} shift-right-logical(%xor.581, %broadcast.1261), metadata={op_name="jit(optimized_compute)/jit(_normal)/jit(_normal_real)/jit(_uniform)/shift_right_logical" stack_frame_id=24}
  %or.585 = u32[10,4096,16,128]{3,1,2,0:T(8,128)} or(%shift_left.548, %shift_right_logical.565), metadata={op_name="jit(optimized_compute)/jit(_normal)/jit(_normal_real)/jit(_uniform)/or" stack_frame_id=24}
  %xor.580 = u32[10,4096,16,128]{3,1,2,0:T(8,128)} xor(%add.1437, %or.585), metadata={op_name="jit(optimized_compute)/jit(_normal)/jit(_normal_real)/jit(_uniform)/xor" stack_frame_id=24}
  %add.1435 = u32[10,4096,16,128]{3,1,2,0:T(8,128)} add(%xor.580, %add.1452), metadata={op_name="jit(optimized_compute)/jit(_normal)/jit(_normal_real)/jit(_uniform)/add" stack_frame_id=24}
  %constant.808 = u32[]{:T(128)} constant(2), metadata={op_name="jit(optimized_compute)/jit(_threefry_split)/_make_test_data" stack_frame_id=38}
  %add.1434 = u32[10,4096,16,128]{3,1,2,0:T(8,128)} broadcast(%constant.808), dimensions={}, metadata={op_name="jit(optimized_compute)/jit(_normal)/jit(_normal_real)/jit(_uniform)/add" stack_frame_id=22}
  %add.1433 = u32[10,4096,16,128]{3,1,2,0:T(8,128)} add(%add.1435, %add.1434), metadata={op_name="jit(optimized_compute)/jit(_normal)/jit(_normal_real)/jit(_uniform)/add" stack_frame_id=24}
  %add.1432 = u32[10,4096,16,128]{3,1,2,0:T(8,128)} add(%add.1436, %add.1433), metadata={op_name="jit(optimized_compute)/jit(_normal)/jit(_normal_real)/jit(_uniform)/add" stack_frame_id=24}
  %shift_left.547 = u32[10,4096,16,128]{3,1,2,0:T(8,128)} shift-left(%add.1433, %broadcast.1271), metadata={op_name="jit(optimized_compute)/jit(_normal)/jit(_normal_real)/jit(_uniform)/shift_left" stack_frame_id=24}
  %shift_right_logical.564 = u32[10,4096,16,128]{3,1,2,0:T(8,128)} shift-right-logical(%add.1433, %broadcast.1270), metadata={op_name="jit(optimized_compute)/jit(_normal)/jit(_normal_real)/jit(_uniform)/shift_right_logical" stack_frame_id=24}
  %or.584 = u32[10,4096,16,128]{3,1,2,0:T(8,128)} or(%shift_left.547, %shift_right_logical.564), metadata={op_name="jit(optimized_compute)/jit(_normal)/jit(_normal_real)/jit(_uniform)/or" stack_frame_id=24}
  %xor.579 = u32[10,4096,16,128]{3,1,2,0:T(8,128)} xor(%add.1432, %or.584), metadata={op_name="jit(optimized_compute)/jit(_normal)/jit(_normal_real)/jit(_uniform)/xor" stack_frame_id=24}
  %add.1431 = u32[10,4096,16,128]{3,1,2,0:T(8,128)} add(%add.1432, %xor.579), metadata={op_name="jit(optimized_compute)/jit(_normal)/jit(_normal_real)/jit(_uniform)/add" stack_frame_id=24}
  %shift_left.546 = u32[10,4096,16,128]{3,1,2,0:T(8,128)} shift-left(%xor.579, %broadcast.1269), metadata={op_name="jit(optimized_compute)/jit(_normal)/jit(_normal_real)/jit(_uniform)/shift_left" stack_frame_id=24}
  %shift_right_logical.563 = u32[10,4096,16,128]{3,1,2,0:T(8,128)} shift-right-logical(%xor.579, %broadcast.1268), metadata={op_name="jit(optimized_compute)/jit(_normal)/jit(_normal_real)/jit(_uniform)/shift_right_logical" stack_frame_id=24}
  %or.583 = u32[10,4096,16,128]{3,1,2,0:T(8,128)} or(%shift_left.546, %shift_right_logical.563), metadata={op_name="jit(optimized_compute)/jit(_normal)/jit(_normal_real)/jit(_uniform)/or" stack_frame_id=24}
  %xor.578 = u32[10,4096,16,128]{3,1,2,0:T(8,128)} xor(%add.1431, %or.583), metadata={op_name="jit(optimized_compute)/jit(_normal)/jit(_normal_real)/jit(_uniform)/xor" stack_frame_id=24}
  %add.1430 = u32[10,4096,16,128]{3,1,2,0:T(8,128)} add(%add.1431, %xor.578), metadata={op_name="jit(optimized_compute)/jit(_normal)/jit(_normal_real)/jit(_uniform)/add" stack_frame_id=24}
  %shift_left.545 = u32[10,4096,16,128]{3,1,2,0:T(8,128)} shift-left(%xor.578, %broadcast.1267), metadata={op_name="jit(optimized_compute)/jit(_normal)/jit(_normal_real)/jit(_uniform)/shift_left" stack_frame_id=24}
  %shift_right_logical.562 = u32[10,4096,16,128]{3,1,2,0:T(8,128)} shift-right-logical(%xor.578, %broadcast.1266), metadata={op_name="jit(optimized_compute)/jit(_normal)/jit(_normal_real)/jit(_uniform)/shift_right_logical" stack_frame_id=24}
  %or.582 = u32[10,4096,16,128]{3,1,2,0:T(8,128)} or(%shift_left.545, %shift_right_logical.562), metadata={op_name="jit(optimized_compute)/jit(_normal)/jit(_normal_real)/jit(_uniform)/or" stack_frame_id=24}
  %xor.577 = u32[10,4096,16,128]{3,1,2,0:T(8,128)} xor(%add.1430, %or.582), metadata={op_name="jit(optimized_compute)/jit(_normal)/jit(_normal_real)/jit(_uniform)/xor" stack_frame_id=24}
  %add.1429 = u32[10,4096,16,128]{3,1,2,0:T(8,128)} add(%add.1430, %xor.577), metadata={op_name="jit(optimized_compute)/jit(_normal)/jit(_normal_real)/jit(_uniform)/add" stack_frame_id=24}
  %add.1428 = u32[10,4096,16,128]{3,1,2,0:T(8,128)} add(%add.1429, %add.1452), metadata={op_name="jit(optimized_compute)/jit(_normal)/jit(_normal_real)/jit(_uniform)/add" stack_frame_id=24}
  %shift_left.544 = u32[10,4096,16,128]{3,1,2,0:T(8,128)} shift-left(%xor.577, %broadcast.1266), metadata={op_name="jit(optimized_compute)/jit(_normal)/jit(_normal_real)/jit(_uniform)/shift_left" stack_frame_id=24}
  %shift_right_logical.561 = u32[10,4096,16,128]{3,1,2,0:T(8,128)} shift-right-logical(%xor.577, %broadcast.1267), metadata={op_name="jit(optimized_compute)/jit(_normal)/jit(_normal_real)/jit(_uniform)/shift_right_logical" stack_frame_id=24}
  %or.581 = u32[10,4096,16,128]{3,1,2,0:T(8,128)} or(%shift_left.544, %shift_right_logical.561), metadata={op_name="jit(optimized_compute)/jit(_normal)/jit(_normal_real)/jit(_uniform)/or" stack_frame_id=24}
  %xor.576 = u32[10,4096,16,128]{3,1,2,0:T(8,128)} xor(%add.1429, %or.581), metadata={op_name="jit(optimized_compute)/jit(_normal)/jit(_normal_real)/jit(_uniform)/xor" stack_frame_id=24}
  %add.1427 = u32[10,4096,16,128]{3,1,2,0:T(8,128)} add(%xor.576, %add.1450), metadata={op_name="jit(optimized_compute)/jit(_normal)/jit(_normal_real)/jit(_uniform)/add" stack_frame_id=24}
  %add.1426 = u32[10,4096,16,128]{3,1,2,0:T(8,128)} add(%add.1427, %broadcast.1264), metadata={op_name="jit(optimized_compute)/jit(_normal)/jit(_normal_real)/jit(_uniform)/add" stack_frame_id=24}
  %add.1425 = u32[10,4096,16,128]{3,1,2,0:T(8,128)} add(%add.1428, %add.1426), metadata={op_name="jit(optimized_compute)/jit(_normal)/jit(_normal_real)/jit(_uniform)/add" stack_frame_id=24}
  %shift_left.543 = u32[10,4096,16,128]{3,1,2,0:T(8,128)} shift-left(%add.1426, %broadcast.1268), metadata={op_name="jit(optimized_compute)/jit(_normal)/jit(_normal_real)/jit(_uniform)/shift_left" stack_frame_id=24}
  %shift_right_logical.560 = u32[10,4096,16,128]{3,1,2,0:T(8,128)} shift-right-logical(%add.1426, %broadcast.1269), metadata={op_name="jit(optimized_compute)/jit(_normal)/jit(_normal_real)/jit(_uniform)/shift_right_logical" stack_frame_id=24}
  %or.580 = u32[10,4096,16,128]{3,1,2,0:T(8,128)} or(%shift_left.543, %shift_right_logical.560), metadata={op_name="jit(optimized_compute)/jit(_normal)/jit(_normal_real)/jit(_uniform)/or" stack_frame_id=24}
  %xor.575 = u32[10,4096,16,128]{3,1,2,0:T(8,128)} xor(%add.1425, %or.580), metadata={op_name="jit(optimized_compute)/jit(_normal)/jit(_normal_real)/jit(_uniform)/xor" stack_frame_id=24}
  %add.1424 = u32[10,4096,16,128]{3,1,2,0:T(8,128)} add(%add.1425, %xor.575), metadata={op_name="jit(optimized_compute)/jit(_normal)/jit(_normal_real)/jit(_uniform)/add" stack_frame_id=24}
  %shift_left.542 = u32[10,4096,16,128]{3,1,2,0:T(8,128)} shift-left(%xor.575, %broadcast.1265), metadata={op_name="jit(optimized_compute)/jit(_normal)/jit(_normal_real)/jit(_uniform)/shift_left" stack_frame_id=24}
  %shift_right_logical.559 = u32[10,4096,16,128]{3,1,2,0:T(8,128)} shift-right-logical(%xor.575, %broadcast.1264), metadata={op_name="jit(optimized_compute)/jit(_normal)/jit(_normal_real)/jit(_uniform)/shift_right_logical" stack_frame_id=24}
  %or.579 = u32[10,4096,16,128]{3,1,2,0:T(8,128)} or(%shift_left.542, %shift_right_logical.559), metadata={op_name="jit(optimized_compute)/jit(_normal)/jit(_normal_real)/jit(_uniform)/or" stack_frame_id=24}
  %xor.574 = u32[10,4096,16,128]{3,1,2,0:T(8,128)} xor(%add.1424, %or.579), metadata={op_name="jit(optimized_compute)/jit(_normal)/jit(_normal_real)/jit(_uniform)/xor" stack_frame_id=24}
  %add.1423 = u32[10,4096,16,128]{3,1,2,0:T(8,128)} add(%add.1424, %xor.574), metadata={op_name="jit(optimized_compute)/jit(_normal)/jit(_normal_real)/jit(_uniform)/add" stack_frame_id=24}
  %shift_left.541 = u32[10,4096,16,128]{3,1,2,0:T(8,128)} shift-left(%xor.574, %broadcast.1263), metadata={op_name="jit(optimized_compute)/jit(_normal)/jit(_normal_real)/jit(_uniform)/shift_left" stack_frame_id=24}
  %shift_right_logical.558 = u32[10,4096,16,128]{3,1,2,0:T(8,128)} shift-right-logical(%xor.574, %broadcast.1263), metadata={op_name="jit(optimized_compute)/jit(_normal)/jit(_normal_real)/jit(_uniform)/shift_right_logical" stack_frame_id=24}
  %or.578 = u32[10,4096,16,128]{3,1,2,0:T(8,128)} or(%shift_left.541, %shift_right_logical.558), metadata={op_name="jit(optimized_compute)/jit(_normal)/jit(_normal_real)/jit(_uniform)/or" stack_frame_id=24}
  %xor.573 = u32[10,4096,16,128]{3,1,2,0:T(8,128)} xor(%add.1423, %or.578), metadata={op_name="jit(optimized_compute)/jit(_normal)/jit(_normal_real)/jit(_uniform)/xor" stack_frame_id=24}
  %add.1422 = u32[10,4096,16,128]{3,1,2,0:T(8,128)} add(%add.1423, %xor.573), metadata={op_name="jit(optimized_compute)/jit(_normal)/jit(_normal_real)/jit(_uniform)/add" stack_frame_id=24}
  %add.1421 = u32[10,4096,16,128]{3,1,2,0:T(8,128)} add(%add.1422, %add.1450), metadata={op_name="jit(optimized_compute)/jit(_normal)/jit(_normal_real)/jit(_uniform)/add" stack_frame_id=24}
  %shift_left.540 = u32[10,4096,16,128]{3,1,2,0:T(8,128)} shift-left(%xor.573, %broadcast.1262), metadata={op_name="jit(optimized_compute)/jit(_normal)/jit(_normal_real)/jit(_uniform)/shift_left" stack_frame_id=24}
  %shift_right_logical.557 = u32[10,4096,16,128]{3,1,2,0:T(8,128)} shift-right-logical(%xor.573, %broadcast.1261), metadata={op_name="jit(optimized_compute)/jit(_normal)/jit(_normal_real)/jit(_uniform)/shift_right_logical" stack_frame_id=24}
  %or.577 = u32[10,4096,16,128]{3,1,2,0:T(8,128)} or(%shift_left.540, %shift_right_logical.557), metadata={op_name="jit(optimized_compute)/jit(_normal)/jit(_normal_real)/jit(_uniform)/or" stack_frame_id=24}
  %xor.572 = u32[10,4096,16,128]{3,1,2,0:T(8,128)} xor(%add.1422, %or.577), metadata={op_name="jit(optimized_compute)/jit(_normal)/jit(_normal_real)/jit(_uniform)/xor" stack_frame_id=24}
  %add.1420 = u32[10,4096,16,128]{3,1,2,0:T(8,128)} add(%xor.572, %add.1443), metadata={op_name="jit(optimized_compute)/jit(_normal)/jit(_normal_real)/jit(_uniform)/add" stack_frame_id=24}
  %constant.803 = u32[]{:T(128)} constant(4), metadata={op_name="jit(optimized_compute)/jit(_threefry_split)/_make_test_data" stack_frame_id=38}
  %add.1419 = u32[10,4096,16,128]{3,1,2,0:T(8,128)} broadcast(%constant.803), dimensions={}, metadata={op_name="jit(optimized_compute)/jit(_normal)/jit(_normal_real)/jit(_uniform)/add" stack_frame_id=22}
  %add.1418 = u32[10,4096,16,128]{3,1,2,0:T(8,128)} add(%add.1420, %add.1419), metadata={op_name="jit(optimized_compute)/jit(_normal)/jit(_normal_real)/jit(_uniform)/add" stack_frame_id=24}
  %add.1417 = u32[10,4096,16,128]{3,1,2,0:T(8,128)} add(%add.1421, %add.1418), metadata={op_name="jit(optimized_compute)/jit(_normal)/jit(_normal_real)/jit(_uniform)/add" stack_frame_id=24}
  %shift_left.539 = u32[10,4096,16,128]{3,1,2,0:T(8,128)} shift-left(%add.1418, %broadcast.1271), metadata={op_name="jit(optimized_compute)/jit(_normal)/jit(_normal_real)/jit(_uniform)/shift_left" stack_frame_id=24}
  %shift_right_logical.556 = u32[10,4096,16,128]{3,1,2,0:T(8,128)} shift-right-logical(%add.1418, %broadcast.1270), metadata={op_name="jit(optimized_compute)/jit(_normal)/jit(_normal_real)/jit(_uniform)/shift_right_logical" stack_frame_id=24}
  %or.576 = u32[10,4096,16,128]{3,1,2,0:T(8,128)} or(%shift_left.539, %shift_right_logical.556), metadata={op_name="jit(optimized_compute)/jit(_normal)/jit(_normal_real)/jit(_uniform)/or" stack_frame_id=24}
  %xor.571 = u32[10,4096,16,128]{3,1,2,0:T(8,128)} xor(%add.1417, %or.576), metadata={op_name="jit(optimized_compute)/jit(_normal)/jit(_normal_real)/jit(_uniform)/xor" stack_frame_id=24}
  %add.1416 = u32[10,4096,16,128]{3,1,2,0:T(8,128)} add(%add.1417, %xor.571), metadata={op_name="jit(optimized_compute)/jit(_normal)/jit(_normal_real)/jit(_uniform)/add" stack_frame_id=24}
  %shift_left.538 = u32[10,4096,16,128]{3,1,2,0:T(8,128)} shift-left(%xor.571, %broadcast.1269), metadata={op_name="jit(optimized_compute)/jit(_normal)/jit(_normal_real)/jit(_uniform)/shift_left" stack_frame_id=24}
  %shift_right_logical.555 = u32[10,4096,16,128]{3,1,2,0:T(8,128)} shift-right-logical(%xor.571, %broadcast.1268), metadata={op_name="jit(optimized_compute)/jit(_normal)/jit(_normal_real)/jit(_uniform)/shift_right_logical" stack_frame_id=24}
  %or.575 = u32[10,4096,16,128]{3,1,2,0:T(8,128)} or(%shift_left.538, %shift_right_logical.555), metadata={op_name="jit(optimized_compute)/jit(_normal)/jit(_normal_real)/jit(_uniform)/or" stack_frame_id=24}
  %xor.570 = u32[10,4096,16,128]{3,1,2,0:T(8,128)} xor(%add.1416, %or.575), metadata={op_name="jit(optimized_compute)/jit(_normal)/jit(_normal_real)/jit(_uniform)/xor" stack_frame_id=24}
  %add.1415 = u32[10,4096,16,128]{3,1,2,0:T(8,128)} add(%add.1416, %xor.570), metadata={op_name="jit(optimized_compute)/jit(_normal)/jit(_normal_real)/jit(_uniform)/add" stack_frame_id=24}
  %shift_left.537 = u32[10,4096,16,128]{3,1,2,0:T(8,128)} shift-left(%xor.570, %broadcast.1267), metadata={op_name="jit(optimized_compute)/jit(_normal)/jit(_normal_real)/jit(_uniform)/shift_left" stack_frame_id=24}
  %shift_right_logical.554 = u32[10,4096,16,128]{3,1,2,0:T(8,128)} shift-right-logical(%xor.570, %broadcast.1266), metadata={op_name="jit(optimized_compute)/jit(_normal)/jit(_normal_real)/jit(_uniform)/shift_right_logical" stack_frame_id=24}
  %or.574 = u32[10,4096,16,128]{3,1,2,0:T(8,128)} or(%shift_left.537, %shift_right_logical.554), metadata={op_name="jit(optimized_compute)/jit(_normal)/jit(_normal_real)/jit(_uniform)/or" stack_frame_id=24}
  %xor.569 = u32[10,4096,16,128]{3,1,2,0:T(8,128)} xor(%add.1415, %or.574), metadata={op_name="jit(optimized_compute)/jit(_normal)/jit(_normal_real)/jit(_uniform)/xor" stack_frame_id=24}
  %add.1414 = u32[10,4096,16,128]{3,1,2,0:T(8,128)} add(%add.1415, %xor.569), metadata={op_name="jit(optimized_compute)/jit(_normal)/jit(_normal_real)/jit(_uniform)/add" stack_frame_id=24}
  %add.1413 = u32[10,4096,16,128]{3,1,2,0:T(8,128)} add(%add.1414, %add.1443), metadata={op_name="jit(optimized_compute)/jit(_normal)/jit(_normal_real)/jit(_uniform)/add" stack_frame_id=24}
  %shift_left.536 = u32[10,4096,16,128]{3,1,2,0:T(8,128)} shift-left(%xor.569, %broadcast.1266), metadata={op_name="jit(optimized_compute)/jit(_normal)/jit(_normal_real)/jit(_uniform)/shift_left" stack_frame_id=24}
  %shift_right_logical.553 = u32[10,4096,16,128]{3,1,2,0:T(8,128)} shift-right-logical(%xor.569, %broadcast.1267), metadata={op_name="jit(optimized_compute)/jit(_normal)/jit(_normal_real)/jit(_uniform)/shift_right_logical" stack_frame_id=24}
  %or.573 = u32[10,4096,16,128]{3,1,2,0:T(8,128)} or(%shift_left.536, %shift_right_logical.553), metadata={op_name="jit(optimized_compute)/jit(_normal)/jit(_normal_real)/jit(_uniform)/or" stack_frame_id=24}
  %xor.568 = u32[10,4096,16,128]{3,1,2,0:T(8,128)} xor(%add.1414, %or.573), metadata={op_name="jit(optimized_compute)/jit(_normal)/jit(_normal_real)/jit(_uniform)/xor" stack_frame_id=24}
  %add.1412 = u32[10,4096,16,128]{3,1,2,0:T(8,128)} add(%xor.568, %add.1452), metadata={op_name="jit(optimized_compute)/jit(_normal)/jit(_normal_real)/jit(_uniform)/add" stack_frame_id=24}
  %constant.798 = u32[]{:T(128)} constant(5), metadata={op_name="jit(optimized_compute)/jit(_threefry_split)/_make_test_data" stack_frame_id=38}
  %add.1411 = u32[10,4096,16,128]{3,1,2,0:T(8,128)} broadcast(%constant.798), dimensions={}, metadata={op_name="jit(optimized_compute)/jit(_normal)/jit(_normal_real)/jit(_uniform)/add" stack_frame_id=22}
  %add.1410 = u32[10,4096,16,128]{3,1,2,0:T(8,128)} add(%add.1412, %add.1411), metadata={op_name="jit(optimized_compute)/jit(_normal)/jit(_normal_real)/jit(_uniform)/add" stack_frame_id=24}
  %xor.567 = u32[10,4096,16,128]{3,1,2,0:T(8,128)} xor(%add.1413, %add.1410), metadata={op_name="jit(optimized_compute)/jit(_normal)/jit(_normal_real)/jit(_uniform)/xor" stack_frame_id=24}
  %convert_element_type.27 = u8[10,4096,16,128]{3,1,2,0:T(8,128)(4,1)} convert(%xor.567), metadata={op_name="jit(optimized_compute)/jit(_normal)/jit(_normal_real)/jit(_uniform)/convert_element_type" stack_frame_id=24}
  %convert_element_type.19 = u16[10,4096,16,128]{3,1,2,0:T(8,128)(2,1)} convert(%convert_element_type.27), metadata={op_name="jit(optimized_compute)/jit(_normal)/jit(_normal_real)/jit(_uniform)/convert_element_type" stack_frame_id=24}
  %constant.665 = u16[]{:T(256)} constant(1), metadata={op_name="jit(optimized_compute)/jit(_normal)/jit(_normal_real)/jit(_uniform)" stack_frame_id=22}
  %shift_right_logical.573 = u16[10,4096,16,128]{3,1,2,0:T(8,128)(2,1)} broadcast(%constant.665), dimensions={}, metadata={op_name="jit(optimized_compute)/jit(_normal)/jit(_normal_real)/jit(_uniform)/shift_right_logical" stack_frame_id=22}
  %shift_right_logical.450 = u16[10,4096,16,128]{3,1,2,0:T(8,128)(2,1)} shift-right-logical(%convert_element_type.19, %shift_right_logical.573), metadata={op_name="jit(optimized_compute)/jit(_normal)/jit(_normal_real)/jit(_uniform)/shift_right_logical" stack_frame_id=24}
  %constant.662 = u16[]{:T(256)} constant(16256), metadata={op_name="jit(optimized_compute)/jit(_normal)/jit(_normal_real)/jit(_uniform)" stack_frame_id=22}
  %or.593 = u16[10,4096,16,128]{3,1,2,0:T(8,128)(2,1)} broadcast(%constant.662), dimensions={}, metadata={op_name="jit(optimized_compute)/jit(_normal)/jit(_normal_real)/jit(_uniform)/or" stack_frame_id=22}
  %or.470 = u16[10,4096,16,128]{3,1,2,0:T(8,128)(2,1)} or(%shift_right_logical.450, %or.593), metadata={op_name="jit(optimized_compute)/jit(_normal)/jit(_normal_real)/jit(_uniform)/or" stack_frame_id=24}
  %bitcast_convert_type.7 = bf16[10,4096,16,128]{3,1,2,0:T(8,128)(2,1)} bitcast-convert(%or.470), metadata={op_name="jit(optimized_compute)/jit(_normal)/jit(_normal_real)/jit(_uniform)/bitcast_convert_type" stack_frame_id=24}
  %convert.15 = f32[10,4096,16,128]{3,1,2,0:T(8,128)} convert(%bitcast_convert_type.7)
  %constant.659 = bf16[]{:T(256)} constant(-1), metadata={op_name="jit(optimized_compute)/jit(_normal)/jit(_normal_real)/jit(_uniform)" stack_frame_id=22}
  %broadcast.1280 = bf16[10,4096,16,128]{3,1,2,0:T(8,128)(2,1)} broadcast(%constant.659), dimensions={}, metadata={op_name="jit(optimized_compute)/jit(_normal)/jit(_normal_real)/jit(_uniform)" stack_frame_id=22}
  %convert.16 = f32[10,4096,16,128]{3,1,2,0:T(8,128)} convert(%broadcast.1280)
  %add.1084 = f32[10,4096,16,128]{3,1,2,0:T(8,128)} add(%convert.15, %convert.16), metadata={op_name="jit(optimized_compute)/jit(_normal)/jit(_normal_real)/jit(_uniform)/sub" stack_frame_id=24}, backend_config={"flag_configs":[],"scoped_memory_configs":[],"used_scoped_memory_configs":[],"float_type_correction_info":{"original_type":"BF16","original_shape":{"element_type":"BF16","dimensions":["10","4096","16","128"],"tuple_shapes":[],"layout":{"minor_to_major":["3","1","2","0"],"tiles":[{"dimensions":["8","128"]},{"dimensions":["2","1"]}],"element_size_in_bits":"0","memory_space":"0","dim_level_types":[],"index_primitive_type":"PRIMITIVE_TYPE_INVALID","pointer_primitive_type":"PRIMITIVE_TYPE_INVALID","dim_unique":[],"dim_ordered":[],"dynamic_shape_metadata_prefix_bytes":"0","tail_padding_alignment_in_elements":"1","split_configs":[]},"is_dynamic_dimension":[false,false,false,false]}}}
  %constant.656 = bf16[]{:T(256)} constant(2), metadata={op_name="jit(optimized_compute)/jit(_normal)/jit(_normal_real)/jit(_uniform)/mul" stack_frame_id=22}
  %mul.51 = bf16[10,4096,16,128]{3,1,2,0:T(8,128)(2,1)} broadcast(%constant.656), dimensions={}, metadata={op_name="jit(optimized_compute)/jit(_normal)/jit(_normal_real)/jit(_uniform)/mul" stack_frame_id=22}
  %convert.17 = f32[10,4096,16,128]{3,1,2,0:T(8,128)} convert(%mul.51)
  %mul.45 = f32[10,4096,16,128]{3,1,2,0:T(8,128)} multiply(%add.1084, %convert.17), metadata={op_name="jit(optimized_compute)/jit(_normal)/jit(_normal_real)/jit(_uniform)/mul" stack_frame_id=24}, backend_config={"flag_configs":[],"scoped_memory_configs":[],"used_scoped_memory_configs":[],"float_type_correction_info":{"original_type":"BF16","original_shape":{"element_type":"BF16","dimensions":["10","4096","16","128"],"tuple_shapes":[],"layout":{"minor_to_major":["3","1","2","0"],"tiles":[{"dimensions":["8","128"]},{"dimensions":["2","1"]}],"element_size_in_bits":"0","memory_space":"0","dim_level_types":[],"index_primitive_type":"PRIMITIVE_TYPE_INVALID","pointer_primitive_type":"PRIMITIVE_TYPE_INVALID","dim_unique":[],"dim_ordered":[],"dynamic_shape_metadata_prefix_bytes":"0","tail_padding_alignment_in_elements":"1","split_configs":[]},"is_dynamic_dimension":[false,false,false,false]}}}
  %add.1083 = f32[10,4096,16,128]{3,1,2,0:T(8,128)} add(%mul.45, %convert.18), metadata={op_name="jit(optimized_compute)/jit(_normal)/jit(_normal_real)/jit(_uniform)/add" stack_frame_id=24}, backend_config={"flag_configs":[],"scoped_memory_configs":[],"used_scoped_memory_configs":[],"float_type_correction_info":{"original_type":"BF16","original_shape":{"element_type":"BF16","dimensions":["10","4096","16","128"],"tuple_shapes":[],"layout":{"minor_to_major":["3","1","2","0"],"tiles":[{"dimensions":["8","128"]},{"dimensions":["2","1"]}],"element_size_in_bits":"0","memory_space":"0","dim_level_types":[],"index_primitive_type":"PRIMITIVE_TYPE_INVALID","pointer_primitive_type":"PRIMITIVE_TYPE_INVALID","dim_unique":[],"dim_ordered":[],"dynamic_shape_metadata_prefix_bytes":"0","tail_padding_alignment_in_elements":"1","split_configs":[]},"is_dynamic_dimension":[false,false,false,false]}}}
  %max.14 = f32[10,4096,16,128]{3,1,2,0:T(8,128)} maximum(%convert.18, %add.1083), metadata={op_name="jit(optimized_compute)/jit(_normal)/jit(_normal_real)/jit(_uniform)/max" stack_frame_id=24}, backend_config={"flag_configs":[],"scoped_memory_configs":[],"used_scoped_memory_configs":[],"float_type_correction_info":{"original_type":"BF16","original_shape":{"element_type":"BF16","dimensions":["10","4096","16","128"],"tuple_shapes":[],"layout":{"minor_to_major":["3","1","2","0"],"tiles":[{"dimensions":["8","128"]},{"dimensions":["2","1"]}],"element_size_in_bits":"0","memory_space":"0","dim_level_types":[],"index_primitive_type":"PRIMITIVE_TYPE_INVALID","pointer_primitive_type":"PRIMITIVE_TYPE_INVALID","dim_unique":[],"dim_ordered":[],"dynamic_shape_metadata_prefix_bytes":"0","tail_padding_alignment_in_elements":"1","split_configs":[]},"is_dynamic_dimension":[false,false,false,false]}}}
  %erf_inv.1083 = f32[10,4096,16,128]{3,1,2,0:T(8,128)} convert(%max.14), metadata={op_name="jit(optimized_compute)/jit(_normal)/jit(_normal_real)/erf_inv" stack_frame_id=24}
  %erf_inv.1082 = f32[10,4096,16,128]{3,1,2,0:T(8,128)} abs(%erf_inv.1083), metadata={op_name="jit(optimized_compute)/jit(_normal)/jit(_normal_real)/erf_inv" stack_frame_id=24}
  %constant.791 = f32[]{:T(128)} constant(1), metadata={op_name="jit(optimized_compute)/jit(_normal)/jit(_normal_real)/jit(_uniform)" stack_frame_id=25}
  %erf_inv.1456 = f32[10,4096,16,128]{3,1,2,0:T(8,128)} broadcast(%constant.791), dimensions={}, metadata={op_name="jit(optimized_compute)/jit(_normal)/jit(_normal_real)/erf_inv" stack_frame_id=22}
  %erf_inv.1081 = pred[10,4096,16,128]{3,1,2,0:T(8,128)(4,1)} compare(%erf_inv.1082, %erf_inv.1456), direction=EQ, metadata={op_name="jit(optimized_compute)/jit(_normal)/jit(_normal_real)/erf_inv" stack_frame_id=24}
  %constant.787 = f32[]{:T(128)} constant(inf), metadata={op_name="jit(optimized_compute)/jit(_normal)/jit(_normal_real)" stack_frame_id=25}
  %erf_inv.1453 = f32[10,4096,16,128]{3,1,2,0:T(8,128)} broadcast(%constant.787), dimensions={}, metadata={op_name="jit(optimized_compute)/jit(_normal)/jit(_normal_real)/erf_inv" stack_frame_id=22}
  %erf_inv.1080 = f32[10,4096,16,128]{3,1,2,0:T(8,128)} multiply(%erf_inv.1083, %erf_inv.1453), metadata={op_name="jit(optimized_compute)/jit(_normal)/jit(_normal_real)/erf_inv" stack_frame_id=24}
  %erf_inv.1079 = f32[10,4096,16,128]{3,1,2,0:T(8,128)} negate(%erf_inv.1083), metadata={op_name="jit(optimized_compute)/jit(_normal)/jit(_normal_real)/erf_inv" stack_frame_id=24}
  %erf_inv.1078 = f32[10,4096,16,128]{3,1,2,0:T(8,128)} multiply(%erf_inv.1083, %erf_inv.1079), metadata={op_name="jit(optimized_compute)/jit(_normal)/jit(_normal_real)/erf_inv" stack_frame_id=24}
  %erf_inv.1077 = f32[10,4096,16,128]{3,1,2,0:T(8,128)} log-plus-one(%erf_inv.1078), metadata={op_name="jit(optimized_compute)/jit(_normal)/jit(_normal_real)/erf_inv" stack_frame_id=24}
  %erf_inv.1076 = f32[10,4096,16,128]{3,1,2,0:T(8,128)} negate(%erf_inv.1077), metadata={op_name="jit(optimized_compute)/jit(_normal)/jit(_normal_real)/erf_inv" stack_frame_id=24}
  %constant.783 = f32[]{:T(128)} constant(5), metadata={op_name="jit(optimized_compute)/jit(_normal)/jit(_normal_real)" stack_frame_id=25}
  %erf_inv.1450 = f32[10,4096,16,128]{3,1,2,0:T(8,128)} broadcast(%constant.783), dimensions={}, metadata={op_name="jit(optimized_compute)/jit(_normal)/jit(_normal_real)/erf_inv" stack_frame_id=22}
  %erf_inv.1075 = pred[10,4096,16,128]{3,1,2,0:T(8,128)(4,1)} compare(%erf_inv.1076, %erf_inv.1450), direction=LT, metadata={op_name="jit(optimized_compute)/jit(_normal)/jit(_normal_real)/erf_inv" stack_frame_id=24}
  %constant.779 = f32[]{:T(128)} constant(1.50140941), metadata={op_name="jit(optimized_compute)/jit(_normal)/jit(_normal_real)" stack_frame_id=25}
  %erf_inv.1447 = f32[10,4096,16,128]{3,1,2,0:T(8,128)} broadcast(%constant.779), dimensions={}, metadata={op_name="jit(optimized_compute)/jit(_normal)/jit(_normal_real)/erf_inv" stack_frame_id=22}
  %constant.775 = f32[]{:T(128)} constant(2.83297682), metadata={op_name="jit(optimized_compute)/jit(_normal)/jit(_normal_real)" stack_frame_id=25}
  %erf_inv.1444 = f32[10,4096,16,128]{3,1,2,0:T(8,128)} broadcast(%constant.775), dimensions={}, metadata={op_name="jit(optimized_compute)/jit(_normal)/jit(_normal_real)/erf_inv" stack_frame_id=22}
  %erf_inv.1074 = f32[10,4096,16,128]{3,1,2,0:T(8,128)} select(%erf_inv.1075, %erf_inv.1447, %erf_inv.1444), metadata={op_name="jit(optimized_compute)/jit(_normal)/jit(_normal_real)/erf_inv" stack_frame_id=24}
  %constant.771 = f32[]{:T(128)} constant(0.246640727), metadata={op_name="jit(optimized_compute)/jit(_normal)/jit(_normal_real)" stack_frame_id=25}
  %erf_inv.1441 = f32[10,4096,16,128]{3,1,2,0:T(8,128)} broadcast(%constant.771), dimensions={}, metadata={op_name="jit(optimized_compute)/jit(_normal)/jit(_normal_real)/erf_inv" stack_frame_id=22}
  %constant.767 = f32[]{:T(128)} constant(1.00167406), metadata={op_name="jit(optimized_compute)/jit(_normal)/jit(_normal_real)" stack_frame_id=25}
  %erf_inv.1438 = f32[10,4096,16,128]{3,1,2,0:T(8,128)} broadcast(%constant.767), dimensions={}, metadata={op_name="jit(optimized_compute)/jit(_normal)/jit(_normal_real)/erf_inv" stack_frame_id=22}
  %erf_inv.1073 = f32[10,4096,16,128]{3,1,2,0:T(8,128)} select(%erf_inv.1075, %erf_inv.1441, %erf_inv.1438), metadata={op_name="jit(optimized_compute)/jit(_normal)/jit(_normal_real)/erf_inv" stack_frame_id=24}
  %constant.763 = f32[]{:T(128)} constant(-0.00417768164), metadata={op_name="jit(optimized_compute)/jit(_normal)/jit(_normal_real)" stack_frame_id=25}
  %erf_inv.1435 = f32[10,4096,16,128]{3,1,2,0:T(8,128)} broadcast(%constant.763), dimensions={}, metadata={op_name="jit(optimized_compute)/jit(_normal)/jit(_normal_real)/erf_inv" stack_frame_id=22}
  %constant.759 = f32[]{:T(128)} constant(0.00943887047), metadata={op_name="jit(optimized_compute)/jit(_normal)/jit(_normal_real)" stack_frame_id=25}
  %erf_inv.1432 = f32[10,4096,16,128]{3,1,2,0:T(8,128)} broadcast(%constant.759), dimensions={}, metadata={op_name="jit(optimized_compute)/jit(_normal)/jit(_normal_real)/erf_inv" stack_frame_id=22}
  %erf_inv.1072 = f32[10,4096,16,128]{3,1,2,0:T(8,128)} select(%erf_inv.1075, %erf_inv.1435, %erf_inv.1432), metadata={op_name="jit(optimized_compute)/jit(_normal)/jit(_normal_real)/erf_inv" stack_frame_id=24}
  %constant.755 = f32[]{:T(128)} constant(-0.00125372503), metadata={op_name="jit(optimized_compute)/jit(_normal)/jit(_normal_real)" stack_frame_id=25}
  %erf_inv.1429 = f32[10,4096,16,128]{3,1,2,0:T(8,128)} broadcast(%constant.755), dimensions={}, metadata={op_name="jit(optimized_compute)/jit(_normal)/jit(_normal_real)/erf_inv" stack_frame_id=22}
  %constant.751 = f32[]{:T(128)} constant(-0.0076224613), metadata={op_name="jit(optimized_compute)/jit(_normal)/jit(_normal_real)" stack_frame_id=25}
  %erf_inv.1426 = f32[10,4096,16,128]{3,1,2,0:T(8,128)} broadcast(%constant.751), dimensions={}, metadata={op_name="jit(optimized_compute)/jit(_normal)/jit(_normal_real)/erf_inv" stack_frame_id=22}
  %erf_inv.1071 = f32[10,4096,16,128]{3,1,2,0:T(8,128)} select(%erf_inv.1075, %erf_inv.1429, %erf_inv.1426), metadata={op_name="jit(optimized_compute)/jit(_normal)/jit(_normal_real)/erf_inv" stack_frame_id=24}
  %constant.747 = f32[]{:T(128)} constant(0.00021858087), metadata={op_name="jit(optimized_compute)/jit(_normal)/jit(_normal_real)" stack_frame_id=25}
  %erf_inv.1423 = f32[10,4096,16,128]{3,1,2,0:T(8,128)} broadcast(%constant.747), dimensions={}, metadata={op_name="jit(optimized_compute)/jit(_normal)/jit(_normal_real)/erf_inv" stack_frame_id=22}
  %constant.743 = f32[]{:T(128)} constant(0.00573950773), metadata={op_name="jit(optimized_compute)/jit(_normal)/jit(_normal_real)" stack_frame_id=25}
  %erf_inv.1420 = f32[10,4096,16,128]{3,1,2,0:T(8,128)} broadcast(%constant.743), dimensions={}, metadata={op_name="jit(optimized_compute)/jit(_normal)/jit(_normal_real)/erf_inv" stack_frame_id=22}
  %erf_inv.1070 = f32[10,4096,16,128]{3,1,2,0:T(8,128)} select(%erf_inv.1075, %erf_inv.1423, %erf_inv.1420), metadata={op_name="jit(optimized_compute)/jit(_normal)/jit(_normal_real)/erf_inv" stack_frame_id=24}
  %constant.739 = f32[]{:T(128)} constant(-4.39150654e-06), metadata={op_name="jit(optimized_compute)/jit(_normal)/jit(_normal_real)" stack_frame_id=25}
  %erf_inv.1417 = f32[10,4096,16,128]{3,1,2,0:T(8,128)} broadcast(%constant.739), dimensions={}, metadata={op_name="jit(optimized_compute)/jit(_normal)/jit(_normal_real)/erf_inv" stack_frame_id=22}
  %constant.735 = f32[]{:T(128)} constant(-0.00367342844), metadata={op_name="jit(optimized_compute)/jit(_normal)/jit(_normal_real)" stack_frame_id=25}
  %erf_inv.1414 = f32[10,4096,16,128]{3,1,2,0:T(8,128)} broadcast(%constant.735), dimensions={}, metadata={op_name="jit(optimized_compute)/jit(_normal)/jit(_normal_real)/erf_inv" stack_frame_id=22}
  %erf_inv.1069 = f32[10,4096,16,128]{3,1,2,0:T(8,128)} select(%erf_inv.1075, %erf_inv.1417, %erf_inv.1414), metadata={op_name="jit(optimized_compute)/jit(_normal)/jit(_normal_real)/erf_inv" stack_frame_id=24}
  %constant.731 = f32[]{:T(128)} constant(-3.5233877e-06), metadata={op_name="jit(optimized_compute)/jit(_normal)/jit(_normal_real)" stack_frame_id=25}
  %erf_inv.1411 = f32[10,4096,16,128]{3,1,2,0:T(8,128)} broadcast(%constant.731), dimensions={}, metadata={op_name="jit(optimized_compute)/jit(_normal)/jit(_normal_real)/erf_inv" stack_frame_id=22}
  %constant.727 = f32[]{:T(128)} constant(0.00134934322), metadata={op_name="jit(optimized_compute)/jit(_normal)/jit(_normal_real)" stack_frame_id=25}
  %erf_inv.1408 = f32[10,4096,16,128]{3,1,2,0:T(8,128)} broadcast(%constant.727), dimensions={}, metadata={op_name="jit(optimized_compute)/jit(_normal)/jit(_normal_real)/erf_inv" stack_frame_id=22}
  %erf_inv.1068 = f32[10,4096,16,128]{3,1,2,0:T(8,128)} select(%erf_inv.1075, %erf_inv.1411, %erf_inv.1408), metadata={op_name="jit(optimized_compute)/jit(_normal)/jit(_normal_real)/erf_inv" stack_frame_id=24}
  %constant.723 = f32[]{:T(128)} constant(3.43273939e-07), metadata={op_name="jit(optimized_compute)/jit(_normal)/jit(_normal_real)" stack_frame_id=25}
  %erf_inv.1405 = f32[10,4096,16,128]{3,1,2,0:T(8,128)} broadcast(%constant.723), dimensions={}, metadata={op_name="jit(optimized_compute)/jit(_normal)/jit(_normal_real)/erf_inv" stack_frame_id=22}
  %constant.719 = f32[]{:T(128)} constant(0.000100950558), metadata={op_name="jit(optimized_compute)/jit(_normal)/jit(_normal_real)" stack_frame_id=25}
  %erf_inv.1402 = f32[10,4096,16,128]{3,1,2,0:T(8,128)} broadcast(%constant.719), dimensions={}, metadata={op_name="jit(optimized_compute)/jit(_normal)/jit(_normal_real)/erf_inv" stack_frame_id=22}
  %erf_inv.1067 = f32[10,4096,16,128]{3,1,2,0:T(8,128)} select(%erf_inv.1075, %erf_inv.1405, %erf_inv.1402), metadata={op_name="jit(optimized_compute)/jit(_normal)/jit(_normal_real)/erf_inv" stack_frame_id=24}
  %constant.715 = f32[]{:T(128)} constant(2.81022636e-08), metadata={op_name="jit(optimized_compute)/jit(_normal)/jit(_normal_real)" stack_frame_id=25}
  %erf_inv.1399 = f32[10,4096,16,128]{3,1,2,0:T(8,128)} broadcast(%constant.715), dimensions={}, metadata={op_name="jit(optimized_compute)/jit(_normal)/jit(_normal_real)/erf_inv" stack_frame_id=22}
  %constant.711 = f32[]{:T(128)} constant(-0.000200214257), metadata={op_name="jit(optimized_compute)/jit(_normal)/jit(_normal_real)" stack_frame_id=25}
  %erf_inv.1396 = f32[10,4096,16,128]{3,1,2,0:T(8,128)} broadcast(%constant.711), dimensions={}, metadata={op_name="jit(optimized_compute)/jit(_normal)/jit(_normal_real)/erf_inv" stack_frame_id=22}
  %erf_inv.1066 = f32[10,4096,16,128]{3,1,2,0:T(8,128)} select(%erf_inv.1075, %erf_inv.1399, %erf_inv.1396), metadata={op_name="jit(optimized_compute)/jit(_normal)/jit(_normal_real)/erf_inv" stack_frame_id=24}
  %constant.697 = f32[]{:T(128)} constant(-2.5), metadata={op_name="jit(optimized_compute)/jit(_normal)/jit(_normal_real)" stack_frame_id=25}
  %broadcast.1061 = f32[10,4096,16,128]{3,1,2,0:T(8,128)} broadcast(%constant.697), dimensions={}, metadata={op_name="jit(optimized_compute)/jit(_normal)/jit(_normal_real)" stack_frame_id=22}
  %add.1066 = f32[10,4096,16,128]{3,1,2,0:T(8,128)} add(%erf_inv.1076, %broadcast.1061), metadata={op_name="jit(optimized_compute)/jit(_normal)/jit(_normal_real)/erf_inv" stack_frame_id=24}
  %erf_inv.1065 = f32[10,4096,16,128]{3,1,2,0:T(8,128)} sqrt(%erf_inv.1076), metadata={op_name="jit(optimized_compute)/jit(_normal)/jit(_normal_real)/erf_inv" stack_frame_id=24}
  %constant.693 = f32[]{:T(128)} constant(-3), metadata={op_name="jit(optimized_compute)/jit(_normal)/jit(_normal_real)" stack_frame_id=25}
  %broadcast.1058 = f32[10,4096,16,128]{3,1,2,0:T(8,128)} broadcast(%constant.693), dimensions={}, metadata={op_name="jit(optimized_compute)/jit(_normal)/jit(_normal_real)" stack_frame_id=22}
  %add.1065 = f32[10,4096,16,128]{3,1,2,0:T(8,128)} add(%erf_inv.1065, %broadcast.1058), metadata={op_name="jit(optimized_compute)/jit(_normal)/jit(_normal_real)/erf_inv" stack_frame_id=24}
  %erf_inv.1064 = f32[10,4096,16,128]{3,1,2,0:T(8,128)} select(%erf_inv.1075, %add.1066, %add.1065), metadata={op_name="jit(optimized_compute)/jit(_normal)/jit(_normal_real)/erf_inv" stack_frame_id=24}
  %erf_inv.1063 = f32[10,4096,16,128]{3,1,2,0:T(8,128)} multiply(%erf_inv.1066, %erf_inv.1064), metadata={op_name="jit(optimized_compute)/jit(_normal)/jit(_normal_real)/erf_inv" stack_frame_id=24}
  %erf_inv.1062 = f32[10,4096,16,128]{3,1,2,0:T(8,128)} add(%erf_inv.1067, %erf_inv.1063), metadata={op_name="jit(optimized_compute)/jit(_normal)/jit(_normal_real)/erf_inv" stack_frame_id=24}
  %erf_inv.1061 = f32[10,4096,16,128]{3,1,2,0:T(8,128)} multiply(%erf_inv.1062, %erf_inv.1064), metadata={op_name="jit(optimized_compute)/jit(_normal)/jit(_normal_real)/erf_inv" stack_frame_id=24}
  %erf_inv.1060 = f32[10,4096,16,128]{3,1,2,0:T(8,128)} add(%erf_inv.1068, %erf_inv.1061), metadata={op_name="jit(optimized_compute)/jit(_normal)/jit(_normal_real)/erf_inv" stack_frame_id=24}
  %erf_inv.1059 = f32[10,4096,16,128]{3,1,2,0:T(8,128)} multiply(%erf_inv.1060, %erf_inv.1064), metadata={op_name="jit(optimized_compute)/jit(_normal)/jit(_normal_real)/erf_inv" stack_frame_id=24}
  %erf_inv.1058 = f32[10,4096,16,128]{3,1,2,0:T(8,128)} add(%erf_inv.1069, %erf_inv.1059), metadata={op_name="jit(optimized_compute)/jit(_normal)/jit(_normal_real)/erf_inv" stack_frame_id=24}
  %erf_inv.1057 = f32[10,4096,16,128]{3,1,2,0:T(8,128)} multiply(%erf_inv.1058, %erf_inv.1064), metadata={op_name="jit(optimized_compute)/jit(_normal)/jit(_normal_real)/erf_inv" stack_frame_id=24}
  %erf_inv.1056 = f32[10,4096,16,128]{3,1,2,0:T(8,128)} add(%erf_inv.1070, %erf_inv.1057), metadata={op_name="jit(optimized_compute)/jit(_normal)/jit(_normal_real)/erf_inv" stack_frame_id=24}
  %erf_inv.1055 = f32[10,4096,16,128]{3,1,2,0:T(8,128)} multiply(%erf_inv.1056, %erf_inv.1064), metadata={op_name="jit(optimized_compute)/jit(_normal)/jit(_normal_real)/erf_inv" stack_frame_id=24}
  %erf_inv.1054 = f32[10,4096,16,128]{3,1,2,0:T(8,128)} add(%erf_inv.1071, %erf_inv.1055), metadata={op_name="jit(optimized_compute)/jit(_normal)/jit(_normal_real)/erf_inv" stack_frame_id=24}
  %erf_inv.1053 = f32[10,4096,16,128]{3,1,2,0:T(8,128)} multiply(%erf_inv.1054, %erf_inv.1064), metadata={op_name="jit(optimized_compute)/jit(_normal)/jit(_normal_real)/erf_inv" stack_frame_id=24}
  %erf_inv.1052 = f32[10,4096,16,128]{3,1,2,0:T(8,128)} add(%erf_inv.1072, %erf_inv.1053), metadata={op_name="jit(optimized_compute)/jit(_normal)/jit(_normal_real)/erf_inv" stack_frame_id=24}
  %erf_inv.1051 = f32[10,4096,16,128]{3,1,2,0:T(8,128)} multiply(%erf_inv.1052, %erf_inv.1064), metadata={op_name="jit(optimized_compute)/jit(_normal)/jit(_normal_real)/erf_inv" stack_frame_id=24}
  %erf_inv.1050 = f32[10,4096,16,128]{3,1,2,0:T(8,128)} add(%erf_inv.1073, %erf_inv.1051), metadata={op_name="jit(optimized_compute)/jit(_normal)/jit(_normal_real)/erf_inv" stack_frame_id=24}
  %erf_inv.1049 = f32[10,4096,16,128]{3,1,2,0:T(8,128)} multiply(%erf_inv.1050, %erf_inv.1064), metadata={op_name="jit(optimized_compute)/jit(_normal)/jit(_normal_real)/erf_inv" stack_frame_id=24}
  %erf_inv.1048 = f32[10,4096,16,128]{3,1,2,0:T(8,128)} add(%erf_inv.1074, %erf_inv.1049), metadata={op_name="jit(optimized_compute)/jit(_normal)/jit(_normal_real)/erf_inv" stack_frame_id=24}
  %erf_inv.1047 = f32[10,4096,16,128]{3,1,2,0:T(8,128)} multiply(%erf_inv.1048, %erf_inv.1083), metadata={op_name="jit(optimized_compute)/jit(_normal)/jit(_normal_real)/erf_inv" stack_frame_id=24}
  %erf_inv.1046 = f32[10,4096,16,128]{3,1,2,0:T(8,128)} select(%erf_inv.1081, %erf_inv.1080, %erf_inv.1047), metadata={op_name="jit(optimized_compute)/jit(_normal)/jit(_normal_real)/erf_inv" stack_frame_id=24}
  %erf_inv.1045 = bf16[10,4096,16,128]{3,1,2,0:T(8,128)(2,1)} convert(%erf_inv.1046), metadata={op_name="jit(optimized_compute)/jit(_normal)/jit(_normal_real)/erf_inv" stack_frame_id=24}
  %convert.19 = f32[10,4096,16,128]{3,1,2,0:T(8,128)} convert(%erf_inv.1045)
  %constant.653 = bf16[]{:T(256)} constant(1.414), metadata={op_name="jit(optimized_compute)/jit(_normal)/jit(_normal_real)" stack_frame_id=22}
  %mul.48 = bf16[10,4096,16,128]{3,1,2,0:T(8,128)(2,1)} broadcast(%constant.653), dimensions={}, metadata={op_name="jit(optimized_compute)/jit(_normal)/jit(_normal_real)/mul" stack_frame_id=22}
  %convert.20 = f32[10,4096,16,128]{3,1,2,0:T(8,128)} convert(%mul.48)
  %mul.31 = f32[10,4096,16,128]{3,1,2,0:T(8,128)} multiply(%convert.19, %convert.20), metadata={op_name="jit(optimized_compute)/jit(_normal)/jit(_normal_real)/mul" stack_frame_id=24}, backend_config={"flag_configs":[],"scoped_memory_configs":[],"used_scoped_memory_configs":[],"float_type_correction_info":{"original_type":"BF16","original_shape":{"element_type":"BF16","dimensions":["10","4096","16","128"],"tuple_shapes":[],"layout":{"minor_to_major":["3","1","2","0"],"tiles":[{"dimensions":["8","128"]},{"dimensions":["2","1"]}],"element_size_in_bits":"0","memory_space":"0","dim_level_types":[],"index_primitive_type":"PRIMITIVE_TYPE_INVALID","pointer_primitive_type":"PRIMITIVE_TYPE_INVALID","dim_unique":[],"dim_ordered":[],"dynamic_shape_metadata_prefix_bytes":"0","tail_padding_alignment_in_elements":"1","split_configs":[]},"is_dynamic_dimension":[false,false,false,false]}}}
  %convert.12 = f32[10,4096,16,128]{3,1,2,0:T(8,128)} convert(%mul.31), metadata={op_name="jit(optimized_compute)/jvp(jit(fused_chunk_fwd_kernel))/transpose" stack_frame_id=41}
  %bitcast.15 = f32[10,16,4096,128]{3,2,1,0:T(8,128)} bitcast(%convert.12), metadata={op_name="jit(optimized_compute)/jvp(jit(fused_chunk_fwd_kernel))/transpose" stack_frame_id=41}
  %param_11.758 = u32[]{:T(128)} parameter(11)
  %add.1350.clone.1 = u32[10,4096,16,128]{3,1,2,0:T(8,128)} broadcast(%param_11.758), dimensions={}, metadata={op_name="jit(optimized_compute)/jit(_normal)/jit(_normal_real)/jit(_uniform)/add" stack_frame_id=23}
  %add.1349.clone.1 = u32[10,4096,16,128]{3,1,2,0:T(8,128)} add(%shift-right-logical.112, %add.1350.clone.1), metadata={op_name="jit(optimized_compute)/jit(_normal)/jit(_normal_real)/jit(_uniform)/add" stack_frame_id=23}
  %param_10.748 = u32[]{:T(128)} parameter(10)
  %add.1348.clone.1 = u32[10,4096,16,128]{3,1,2,0:T(8,128)} broadcast(%param_10.748), dimensions={}, metadata={op_name="jit(optimized_compute)/jit(_normal)/jit(_normal_real)/jit(_uniform)/add" stack_frame_id=23}
  %add.1347.clone.1 = u32[10,4096,16,128]{3,1,2,0:T(8,128)} add(%add.1458, %add.1348.clone.1), metadata={op_name="jit(optimized_compute)/jit(_normal)/jit(_normal_real)/jit(_uniform)/add" stack_frame_id=23}
  %add.1346.clone.1 = u32[10,4096,16,128]{3,1,2,0:T(8,128)} add(%add.1349.clone.1, %add.1347.clone.1), metadata={op_name="jit(optimized_compute)/jit(_normal)/jit(_normal_real)/jit(_uniform)/add" stack_frame_id=23}
  %shift_left.515.clone.1 = u32[10,4096,16,128]{3,1,2,0:T(8,128)} shift-left(%add.1347.clone.1, %broadcast.1271), metadata={op_name="jit(optimized_compute)/jit(_normal)/jit(_normal_real)/jit(_uniform)/shift_left" stack_frame_id=23}
  %shift_right_logical.532.clone.1 = u32[10,4096,16,128]{3,1,2,0:T(8,128)} shift-right-logical(%add.1347.clone.1, %broadcast.1270), metadata={op_name="jit(optimized_compute)/jit(_normal)/jit(_normal_real)/jit(_uniform)/shift_right_logical" stack_frame_id=23}
  %or.552.clone.1 = u32[10,4096,16,128]{3,1,2,0:T(8,128)} or(%shift_left.515.clone.1, %shift_right_logical.532.clone.1), metadata={op_name="jit(optimized_compute)/jit(_normal)/jit(_normal_real)/jit(_uniform)/or" stack_frame_id=23}
  %xor.545.clone.1 = u32[10,4096,16,128]{3,1,2,0:T(8,128)} xor(%add.1346.clone.1, %or.552.clone.1), metadata={op_name="jit(optimized_compute)/jit(_normal)/jit(_normal_real)/jit(_uniform)/xor" stack_frame_id=23}
  %add.1345.clone.1 = u32[10,4096,16,128]{3,1,2,0:T(8,128)} add(%add.1346.clone.1, %xor.545.clone.1), metadata={op_name="jit(optimized_compute)/jit(_normal)/jit(_normal_real)/jit(_uniform)/add" stack_frame_id=23}
  %shift_left.514.clone.1 = u32[10,4096,16,128]{3,1,2,0:T(8,128)} shift-left(%xor.545.clone.1, %broadcast.1269), metadata={op_name="jit(optimized_compute)/jit(_normal)/jit(_normal_real)/jit(_uniform)/shift_left" stack_frame_id=23}
  %shift_right_logical.531.clone.1 = u32[10,4096,16,128]{3,1,2,0:T(8,128)} shift-right-logical(%xor.545.clone.1, %broadcast.1268), metadata={op_name="jit(optimized_compute)/jit(_normal)/jit(_normal_real)/jit(_uniform)/shift_right_logical" stack_frame_id=23}
  %or.551.clone.1 = u32[10,4096,16,128]{3,1,2,0:T(8,128)} or(%shift_left.514.clone.1, %shift_right_logical.531.clone.1), metadata={op_name="jit(optimized_compute)/jit(_normal)/jit(_normal_real)/jit(_uniform)/or" stack_frame_id=23}
  %xor.544.clone.1 = u32[10,4096,16,128]{3,1,2,0:T(8,128)} xor(%add.1345.clone.1, %or.551.clone.1), metadata={op_name="jit(optimized_compute)/jit(_normal)/jit(_normal_real)/jit(_uniform)/xor" stack_frame_id=23}
  %add.1344.clone.1 = u32[10,4096,16,128]{3,1,2,0:T(8,128)} add(%add.1345.clone.1, %xor.544.clone.1), metadata={op_name="jit(optimized_compute)/jit(_normal)/jit(_normal_real)/jit(_uniform)/add" stack_frame_id=23}
  %shift_left.513.clone.1 = u32[10,4096,16,128]{3,1,2,0:T(8,128)} shift-left(%xor.544.clone.1, %broadcast.1267), metadata={op_name="jit(optimized_compute)/jit(_normal)/jit(_normal_real)/jit(_uniform)/shift_left" stack_frame_id=23}
  %shift_right_logical.530.clone.1 = u32[10,4096,16,128]{3,1,2,0:T(8,128)} shift-right-logical(%xor.544.clone.1, %broadcast.1266), metadata={op_name="jit(optimized_compute)/jit(_normal)/jit(_normal_real)/jit(_uniform)/shift_right_logical" stack_frame_id=23}
  %or.550.clone.1 = u32[10,4096,16,128]{3,1,2,0:T(8,128)} or(%shift_left.513.clone.1, %shift_right_logical.530.clone.1), metadata={op_name="jit(optimized_compute)/jit(_normal)/jit(_normal_real)/jit(_uniform)/or" stack_frame_id=23}
  %xor.543.clone.1 = u32[10,4096,16,128]{3,1,2,0:T(8,128)} xor(%add.1344.clone.1, %or.550.clone.1), metadata={op_name="jit(optimized_compute)/jit(_normal)/jit(_normal_real)/jit(_uniform)/xor" stack_frame_id=23}
  %add.1343.clone.1 = u32[10,4096,16,128]{3,1,2,0:T(8,128)} add(%add.1344.clone.1, %xor.543.clone.1), metadata={op_name="jit(optimized_compute)/jit(_normal)/jit(_normal_real)/jit(_uniform)/add" stack_frame_id=23}
  %add.1342.clone.1 = u32[10,4096,16,128]{3,1,2,0:T(8,128)} add(%add.1343.clone.1, %add.1348.clone.1), metadata={op_name="jit(optimized_compute)/jit(_normal)/jit(_normal_real)/jit(_uniform)/add" stack_frame_id=23}
  %shift_left.512.clone.1 = u32[10,4096,16,128]{3,1,2,0:T(8,128)} shift-left(%xor.543.clone.1, %broadcast.1266), metadata={op_name="jit(optimized_compute)/jit(_normal)/jit(_normal_real)/jit(_uniform)/shift_left" stack_frame_id=23}
  %shift_right_logical.529.clone.1 = u32[10,4096,16,128]{3,1,2,0:T(8,128)} shift-right-logical(%xor.543.clone.1, %broadcast.1267), metadata={op_name="jit(optimized_compute)/jit(_normal)/jit(_normal_real)/jit(_uniform)/shift_right_logical" stack_frame_id=23}
  %or.549.clone.1 = u32[10,4096,16,128]{3,1,2,0:T(8,128)} or(%shift_left.512.clone.1, %shift_right_logical.529.clone.1), metadata={op_name="jit(optimized_compute)/jit(_normal)/jit(_normal_real)/jit(_uniform)/or" stack_frame_id=23}
  %xor.542.clone.1 = u32[10,4096,16,128]{3,1,2,0:T(8,128)} xor(%add.1343.clone.1, %or.549.clone.1), metadata={op_name="jit(optimized_compute)/jit(_normal)/jit(_normal_real)/jit(_uniform)/xor" stack_frame_id=23}
  %param_9.728 = u32[]{:T(128)S(6)} parameter(9)
  %add.1341.clone.1 = u32[10,4096,16,128]{3,1,2,0:T(8,128)} broadcast(%param_9.728), dimensions={}, metadata={op_name="jit(optimized_compute)/jit(_normal)/jit(_normal_real)/jit(_uniform)/add" stack_frame_id=23}
  %add.1340.clone.1 = u32[10,4096,16,128]{3,1,2,0:T(8,128)} add(%xor.542.clone.1, %add.1341.clone.1), metadata={op_name="jit(optimized_compute)/jit(_normal)/jit(_normal_real)/jit(_uniform)/add" stack_frame_id=23}
  %add.1339.clone.1 = u32[10,4096,16,128]{3,1,2,0:T(8,128)} add(%add.1340.clone.1, %broadcast.1274), metadata={op_name="jit(optimized_compute)/jit(_normal)/jit(_normal_real)/jit(_uniform)/add" stack_frame_id=23}
  %add.1338.clone.1 = u32[10,4096,16,128]{3,1,2,0:T(8,128)} add(%add.1342.clone.1, %add.1339.clone.1), metadata={op_name="jit(optimized_compute)/jit(_normal)/jit(_normal_real)/jit(_uniform)/add" stack_frame_id=23}
  %shift_left.511.clone.1 = u32[10,4096,16,128]{3,1,2,0:T(8,128)} shift-left(%add.1339.clone.1, %broadcast.1268), metadata={op_name="jit(optimized_compute)/jit(_normal)/jit(_normal_real)/jit(_uniform)/shift_left" stack_frame_id=23}
  %shift_right_logical.528.clone.1 = u32[10,4096,16,128]{3,1,2,0:T(8,128)} shift-right-logical(%add.1339.clone.1, %broadcast.1269), metadata={op_name="jit(optimized_compute)/jit(_normal)/jit(_normal_real)/jit(_uniform)/shift_right_logical" stack_frame_id=23}
  %or.548.clone.1 = u32[10,4096,16,128]{3,1,2,0:T(8,128)} or(%shift_left.511.clone.1, %shift_right_logical.528.clone.1), metadata={op_name="jit(optimized_compute)/jit(_normal)/jit(_normal_real)/jit(_uniform)/or" stack_frame_id=23}
  %xor.541.clone.1 = u32[10,4096,16,128]{3,1,2,0:T(8,128)} xor(%add.1338.clone.1, %or.548.clone.1), metadata={op_name="jit(optimized_compute)/jit(_normal)/jit(_normal_real)/jit(_uniform)/xor" stack_frame_id=23}
  %add.1337.clone.1 = u32[10,4096,16,128]{3,1,2,0:T(8,128)} add(%add.1338.clone.1, %xor.541.clone.1), metadata={op_name="jit(optimized_compute)/jit(_normal)/jit(_normal_real)/jit(_uniform)/add" stack_frame_id=23}
  %shift_left.510.clone.1 = u32[10,4096,16,128]{3,1,2,0:T(8,128)} shift-left(%xor.541.clone.1, %broadcast.1265), metadata={op_name="jit(optimized_compute)/jit(_normal)/jit(_normal_real)/jit(_uniform)/shift_left" stack_frame_id=23}
  %shift_right_logical.527.clone.1 = u32[10,4096,16,128]{3,1,2,0:T(8,128)} shift-right-logical(%xor.541.clone.1, %broadcast.1264), metadata={op_name="jit(optimized_compute)/jit(_normal)/jit(_normal_real)/jit(_uniform)/shift_right_logical" stack_frame_id=23}
  %or.547.clone.1 = u32[10,4096,16,128]{3,1,2,0:T(8,128)} or(%shift_left.510.clone.1, %shift_right_logical.527.clone.1), metadata={op_name="jit(optimized_compute)/jit(_normal)/jit(_normal_real)/jit(_uniform)/or" stack_frame_id=23}
  %xor.540.clone.1 = u32[10,4096,16,128]{3,1,2,0:T(8,128)} xor(%add.1337.clone.1, %or.547.clone.1), metadata={op_name="jit(optimized_compute)/jit(_normal)/jit(_normal_real)/jit(_uniform)/xor" stack_frame_id=23}
  %add.1336.clone.1 = u32[10,4096,16,128]{3,1,2,0:T(8,128)} add(%add.1337.clone.1, %xor.540.clone.1), metadata={op_name="jit(optimized_compute)/jit(_normal)/jit(_normal_real)/jit(_uniform)/add" stack_frame_id=23}
  %shift_left.509.clone.1 = u32[10,4096,16,128]{3,1,2,0:T(8,128)} shift-left(%xor.540.clone.1, %broadcast.1263), metadata={op_name="jit(optimized_compute)/jit(_normal)/jit(_normal_real)/jit(_uniform)/shift_left" stack_frame_id=23}
  %shift_right_logical.526.clone.1 = u32[10,4096,16,128]{3,1,2,0:T(8,128)} shift-right-logical(%xor.540.clone.1, %broadcast.1263), metadata={op_name="jit(optimized_compute)/jit(_normal)/jit(_normal_real)/jit(_uniform)/shift_right_logical" stack_frame_id=23}
  %or.546.clone.1 = u32[10,4096,16,128]{3,1,2,0:T(8,128)} or(%shift_left.509.clone.1, %shift_right_logical.526.clone.1), metadata={op_name="jit(optimized_compute)/jit(_normal)/jit(_normal_real)/jit(_uniform)/or" stack_frame_id=23}
  %xor.539.clone.1 = u32[10,4096,16,128]{3,1,2,0:T(8,128)} xor(%add.1336.clone.1, %or.546.clone.1), metadata={op_name="jit(optimized_compute)/jit(_normal)/jit(_normal_real)/jit(_uniform)/xor" stack_frame_id=23}
  %add.1335.clone.1 = u32[10,4096,16,128]{3,1,2,0:T(8,128)} add(%add.1336.clone.1, %xor.539.clone.1), metadata={op_name="jit(optimized_compute)/jit(_normal)/jit(_normal_real)/jit(_uniform)/add" stack_frame_id=23}
  %add.1334.clone.1 = u32[10,4096,16,128]{3,1,2,0:T(8,128)} add(%add.1335.clone.1, %add.1341.clone.1), metadata={op_name="jit(optimized_compute)/jit(_normal)/jit(_normal_real)/jit(_uniform)/add" stack_frame_id=23}
  %shift_left.508.clone.1 = u32[10,4096,16,128]{3,1,2,0:T(8,128)} shift-left(%xor.539.clone.1, %broadcast.1262), metadata={op_name="jit(optimized_compute)/jit(_normal)/jit(_normal_real)/jit(_uniform)/shift_left" stack_frame_id=23}
  %shift_right_logical.525.clone.1 = u32[10,4096,16,128]{3,1,2,0:T(8,128)} shift-right-logical(%xor.539.clone.1, %broadcast.1261), metadata={op_name="jit(optimized_compute)/jit(_normal)/jit(_normal_real)/jit(_uniform)/shift_right_logical" stack_frame_id=23}
  %or.545.clone.1 = u32[10,4096,16,128]{3,1,2,0:T(8,128)} or(%shift_left.508.clone.1, %shift_right_logical.525.clone.1), metadata={op_name="jit(optimized_compute)/jit(_normal)/jit(_normal_real)/jit(_uniform)/or" stack_frame_id=23}
  %xor.538.clone.1 = u32[10,4096,16,128]{3,1,2,0:T(8,128)} xor(%add.1335.clone.1, %or.545.clone.1), metadata={op_name="jit(optimized_compute)/jit(_normal)/jit(_normal_real)/jit(_uniform)/xor" stack_frame_id=23}
  %add.1333.clone.1 = u32[10,4096,16,128]{3,1,2,0:T(8,128)} add(%xor.538.clone.1, %add.1350.clone.1), metadata={op_name="jit(optimized_compute)/jit(_normal)/jit(_normal_real)/jit(_uniform)/add" stack_frame_id=23}
  %add.1331.clone.1 = u32[10,4096,16,128]{3,1,2,0:T(8,128)} add(%add.1333.clone.1, %add.1434), metadata={op_name="jit(optimized_compute)/jit(_normal)/jit(_normal_real)/jit(_uniform)/add" stack_frame_id=23}
  %add.1330.clone.1 = u32[10,4096,16,128]{3,1,2,0:T(8,128)} add(%add.1334.clone.1, %add.1331.clone.1), metadata={op_name="jit(optimized_compute)/jit(_normal)/jit(_normal_real)/jit(_uniform)/add" stack_frame_id=23}
  %shift_left.507.clone.1 = u32[10,4096,16,128]{3,1,2,0:T(8,128)} shift-left(%add.1331.clone.1, %broadcast.1271), metadata={op_name="jit(optimized_compute)/jit(_normal)/jit(_normal_real)/jit(_uniform)/shift_left" stack_frame_id=23}
  %shift_right_logical.524.clone.1 = u32[10,4096,16,128]{3,1,2,0:T(8,128)} shift-right-logical(%add.1331.clone.1, %broadcast.1270), metadata={op_name="jit(optimized_compute)/jit(_normal)/jit(_normal_real)/jit(_uniform)/shift_right_logical" stack_frame_id=23}
  %or.544.clone.1 = u32[10,4096,16,128]{3,1,2,0:T(8,128)} or(%shift_left.507.clone.1, %shift_right_logical.524.clone.1), metadata={op_name="jit(optimized_compute)/jit(_normal)/jit(_normal_real)/jit(_uniform)/or" stack_frame_id=23}
  %xor.537.clone.1 = u32[10,4096,16,128]{3,1,2,0:T(8,128)} xor(%add.1330.clone.1, %or.544.clone.1), metadata={op_name="jit(optimized_compute)/jit(_normal)/jit(_normal_real)/jit(_uniform)/xor" stack_frame_id=23}
  %add.1329.clone.1 = u32[10,4096,16,128]{3,1,2,0:T(8,128)} add(%add.1330.clone.1, %xor.537.clone.1), metadata={op_name="jit(optimized_compute)/jit(_normal)/jit(_normal_real)/jit(_uniform)/add" stack_frame_id=23}
  %shift_left.506.clone.1 = u32[10,4096,16,128]{3,1,2,0:T(8,128)} shift-left(%xor.537.clone.1, %broadcast.1269), metadata={op_name="jit(optimized_compute)/jit(_normal)/jit(_normal_real)/jit(_uniform)/shift_left" stack_frame_id=23}
  %shift_right_logical.523.clone.1 = u32[10,4096,16,128]{3,1,2,0:T(8,128)} shift-right-logical(%xor.537.clone.1, %broadcast.1268), metadata={op_name="jit(optimized_compute)/jit(_normal)/jit(_normal_real)/jit(_uniform)/shift_right_logical" stack_frame_id=23}
  %or.543.clone.1 = u32[10,4096,16,128]{3,1,2,0:T(8,128)} or(%shift_left.506.clone.1, %shift_right_logical.523.clone.1), metadata={op_name="jit(optimized_compute)/jit(_normal)/jit(_normal_real)/jit(_uniform)/or" stack_frame_id=23}
  %xor.536.clone.1 = u32[10,4096,16,128]{3,1,2,0:T(8,128)} xor(%add.1329.clone.1, %or.543.clone.1), metadata={op_name="jit(optimized_compute)/jit(_normal)/jit(_normal_real)/jit(_uniform)/xor" stack_frame_id=23}
  %add.1328.clone.1 = u32[10,4096,16,128]{3,1,2,0:T(8,128)} add(%add.1329.clone.1, %xor.536.clone.1), metadata={op_name="jit(optimized_compute)/jit(_normal)/jit(_normal_real)/jit(_uniform)/add" stack_frame_id=23}
  %shift_left.505.clone.1 = u32[10,4096,16,128]{3,1,2,0:T(8,128)} shift-left(%xor.536.clone.1, %broadcast.1267), metadata={op_name="jit(optimized_compute)/jit(_normal)/jit(_normal_real)/jit(_uniform)/shift_left" stack_frame_id=23}
  %shift_right_logical.522.clone.1 = u32[10,4096,16,128]{3,1,2,0:T(8,128)} shift-right-logical(%xor.536.clone.1, %broadcast.1266), metadata={op_name="jit(optimized_compute)/jit(_normal)/jit(_normal_real)/jit(_uniform)/shift_right_logical" stack_frame_id=23}
  %or.542.clone.1 = u32[10,4096,16,128]{3,1,2,0:T(8,128)} or(%shift_left.505.clone.1, %shift_right_logical.522.clone.1), metadata={op_name="jit(optimized_compute)/jit(_normal)/jit(_normal_real)/jit(_uniform)/or" stack_frame_id=23}
  %xor.535.clone.1 = u32[10,4096,16,128]{3,1,2,0:T(8,128)} xor(%add.1328.clone.1, %or.542.clone.1), metadata={op_name="jit(optimized_compute)/jit(_normal)/jit(_normal_real)/jit(_uniform)/xor" stack_frame_id=23}
  %add.1327.clone.1 = u32[10,4096,16,128]{3,1,2,0:T(8,128)} add(%add.1328.clone.1, %xor.535.clone.1), metadata={op_name="jit(optimized_compute)/jit(_normal)/jit(_normal_real)/jit(_uniform)/add" stack_frame_id=23}
  %add.1326.clone.1 = u32[10,4096,16,128]{3,1,2,0:T(8,128)} add(%add.1327.clone.1, %add.1350.clone.1), metadata={op_name="jit(optimized_compute)/jit(_normal)/jit(_normal_real)/jit(_uniform)/add" stack_frame_id=23}
  %shift_left.504.clone.1 = u32[10,4096,16,128]{3,1,2,0:T(8,128)} shift-left(%xor.535.clone.1, %broadcast.1266), metadata={op_name="jit(optimized_compute)/jit(_normal)/jit(_normal_real)/jit(_uniform)/shift_left" stack_frame_id=23}
  %shift_right_logical.521.clone.1 = u32[10,4096,16,128]{3,1,2,0:T(8,128)} shift-right-logical(%xor.535.clone.1, %broadcast.1267), metadata={op_name="jit(optimized_compute)/jit(_normal)/jit(_normal_real)/jit(_uniform)/shift_right_logical" stack_frame_id=23}
  %or.541.clone.1 = u32[10,4096,16,128]{3,1,2,0:T(8,128)} or(%shift_left.504.clone.1, %shift_right_logical.521.clone.1), metadata={op_name="jit(optimized_compute)/jit(_normal)/jit(_normal_real)/jit(_uniform)/or" stack_frame_id=23}
  %xor.534.clone.1 = u32[10,4096,16,128]{3,1,2,0:T(8,128)} xor(%add.1327.clone.1, %or.541.clone.1), metadata={op_name="jit(optimized_compute)/jit(_normal)/jit(_normal_real)/jit(_uniform)/xor" stack_frame_id=23}
  %add.1325.clone.1 = u32[10,4096,16,128]{3,1,2,0:T(8,128)} add(%xor.534.clone.1, %add.1348.clone.1), metadata={op_name="jit(optimized_compute)/jit(_normal)/jit(_normal_real)/jit(_uniform)/add" stack_frame_id=23}
  %add.1324.clone.1 = u32[10,4096,16,128]{3,1,2,0:T(8,128)} add(%add.1325.clone.1, %broadcast.1264), metadata={op_name="jit(optimized_compute)/jit(_normal)/jit(_normal_real)/jit(_uniform)/add" stack_frame_id=23}
  %add.1323.clone.1 = u32[10,4096,16,128]{3,1,2,0:T(8,128)} add(%add.1326.clone.1, %add.1324.clone.1), metadata={op_name="jit(optimized_compute)/jit(_normal)/jit(_normal_real)/jit(_uniform)/add" stack_frame_id=23}
  %shift_left.503.clone.1 = u32[10,4096,16,128]{3,1,2,0:T(8,128)} shift-left(%add.1324.clone.1, %broadcast.1268), metadata={op_name="jit(optimized_compute)/jit(_normal)/jit(_normal_real)/jit(_uniform)/shift_left" stack_frame_id=23}
  %shift_right_logical.520.clone.1 = u32[10,4096,16,128]{3,1,2,0:T(8,128)} shift-right-logical(%add.1324.clone.1, %broadcast.1269), metadata={op_name="jit(optimized_compute)/jit(_normal)/jit(_normal_real)/jit(_uniform)/shift_right_logical" stack_frame_id=23}
  %or.540.clone.1 = u32[10,4096,16,128]{3,1,2,0:T(8,128)} or(%shift_left.503.clone.1, %shift_right_logical.520.clone.1), metadata={op_name="jit(optimized_compute)/jit(_normal)/jit(_normal_real)/jit(_uniform)/or" stack_frame_id=23}
  %xor.533.clone.1 = u32[10,4096,16,128]{3,1,2,0:T(8,128)} xor(%add.1323.clone.1, %or.540.clone.1), metadata={op_name="jit(optimized_compute)/jit(_normal)/jit(_normal_real)/jit(_uniform)/xor" stack_frame_id=23}
  %add.1322.clone.1 = u32[10,4096,16,128]{3,1,2,0:T(8,128)} add(%add.1323.clone.1, %xor.533.clone.1), metadata={op_name="jit(optimized_compute)/jit(_normal)/jit(_normal_real)/jit(_uniform)/add" stack_frame_id=23}
  %shift_left.502.clone.1 = u32[10,4096,16,128]{3,1,2,0:T(8,128)} shift-left(%xor.533.clone.1, %broadcast.1265), metadata={op_name="jit(optimized_compute)/jit(_normal)/jit(_normal_real)/jit(_uniform)/shift_left" stack_frame_id=23}
  %shift_right_logical.519.clone.1 = u32[10,4096,16,128]{3,1,2,0:T(8,128)} shift-right-logical(%xor.533.clone.1, %broadcast.1264), metadata={op_name="jit(optimized_compute)/jit(_normal)/jit(_normal_real)/jit(_uniform)/shift_right_logical" stack_frame_id=23}
  %or.539.clone.1 = u32[10,4096,16,128]{3,1,2,0:T(8,128)} or(%shift_left.502.clone.1, %shift_right_logical.519.clone.1), metadata={op_name="jit(optimized_compute)/jit(_normal)/jit(_normal_real)/jit(_uniform)/or" stack_frame_id=23}
  %xor.532.clone.1 = u32[10,4096,16,128]{3,1,2,0:T(8,128)} xor(%add.1322.clone.1, %or.539.clone.1), metadata={op_name="jit(optimized_compute)/jit(_normal)/jit(_normal_real)/jit(_uniform)/xor" stack_frame_id=23}
  %add.1321.clone.1 = u32[10,4096,16,128]{3,1,2,0:T(8,128)} add(%add.1322.clone.1, %xor.532.clone.1), metadata={op_name="jit(optimized_compute)/jit(_normal)/jit(_normal_real)/jit(_uniform)/add" stack_frame_id=23}
  %shift_left.501.clone.1 = u32[10,4096,16,128]{3,1,2,0:T(8,128)} shift-left(%xor.532.clone.1, %broadcast.1263), metadata={op_name="jit(optimized_compute)/jit(_normal)/jit(_normal_real)/jit(_uniform)/shift_left" stack_frame_id=23}
  %shift_right_logical.518.clone.1 = u32[10,4096,16,128]{3,1,2,0:T(8,128)} shift-right-logical(%xor.532.clone.1, %broadcast.1263), metadata={op_name="jit(optimized_compute)/jit(_normal)/jit(_normal_real)/jit(_uniform)/shift_right_logical" stack_frame_id=23}
  %or.538.clone.1 = u32[10,4096,16,128]{3,1,2,0:T(8,128)} or(%shift_left.501.clone.1, %shift_right_logical.518.clone.1), metadata={op_name="jit(optimized_compute)/jit(_normal)/jit(_normal_real)/jit(_uniform)/or" stack_frame_id=23}
  %xor.531.clone.1 = u32[10,4096,16,128]{3,1,2,0:T(8,128)} xor(%add.1321.clone.1, %or.538.clone.1), metadata={op_name="jit(optimized_compute)/jit(_normal)/jit(_normal_real)/jit(_uniform)/xor" stack_frame_id=23}
  %add.1320.clone.1 = u32[10,4096,16,128]{3,1,2,0:T(8,128)} add(%add.1321.clone.1, %xor.531.clone.1), metadata={op_name="jit(optimized_compute)/jit(_normal)/jit(_normal_real)/jit(_uniform)/add" stack_frame_id=23}
  %add.1319.clone.1 = u32[10,4096,16,128]{3,1,2,0:T(8,128)} add(%add.1320.clone.1, %add.1348.clone.1), metadata={op_name="jit(optimized_compute)/jit(_normal)/jit(_normal_real)/jit(_uniform)/add" stack_frame_id=23}
  %shift_left.500.clone.1 = u32[10,4096,16,128]{3,1,2,0:T(8,128)} shift-left(%xor.531.clone.1, %broadcast.1262), metadata={op_name="jit(optimized_compute)/jit(_normal)/jit(_normal_real)/jit(_uniform)/shift_left" stack_frame_id=23}
  %shift_right_logical.517.clone.1 = u32[10,4096,16,128]{3,1,2,0:T(8,128)} shift-right-logical(%xor.531.clone.1, %broadcast.1261), metadata={op_name="jit(optimized_compute)/jit(_normal)/jit(_normal_real)/jit(_uniform)/shift_right_logical" stack_frame_id=23}
  %or.537.clone.1 = u32[10,4096,16,128]{3,1,2,0:T(8,128)} or(%shift_left.500.clone.1, %shift_right_logical.517.clone.1), metadata={op_name="jit(optimized_compute)/jit(_normal)/jit(_normal_real)/jit(_uniform)/or" stack_frame_id=23}
  %xor.530.clone.1 = u32[10,4096,16,128]{3,1,2,0:T(8,128)} xor(%add.1320.clone.1, %or.537.clone.1), metadata={op_name="jit(optimized_compute)/jit(_normal)/jit(_normal_real)/jit(_uniform)/xor" stack_frame_id=23}
  %add.1318.clone.1 = u32[10,4096,16,128]{3,1,2,0:T(8,128)} add(%xor.530.clone.1, %add.1341.clone.1), metadata={op_name="jit(optimized_compute)/jit(_normal)/jit(_normal_real)/jit(_uniform)/add" stack_frame_id=23}
  %add.1316.clone.1 = u32[10,4096,16,128]{3,1,2,0:T(8,128)} add(%add.1318.clone.1, %add.1419), metadata={op_name="jit(optimized_compute)/jit(_normal)/jit(_normal_real)/jit(_uniform)/add" stack_frame_id=23}
  %add.1315.clone.1 = u32[10,4096,16,128]{3,1,2,0:T(8,128)} add(%add.1319.clone.1, %add.1316.clone.1), metadata={op_name="jit(optimized_compute)/jit(_normal)/jit(_normal_real)/jit(_uniform)/add" stack_frame_id=23}
  %shift_left.499.clone.1 = u32[10,4096,16,128]{3,1,2,0:T(8,128)} shift-left(%add.1316.clone.1, %broadcast.1271), metadata={op_name="jit(optimized_compute)/jit(_normal)/jit(_normal_real)/jit(_uniform)/shift_left" stack_frame_id=23}
  %shift_right_logical.516.clone.1 = u32[10,4096,16,128]{3,1,2,0:T(8,128)} shift-right-logical(%add.1316.clone.1, %broadcast.1270), metadata={op_name="jit(optimized_compute)/jit(_normal)/jit(_normal_real)/jit(_uniform)/shift_right_logical" stack_frame_id=23}
  %or.536.clone.1 = u32[10,4096,16,128]{3,1,2,0:T(8,128)} or(%shift_left.499.clone.1, %shift_right_logical.516.clone.1), metadata={op_name="jit(optimized_compute)/jit(_normal)/jit(_normal_real)/jit(_uniform)/or" stack_frame_id=23}
  %xor.529.clone.1 = u32[10,4096,16,128]{3,1,2,0:T(8,128)} xor(%add.1315.clone.1, %or.536.clone.1), metadata={op_name="jit(optimized_compute)/jit(_normal)/jit(_normal_real)/jit(_uniform)/xor" stack_frame_id=23}
  %add.1314.clone.1 = u32[10,4096,16,128]{3,1,2,0:T(8,128)} add(%add.1315.clone.1, %xor.529.clone.1), metadata={op_name="jit(optimized_compute)/jit(_normal)/jit(_normal_real)/jit(_uniform)/add" stack_frame_id=23}
  %shift_left.498.clone.1 = u32[10,4096,16,128]{3,1,2,0:T(8,128)} shift-left(%xor.529.clone.1, %broadcast.1269), metadata={op_name="jit(optimized_compute)/jit(_normal)/jit(_normal_real)/jit(_uniform)/shift_left" stack_frame_id=23}
  %shift_right_logical.515.clone.1 = u32[10,4096,16,128]{3,1,2,0:T(8,128)} shift-right-logical(%xor.529.clone.1, %broadcast.1268), metadata={op_name="jit(optimized_compute)/jit(_normal)/jit(_normal_real)/jit(_uniform)/shift_right_logical" stack_frame_id=23}
  %or.535.clone.1 = u32[10,4096,16,128]{3,1,2,0:T(8,128)} or(%shift_left.498.clone.1, %shift_right_logical.515.clone.1), metadata={op_name="jit(optimized_compute)/jit(_normal)/jit(_normal_real)/jit(_uniform)/or" stack_frame_id=23}
  %xor.528.clone.1 = u32[10,4096,16,128]{3,1,2,0:T(8,128)} xor(%add.1314.clone.1, %or.535.clone.1), metadata={op_name="jit(optimized_compute)/jit(_normal)/jit(_normal_real)/jit(_uniform)/xor" stack_frame_id=23}
  %add.1313.clone.1 = u32[10,4096,16,128]{3,1,2,0:T(8,128)} add(%add.1314.clone.1, %xor.528.clone.1), metadata={op_name="jit(optimized_compute)/jit(_normal)/jit(_normal_real)/jit(_uniform)/add" stack_frame_id=23}
  %shift_left.497.clone.1 = u32[10,4096,16,128]{3,1,2,0:T(8,128)} shift-left(%xor.528.clone.1, %broadcast.1267), metadata={op_name="jit(optimized_compute)/jit(_normal)/jit(_normal_real)/jit(_uniform)/shift_left" stack_frame_id=23}
  %shift_right_logical.514.clone.1 = u32[10,4096,16,128]{3,1,2,0:T(8,128)} shift-right-logical(%xor.528.clone.1, %broadcast.1266), metadata={op_name="jit(optimized_compute)/jit(_normal)/jit(_normal_real)/jit(_uniform)/shift_right_logical" stack_frame_id=23}
  %or.534.clone.1 = u32[10,4096,16,128]{3,1,2,0:T(8,128)} or(%shift_left.497.clone.1, %shift_right_logical.514.clone.1), metadata={op_name="jit(optimized_compute)/jit(_normal)/jit(_normal_real)/jit(_uniform)/or" stack_frame_id=23}
  %xor.527.clone.1 = u32[10,4096,16,128]{3,1,2,0:T(8,128)} xor(%add.1313.clone.1, %or.534.clone.1), metadata={op_name="jit(optimized_compute)/jit(_normal)/jit(_normal_real)/jit(_uniform)/xor" stack_frame_id=23}
  %add.1312.clone.1 = u32[10,4096,16,128]{3,1,2,0:T(8,128)} add(%add.1313.clone.1, %xor.527.clone.1), metadata={op_name="jit(optimized_compute)/jit(_normal)/jit(_normal_real)/jit(_uniform)/add" stack_frame_id=23}
  %add.1311.clone.1 = u32[10,4096,16,128]{3,1,2,0:T(8,128)} add(%add.1312.clone.1, %add.1341.clone.1), metadata={op_name="jit(optimized_compute)/jit(_normal)/jit(_normal_real)/jit(_uniform)/add" stack_frame_id=23}
  %shift_left.496.clone.1 = u32[10,4096,16,128]{3,1,2,0:T(8,128)} shift-left(%xor.527.clone.1, %broadcast.1266), metadata={op_name="jit(optimized_compute)/jit(_normal)/jit(_normal_real)/jit(_uniform)/shift_left" stack_frame_id=23}
  %shift_right_logical.513.clone.1 = u32[10,4096,16,128]{3,1,2,0:T(8,128)} shift-right-logical(%xor.527.clone.1, %broadcast.1267), metadata={op_name="jit(optimized_compute)/jit(_normal)/jit(_normal_real)/jit(_uniform)/shift_right_logical" stack_frame_id=23}
  %or.533.clone.1 = u32[10,4096,16,128]{3,1,2,0:T(8,128)} or(%shift_left.496.clone.1, %shift_right_logical.513.clone.1), metadata={op_name="jit(optimized_compute)/jit(_normal)/jit(_normal_real)/jit(_uniform)/or" stack_frame_id=23}
  %xor.526.clone.1 = u32[10,4096,16,128]{3,1,2,0:T(8,128)} xor(%add.1312.clone.1, %or.533.clone.1), metadata={op_name="jit(optimized_compute)/jit(_normal)/jit(_normal_real)/jit(_uniform)/xor" stack_frame_id=23}
  %add.1310.clone.1 = u32[10,4096,16,128]{3,1,2,0:T(8,128)} add(%xor.526.clone.1, %add.1350.clone.1), metadata={op_name="jit(optimized_compute)/jit(_normal)/jit(_normal_real)/jit(_uniform)/add" stack_frame_id=23}
  %add.1308.clone.1 = u32[10,4096,16,128]{3,1,2,0:T(8,128)} add(%add.1310.clone.1, %add.1411), metadata={op_name="jit(optimized_compute)/jit(_normal)/jit(_normal_real)/jit(_uniform)/add" stack_frame_id=23}
  %xor.525.clone.1 = u32[10,4096,16,128]{3,1,2,0:T(8,128)} xor(%add.1311.clone.1, %add.1308.clone.1), metadata={op_name="jit(optimized_compute)/jit(_normal)/jit(_normal_real)/jit(_uniform)/xor" stack_frame_id=23}
  %convert_element_type.25.clone.1 = u8[10,4096,16,128]{3,1,2,0:T(8,128)(4,1)} convert(%xor.525.clone.1), metadata={op_name="jit(optimized_compute)/jit(_normal)/jit(_normal_real)/jit(_uniform)/convert_element_type" stack_frame_id=23}
  %convert_element_type.20.clone.1 = u16[10,4096,16,128]{3,1,2,0:T(8,128)(2,1)} convert(%convert_element_type.25.clone.1), metadata={op_name="jit(optimized_compute)/jit(_normal)/jit(_normal_real)/jit(_uniform)/convert_element_type" stack_frame_id=23}
  %shift_right_logical.451.clone.1 = u16[10,4096,16,128]{3,1,2,0:T(8,128)(2,1)} shift-right-logical(%convert_element_type.20.clone.1, %shift_right_logical.573), metadata={op_name="jit(optimized_compute)/jit(_normal)/jit(_normal_real)/jit(_uniform)/shift_right_logical" stack_frame_id=23}
  %or.471.clone.1 = u16[10,4096,16,128]{3,1,2,0:T(8,128)(2,1)} or(%shift_right_logical.451.clone.1, %or.593), metadata={op_name="jit(optimized_compute)/jit(_normal)/jit(_normal_real)/jit(_uniform)/or" stack_frame_id=23}
  %bitcast_convert_type.8.clone.1 = bf16[10,4096,16,128]{3,1,2,0:T(8,128)(2,1)} bitcast-convert(%or.471.clone.1), metadata={op_name="jit(optimized_compute)/jit(_normal)/jit(_normal_real)/jit(_uniform)/bitcast_convert_type" stack_frame_id=23}
  %convert.21 = f32[10,4096,16,128]{3,1,2,0:T(8,128)} convert(%bitcast_convert_type.8.clone.1)
  %add.1089.clone.1 = f32[10,4096,16,128]{3,1,2,0:T(8,128)} add(%convert.21, %convert.16), metadata={op_name="jit(optimized_compute)/jit(_normal)/jit(_normal_real)/jit(_uniform)/sub" stack_frame_id=23}, backend_config={"flag_configs":[],"scoped_memory_configs":[],"used_scoped_memory_configs":[],"float_type_correction_info":{"original_type":"BF16","original_shape":{"element_type":"BF16","dimensions":["10","4096","16","128"],"tuple_shapes":[],"layout":{"minor_to_major":["3","1","2","0"],"tiles":[{"dimensions":["8","128"]},{"dimensions":["2","1"]}],"element_size_in_bits":"0","memory_space":"0","dim_level_types":[],"index_primitive_type":"PRIMITIVE_TYPE_INVALID","pointer_primitive_type":"PRIMITIVE_TYPE_INVALID","dim_unique":[],"dim_ordered":[],"dynamic_shape_metadata_prefix_bytes":"0","tail_padding_alignment_in_elements":"1","split_configs":[]},"is_dynamic_dimension":[false,false,false,false]}}}
  %mul.46.clone.1 = f32[10,4096,16,128]{3,1,2,0:T(8,128)} multiply(%add.1089.clone.1, %convert.17), metadata={op_name="jit(optimized_compute)/jit(_normal)/jit(_normal_real)/jit(_uniform)/mul" stack_frame_id=23}, backend_config={"flag_configs":[],"scoped_memory_configs":[],"used_scoped_memory_configs":[],"float_type_correction_info":{"original_type":"BF16","original_shape":{"element_type":"BF16","dimensions":["10","4096","16","128"],"tuple_shapes":[],"layout":{"minor_to_major":["3","1","2","0"],"tiles":[{"dimensions":["8","128"]},{"dimensions":["2","1"]}],"element_size_in_bits":"0","memory_space":"0","dim_level_types":[],"index_primitive_type":"PRIMITIVE_TYPE_INVALID","pointer_primitive_type":"PRIMITIVE_TYPE_INVALID","dim_unique":[],"dim_ordered":[],"dynamic_shape_metadata_prefix_bytes":"0","tail_padding_alignment_in_elements":"1","split_configs":[]},"is_dynamic_dimension":[false,false,false,false]}}}
  %add.1088.clone.1 = f32[10,4096,16,128]{3,1,2,0:T(8,128)} add(%mul.46.clone.1, %convert.18), metadata={op_name="jit(optimized_compute)/jit(_normal)/jit(_normal_real)/jit(_uniform)/add" stack_frame_id=23}, backend_config={"flag_configs":[],"scoped_memory_configs":[],"used_scoped_memory_configs":[],"float_type_correction_info":{"original_type":"BF16","original_shape":{"element_type":"BF16","dimensions":["10","4096","16","128"],"tuple_shapes":[],"layout":{"minor_to_major":["3","1","2","0"],"tiles":[{"dimensions":["8","128"]},{"dimensions":["2","1"]}],"element_size_in_bits":"0","memory_space":"0","dim_level_types":[],"index_primitive_type":"PRIMITIVE_TYPE_INVALID","pointer_primitive_type":"PRIMITIVE_TYPE_INVALID","dim_unique":[],"dim_ordered":[],"dynamic_shape_metadata_prefix_bytes":"0","tail_padding_alignment_in_elements":"1","split_configs":[]},"is_dynamic_dimension":[false,false,false,false]}}}
  %max.15.clone.1 = f32[10,4096,16,128]{3,1,2,0:T(8,128)} maximum(%convert.18, %add.1088.clone.1), metadata={op_name="jit(optimized_compute)/jit(_normal)/jit(_normal_real)/jit(_uniform)/max" stack_frame_id=23}, backend_config={"flag_configs":[],"scoped_memory_configs":[],"used_scoped_memory_configs":[],"float_type_correction_info":{"original_type":"BF16","original_shape":{"element_type":"BF16","dimensions":["10","4096","16","128"],"tuple_shapes":[],"layout":{"minor_to_major":["3","1","2","0"],"tiles":[{"dimensions":["8","128"]},{"dimensions":["2","1"]}],"element_size_in_bits":"0","memory_space":"0","dim_level_types":[],"index_primitive_type":"PRIMITIVE_TYPE_INVALID","pointer_primitive_type":"PRIMITIVE_TYPE_INVALID","dim_unique":[],"dim_ordered":[],"dynamic_shape_metadata_prefix_bytes":"0","tail_padding_alignment_in_elements":"1","split_configs":[]},"is_dynamic_dimension":[false,false,false,false]}}}
  %erf_inv.1239.clone.1 = f32[10,4096,16,128]{3,1,2,0:T(8,128)} convert(%max.15.clone.1), metadata={op_name="jit(optimized_compute)/jit(_normal)/jit(_normal_real)/erf_inv" stack_frame_id=23}
  %erf_inv.1238.clone.1 = f32[10,4096,16,128]{3,1,2,0:T(8,128)} abs(%erf_inv.1239.clone.1), metadata={op_name="jit(optimized_compute)/jit(_normal)/jit(_normal_real)/erf_inv" stack_frame_id=23}
  %erf_inv.1237.clone.1 = pred[10,4096,16,128]{3,1,2,0:T(8,128)(4,1)} compare(%erf_inv.1238.clone.1, %erf_inv.1456), direction=EQ, metadata={op_name="jit(optimized_compute)/jit(_normal)/jit(_normal_real)/erf_inv" stack_frame_id=23}
  %erf_inv.1236.clone.1 = f32[10,4096,16,128]{3,1,2,0:T(8,128)} multiply(%erf_inv.1239.clone.1, %erf_inv.1453), metadata={op_name="jit(optimized_compute)/jit(_normal)/jit(_normal_real)/erf_inv" stack_frame_id=23}
  %erf_inv.1235.clone.1 = f32[10,4096,16,128]{3,1,2,0:T(8,128)} negate(%erf_inv.1239.clone.1), metadata={op_name="jit(optimized_compute)/jit(_normal)/jit(_normal_real)/erf_inv" stack_frame_id=23}
  %erf_inv.1234.clone.1 = f32[10,4096,16,128]{3,1,2,0:T(8,128)} multiply(%erf_inv.1239.clone.1, %erf_inv.1235.clone.1), metadata={op_name="jit(optimized_compute)/jit(_normal)/jit(_normal_real)/erf_inv" stack_frame_id=23}
  %erf_inv.1233.clone.1 = f32[10,4096,16,128]{3,1,2,0:T(8,128)} log-plus-one(%erf_inv.1234.clone.1), metadata={op_name="jit(optimized_compute)/jit(_normal)/jit(_normal_real)/erf_inv" stack_frame_id=23}
  %erf_inv.1232.clone.1 = f32[10,4096,16,128]{3,1,2,0:T(8,128)} negate(%erf_inv.1233.clone.1), metadata={op_name="jit(optimized_compute)/jit(_normal)/jit(_normal_real)/erf_inv" stack_frame_id=23}
  %erf_inv.1231.clone.1 = pred[10,4096,16,128]{3,1,2,0:T(8,128)(4,1)} compare(%erf_inv.1232.clone.1, %erf_inv.1450), direction=LT, metadata={op_name="jit(optimized_compute)/jit(_normal)/jit(_normal_real)/erf_inv" stack_frame_id=23}
  %erf_inv.1230.clone.1 = f32[10,4096,16,128]{3,1,2,0:T(8,128)} select(%erf_inv.1231.clone.1, %erf_inv.1447, %erf_inv.1444), metadata={op_name="jit(optimized_compute)/jit(_normal)/jit(_normal_real)/erf_inv" stack_frame_id=23}
  %erf_inv.1229.clone.1 = f32[10,4096,16,128]{3,1,2,0:T(8,128)} select(%erf_inv.1231.clone.1, %erf_inv.1441, %erf_inv.1438), metadata={op_name="jit(optimized_compute)/jit(_normal)/jit(_normal_real)/erf_inv" stack_frame_id=23}
  %erf_inv.1228.clone.1 = f32[10,4096,16,128]{3,1,2,0:T(8,128)} select(%erf_inv.1231.clone.1, %erf_inv.1435, %erf_inv.1432), metadata={op_name="jit(optimized_compute)/jit(_normal)/jit(_normal_real)/erf_inv" stack_frame_id=23}
  %erf_inv.1227.clone.1 = f32[10,4096,16,128]{3,1,2,0:T(8,128)} select(%erf_inv.1231.clone.1, %erf_inv.1429, %erf_inv.1426), metadata={op_name="jit(optimized_compute)/jit(_normal)/jit(_normal_real)/erf_inv" stack_frame_id=23}
  %erf_inv.1226.clone.1 = f32[10,4096,16,128]{3,1,2,0:T(8,128)} select(%erf_inv.1231.clone.1, %erf_inv.1423, %erf_inv.1420), metadata={op_name="jit(optimized_compute)/jit(_normal)/jit(_normal_real)/erf_inv" stack_frame_id=23}
  %erf_inv.1225.clone.1 = f32[10,4096,16,128]{3,1,2,0:T(8,128)} select(%erf_inv.1231.clone.1, %erf_inv.1417, %erf_inv.1414), metadata={op_name="jit(optimized_compute)/jit(_normal)/jit(_normal_real)/erf_inv" stack_frame_id=23}
  %erf_inv.1224.clone.1 = f32[10,4096,16,128]{3,1,2,0:T(8,128)} select(%erf_inv.1231.clone.1, %erf_inv.1411, %erf_inv.1408), metadata={op_name="jit(optimized_compute)/jit(_normal)/jit(_normal_real)/erf_inv" stack_frame_id=23}
  %erf_inv.1223.clone.1 = f32[10,4096,16,128]{3,1,2,0:T(8,128)} select(%erf_inv.1231.clone.1, %erf_inv.1405, %erf_inv.1402), metadata={op_name="jit(optimized_compute)/jit(_normal)/jit(_normal_real)/erf_inv" stack_frame_id=23}
  %erf_inv.1222.clone.1 = f32[10,4096,16,128]{3,1,2,0:T(8,128)} select(%erf_inv.1231.clone.1, %erf_inv.1399, %erf_inv.1396), metadata={op_name="jit(optimized_compute)/jit(_normal)/jit(_normal_real)/erf_inv" stack_frame_id=23}
  %add.1074.clone.1 = f32[10,4096,16,128]{3,1,2,0:T(8,128)} add(%erf_inv.1232.clone.1, %broadcast.1061), metadata={op_name="jit(optimized_compute)/jit(_normal)/jit(_normal_real)/erf_inv" stack_frame_id=23}
  %erf_inv.1221.clone.1 = f32[10,4096,16,128]{3,1,2,0:T(8,128)} sqrt(%erf_inv.1232.clone.1), metadata={op_name="jit(optimized_compute)/jit(_normal)/jit(_normal_real)/erf_inv" stack_frame_id=23}
  %add.1073.clone.1 = f32[10,4096,16,128]{3,1,2,0:T(8,128)} add(%erf_inv.1221.clone.1, %broadcast.1058), metadata={op_name="jit(optimized_compute)/jit(_normal)/jit(_normal_real)/erf_inv" stack_frame_id=23}
  %erf_inv.1220.clone.1 = f32[10,4096,16,128]{3,1,2,0:T(8,128)} select(%erf_inv.1231.clone.1, %add.1074.clone.1, %add.1073.clone.1), metadata={op_name="jit(optimized_compute)/jit(_normal)/jit(_normal_real)/erf_inv" stack_frame_id=23}
  %erf_inv.1219.clone.1 = f32[10,4096,16,128]{3,1,2,0:T(8,128)} multiply(%erf_inv.1222.clone.1, %erf_inv.1220.clone.1), metadata={op_name="jit(optimized_compute)/jit(_normal)/jit(_normal_real)/erf_inv" stack_frame_id=23}
  %erf_inv.1218.clone.1 = f32[10,4096,16,128]{3,1,2,0:T(8,128)} add(%erf_inv.1223.clone.1, %erf_inv.1219.clone.1), metadata={op_name="jit(optimized_compute)/jit(_normal)/jit(_normal_real)/erf_inv" stack_frame_id=23}
  %erf_inv.1217.clone.1 = f32[10,4096,16,128]{3,1,2,0:T(8,128)} multiply(%erf_inv.1218.clone.1, %erf_inv.1220.clone.1), metadata={op_name="jit(optimized_compute)/jit(_normal)/jit(_normal_real)/erf_inv" stack_frame_id=23}
  %erf_inv.1216.clone.1 = f32[10,4096,16,128]{3,1,2,0:T(8,128)} add(%erf_inv.1224.clone.1, %erf_inv.1217.clone.1), metadata={op_name="jit(optimized_compute)/jit(_normal)/jit(_normal_real)/erf_inv" stack_frame_id=23}
  %erf_inv.1215.clone.1 = f32[10,4096,16,128]{3,1,2,0:T(8,128)} multiply(%erf_inv.1216.clone.1, %erf_inv.1220.clone.1), metadata={op_name="jit(optimized_compute)/jit(_normal)/jit(_normal_real)/erf_inv" stack_frame_id=23}
  %erf_inv.1214.clone.1 = f32[10,4096,16,128]{3,1,2,0:T(8,128)} add(%erf_inv.1225.clone.1, %erf_inv.1215.clone.1), metadata={op_name="jit(optimized_compute)/jit(_normal)/jit(_normal_real)/erf_inv" stack_frame_id=23}
  %erf_inv.1213.clone.1 = f32[10,4096,16,128]{3,1,2,0:T(8,128)} multiply(%erf_inv.1214.clone.1, %erf_inv.1220.clone.1), metadata={op_name="jit(optimized_compute)/jit(_normal)/jit(_normal_real)/erf_inv" stack_frame_id=23}
  %erf_inv.1212.clone.1 = f32[10,4096,16,128]{3,1,2,0:T(8,128)} add(%erf_inv.1226.clone.1, %erf_inv.1213.clone.1), metadata={op_name="jit(optimized_compute)/jit(_normal)/jit(_normal_real)/erf_inv" stack_frame_id=23}
  %erf_inv.1211.clone.1 = f32[10,4096,16,128]{3,1,2,0:T(8,128)} multiply(%erf_inv.1212.clone.1, %erf_inv.1220.clone.1), metadata={op_name="jit(optimized_compute)/jit(_normal)/jit(_normal_real)/erf_inv" stack_frame_id=23}
  %erf_inv.1210.clone.1 = f32[10,4096,16,128]{3,1,2,0:T(8,128)} add(%erf_inv.1227.clone.1, %erf_inv.1211.clone.1), metadata={op_name="jit(optimized_compute)/jit(_normal)/jit(_normal_real)/erf_inv" stack_frame_id=23}
  %erf_inv.1209.clone.1 = f32[10,4096,16,128]{3,1,2,0:T(8,128)} multiply(%erf_inv.1210.clone.1, %erf_inv.1220.clone.1), metadata={op_name="jit(optimized_compute)/jit(_normal)/jit(_normal_real)/erf_inv" stack_frame_id=23}
  %erf_inv.1208.clone.1 = f32[10,4096,16,128]{3,1,2,0:T(8,128)} add(%erf_inv.1228.clone.1, %erf_inv.1209.clone.1), metadata={op_name="jit(optimized_compute)/jit(_normal)/jit(_normal_real)/erf_inv" stack_frame_id=23}
  %erf_inv.1207.clone.1 = f32[10,4096,16,128]{3,1,2,0:T(8,128)} multiply(%erf_inv.1208.clone.1, %erf_inv.1220.clone.1), metadata={op_name="jit(optimized_compute)/jit(_normal)/jit(_normal_real)/erf_inv" stack_frame_id=23}
  %erf_inv.1206.clone.1 = f32[10,4096,16,128]{3,1,2,0:T(8,128)} add(%erf_inv.1229.clone.1, %erf_inv.1207.clone.1), metadata={op_name="jit(optimized_compute)/jit(_normal)/jit(_normal_real)/erf_inv" stack_frame_id=23}
  %erf_inv.1205.clone.1 = f32[10,4096,16,128]{3,1,2,0:T(8,128)} multiply(%erf_inv.1206.clone.1, %erf_inv.1220.clone.1), metadata={op_name="jit(optimized_compute)/jit(_normal)/jit(_normal_real)/erf_inv" stack_frame_id=23}
  %erf_inv.1204.clone.1 = f32[10,4096,16,128]{3,1,2,0:T(8,128)} add(%erf_inv.1230.clone.1, %erf_inv.1205.clone.1), metadata={op_name="jit(optimized_compute)/jit(_normal)/jit(_normal_real)/erf_inv" stack_frame_id=23}
  %erf_inv.1203.clone.1 = f32[10,4096,16,128]{3,1,2,0:T(8,128)} multiply(%erf_inv.1204.clone.1, %erf_inv.1239.clone.1), metadata={op_name="jit(optimized_compute)/jit(_normal)/jit(_normal_real)/erf_inv" stack_frame_id=23}
  %erf_inv.1202.clone.1 = f32[10,4096,16,128]{3,1,2,0:T(8,128)} select(%erf_inv.1237.clone.1, %erf_inv.1236.clone.1, %erf_inv.1203.clone.1), metadata={op_name="jit(optimized_compute)/jit(_normal)/jit(_normal_real)/erf_inv" stack_frame_id=23}
  %erf_inv.1201.clone.1 = bf16[10,4096,16,128]{3,1,2,0:T(8,128)(2,1)} convert(%erf_inv.1202.clone.1), metadata={op_name="jit(optimized_compute)/jit(_normal)/jit(_normal_real)/erf_inv" stack_frame_id=23}
  %convert.22 = f32[10,4096,16,128]{3,1,2,0:T(8,128)} convert(%erf_inv.1201.clone.1)
  %mul.41.clone.1 = f32[10,4096,16,128]{3,1,2,0:T(8,128)} multiply(%convert.22, %convert.20), metadata={op_name="jit(optimized_compute)/jit(_normal)/jit(_normal_real)/mul" stack_frame_id=23}, backend_config={"flag_configs":[],"scoped_memory_configs":[],"used_scoped_memory_configs":[],"float_type_correction_info":{"original_type":"BF16","original_shape":{"element_type":"BF16","dimensions":["10","4096","16","128"],"tuple_shapes":[],"layout":{"minor_to_major":["3","1","2","0"],"tiles":[{"dimensions":["8","128"]},{"dimensions":["2","1"]}],"element_size_in_bits":"0","memory_space":"0","dim_level_types":[],"index_primitive_type":"PRIMITIVE_TYPE_INVALID","pointer_primitive_type":"PRIMITIVE_TYPE_INVALID","dim_unique":[],"dim_ordered":[],"dynamic_shape_metadata_prefix_bytes":"0","tail_padding_alignment_in_elements":"1","split_configs":[]},"is_dynamic_dimension":[false,false,false,false]}}}
  %convert.13.clone.1 = f32[10,4096,16,128]{3,1,2,0:T(8,128)} convert(%mul.41.clone.1), metadata={op_name="jit(optimized_compute)/jvp(jit(fused_chunk_fwd_kernel))/transpose" stack_frame_id=40}
  %bitcast.16.clone.1 = f32[10,16,4096,128]{3,2,1,0:T(8,128)} bitcast(%convert.13.clone.1), metadata={op_name="jit(optimized_compute)/jvp(jit(fused_chunk_fwd_kernel))/transpose" stack_frame_id=40}
  %param_14.810 = u32[]{:T(128)} parameter(14)
  %add.1248.clone.1 = u32[10,4096,16,128]{3,1,2,0:T(8,128)} broadcast(%param_14.810), dimensions={}, metadata={op_name="jit(optimized_compute)/jit(_normal)/jit(_normal_real)/jit(_uniform)/add" stack_frame_id=22}
  %add.1247.clone.1 = u32[10,4096,16,128]{3,1,2,0:T(8,128)} add(%shift-right-logical.112, %add.1248.clone.1), metadata={op_name="jit(optimized_compute)/jit(_normal)/jit(_normal_real)/jit(_uniform)/add" stack_frame_id=22}
  %param_13.772 = u32[]{:T(128)} parameter(13)
  %add.1246.clone.1 = u32[10,4096,16,128]{3,1,2,0:T(8,128)} broadcast(%param_13.772), dimensions={}, metadata={op_name="jit(optimized_compute)/jit(_normal)/jit(_normal_real)/jit(_uniform)/add" stack_frame_id=22}
  %add.1245.clone.1 = u32[10,4096,16,128]{3,1,2,0:T(8,128)} add(%add.1458, %add.1246.clone.1), metadata={op_name="jit(optimized_compute)/jit(_normal)/jit(_normal_real)/jit(_uniform)/add" stack_frame_id=22}
  %add.1244.clone.1 = u32[10,4096,16,128]{3,1,2,0:T(8,128)} add(%add.1247.clone.1, %add.1245.clone.1), metadata={op_name="jit(optimized_compute)/jit(_normal)/jit(_normal_real)/jit(_uniform)/add" stack_frame_id=22}
  %shift_left.475.clone.1 = u32[10,4096,16,128]{3,1,2,0:T(8,128)} shift-left(%add.1245.clone.1, %broadcast.1271), metadata={op_name="jit(optimized_compute)/jit(_normal)/jit(_normal_real)/jit(_uniform)/shift_left" stack_frame_id=22}
  %shift_right_logical.492.clone.1 = u32[10,4096,16,128]{3,1,2,0:T(8,128)} shift-right-logical(%add.1245.clone.1, %broadcast.1270), metadata={op_name="jit(optimized_compute)/jit(_normal)/jit(_normal_real)/jit(_uniform)/shift_right_logical" stack_frame_id=22}
  %or.512.clone.1 = u32[10,4096,16,128]{3,1,2,0:T(8,128)} or(%shift_left.475.clone.1, %shift_right_logical.492.clone.1), metadata={op_name="jit(optimized_compute)/jit(_normal)/jit(_normal_real)/jit(_uniform)/or" stack_frame_id=22}
  %xor.503.clone.1 = u32[10,4096,16,128]{3,1,2,0:T(8,128)} xor(%add.1244.clone.1, %or.512.clone.1), metadata={op_name="jit(optimized_compute)/jit(_normal)/jit(_normal_real)/jit(_uniform)/xor" stack_frame_id=22}
  %add.1243.clone.1 = u32[10,4096,16,128]{3,1,2,0:T(8,128)} add(%add.1244.clone.1, %xor.503.clone.1), metadata={op_name="jit(optimized_compute)/jit(_normal)/jit(_normal_real)/jit(_uniform)/add" stack_frame_id=22}
  %shift_left.474.clone.1 = u32[10,4096,16,128]{3,1,2,0:T(8,128)} shift-left(%xor.503.clone.1, %broadcast.1269), metadata={op_name="jit(optimized_compute)/jit(_normal)/jit(_normal_real)/jit(_uniform)/shift_left" stack_frame_id=22}
  %shift_right_logical.491.clone.1 = u32[10,4096,16,128]{3,1,2,0:T(8,128)} shift-right-logical(%xor.503.clone.1, %broadcast.1268), metadata={op_name="jit(optimized_compute)/jit(_normal)/jit(_normal_real)/jit(_uniform)/shift_right_logical" stack_frame_id=22}
  %or.511.clone.1 = u32[10,4096,16,128]{3,1,2,0:T(8,128)} or(%shift_left.474.clone.1, %shift_right_logical.491.clone.1), metadata={op_name="jit(optimized_compute)/jit(_normal)/jit(_normal_real)/jit(_uniform)/or" stack_frame_id=22}
  %xor.502.clone.1 = u32[10,4096,16,128]{3,1,2,0:T(8,128)} xor(%add.1243.clone.1, %or.511.clone.1), metadata={op_name="jit(optimized_compute)/jit(_normal)/jit(_normal_real)/jit(_uniform)/xor" stack_frame_id=22}
  %add.1242.clone.1 = u32[10,4096,16,128]{3,1,2,0:T(8,128)} add(%add.1243.clone.1, %xor.502.clone.1), metadata={op_name="jit(optimized_compute)/jit(_normal)/jit(_normal_real)/jit(_uniform)/add" stack_frame_id=22}
  %shift_left.473.clone.1 = u32[10,4096,16,128]{3,1,2,0:T(8,128)} shift-left(%xor.502.clone.1, %broadcast.1267), metadata={op_name="jit(optimized_compute)/jit(_normal)/jit(_normal_real)/jit(_uniform)/shift_left" stack_frame_id=22}
  %shift_right_logical.490.clone.1 = u32[10,4096,16,128]{3,1,2,0:T(8,128)} shift-right-logical(%xor.502.clone.1, %broadcast.1266), metadata={op_name="jit(optimized_compute)/jit(_normal)/jit(_normal_real)/jit(_uniform)/shift_right_logical" stack_frame_id=22}
  %or.510.clone.1 = u32[10,4096,16,128]{3,1,2,0:T(8,128)} or(%shift_left.473.clone.1, %shift_right_logical.490.clone.1), metadata={op_name="jit(optimized_compute)/jit(_normal)/jit(_normal_real)/jit(_uniform)/or" stack_frame_id=22}
  %xor.501.clone.1 = u32[10,4096,16,128]{3,1,2,0:T(8,128)} xor(%add.1242.clone.1, %or.510.clone.1), metadata={op_name="jit(optimized_compute)/jit(_normal)/jit(_normal_real)/jit(_uniform)/xor" stack_frame_id=22}
  %add.1241.clone.1 = u32[10,4096,16,128]{3,1,2,0:T(8,128)} add(%add.1242.clone.1, %xor.501.clone.1), metadata={op_name="jit(optimized_compute)/jit(_normal)/jit(_normal_real)/jit(_uniform)/add" stack_frame_id=22}
  %add.1240.clone.1 = u32[10,4096,16,128]{3,1,2,0:T(8,128)} add(%add.1241.clone.1, %add.1246.clone.1), metadata={op_name="jit(optimized_compute)/jit(_normal)/jit(_normal_real)/jit(_uniform)/add" stack_frame_id=22}
  %shift_left.472.clone.1 = u32[10,4096,16,128]{3,1,2,0:T(8,128)} shift-left(%xor.501.clone.1, %broadcast.1266), metadata={op_name="jit(optimized_compute)/jit(_normal)/jit(_normal_real)/jit(_uniform)/shift_left" stack_frame_id=22}
  %shift_right_logical.489.clone.1 = u32[10,4096,16,128]{3,1,2,0:T(8,128)} shift-right-logical(%xor.501.clone.1, %broadcast.1267), metadata={op_name="jit(optimized_compute)/jit(_normal)/jit(_normal_real)/jit(_uniform)/shift_right_logical" stack_frame_id=22}
  %or.509.clone.1 = u32[10,4096,16,128]{3,1,2,0:T(8,128)} or(%shift_left.472.clone.1, %shift_right_logical.489.clone.1), metadata={op_name="jit(optimized_compute)/jit(_normal)/jit(_normal_real)/jit(_uniform)/or" stack_frame_id=22}
  %xor.500.clone.1 = u32[10,4096,16,128]{3,1,2,0:T(8,128)} xor(%add.1241.clone.1, %or.509.clone.1), metadata={op_name="jit(optimized_compute)/jit(_normal)/jit(_normal_real)/jit(_uniform)/xor" stack_frame_id=22}
  %param_12.766 = u32[]{:T(128)S(6)} parameter(12)
  %add.1239.clone.1 = u32[10,4096,16,128]{3,1,2,0:T(8,128)} broadcast(%param_12.766), dimensions={}, metadata={op_name="jit(optimized_compute)/jit(_normal)/jit(_normal_real)/jit(_uniform)/add" stack_frame_id=22}
  %add.1238.clone.1 = u32[10,4096,16,128]{3,1,2,0:T(8,128)} add(%xor.500.clone.1, %add.1239.clone.1), metadata={op_name="jit(optimized_compute)/jit(_normal)/jit(_normal_real)/jit(_uniform)/add" stack_frame_id=22}
  %add.1237.clone.1 = u32[10,4096,16,128]{3,1,2,0:T(8,128)} add(%add.1238.clone.1, %broadcast.1274), metadata={op_name="jit(optimized_compute)/jit(_normal)/jit(_normal_real)/jit(_uniform)/add" stack_frame_id=22}
  %add.1236.clone.1 = u32[10,4096,16,128]{3,1,2,0:T(8,128)} add(%add.1240.clone.1, %add.1237.clone.1), metadata={op_name="jit(optimized_compute)/jit(_normal)/jit(_normal_real)/jit(_uniform)/add" stack_frame_id=22}
  %shift_left.471.clone.1 = u32[10,4096,16,128]{3,1,2,0:T(8,128)} shift-left(%add.1237.clone.1, %broadcast.1268), metadata={op_name="jit(optimized_compute)/jit(_normal)/jit(_normal_real)/jit(_uniform)/shift_left" stack_frame_id=22}
  %shift_right_logical.488.clone.1 = u32[10,4096,16,128]{3,1,2,0:T(8,128)} shift-right-logical(%add.1237.clone.1, %broadcast.1269), metadata={op_name="jit(optimized_compute)/jit(_normal)/jit(_normal_real)/jit(_uniform)/shift_right_logical" stack_frame_id=22}
  %or.508.clone.1 = u32[10,4096,16,128]{3,1,2,0:T(8,128)} or(%shift_left.471.clone.1, %shift_right_logical.488.clone.1), metadata={op_name="jit(optimized_compute)/jit(_normal)/jit(_normal_real)/jit(_uniform)/or" stack_frame_id=22}
  %xor.499.clone.1 = u32[10,4096,16,128]{3,1,2,0:T(8,128)} xor(%add.1236.clone.1, %or.508.clone.1), metadata={op_name="jit(optimized_compute)/jit(_normal)/jit(_normal_real)/jit(_uniform)/xor" stack_frame_id=22}
  %add.1235.clone.1 = u32[10,4096,16,128]{3,1,2,0:T(8,128)} add(%add.1236.clone.1, %xor.499.clone.1), metadata={op_name="jit(optimized_compute)/jit(_normal)/jit(_normal_real)/jit(_uniform)/add" stack_frame_id=22}
  %shift_left.470.clone.1 = u32[10,4096,16,128]{3,1,2,0:T(8,128)} shift-left(%xor.499.clone.1, %broadcast.1265), metadata={op_name="jit(optimized_compute)/jit(_normal)/jit(_normal_real)/jit(_uniform)/shift_left" stack_frame_id=22}
  %shift_right_logical.487.clone.1 = u32[10,4096,16,128]{3,1,2,0:T(8,128)} shift-right-logical(%xor.499.clone.1, %broadcast.1264), metadata={op_name="jit(optimized_compute)/jit(_normal)/jit(_normal_real)/jit(_uniform)/shift_right_logical" stack_frame_id=22}
  %or.507.clone.1 = u32[10,4096,16,128]{3,1,2,0:T(8,128)} or(%shift_left.470.clone.1, %shift_right_logical.487.clone.1), metadata={op_name="jit(optimized_compute)/jit(_normal)/jit(_normal_real)/jit(_uniform)/or" stack_frame_id=22}
  %xor.498.clone.1 = u32[10,4096,16,128]{3,1,2,0:T(8,128)} xor(%add.1235.clone.1, %or.507.clone.1), metadata={op_name="jit(optimized_compute)/jit(_normal)/jit(_normal_real)/jit(_uniform)/xor" stack_frame_id=22}
  %add.1234.clone.1 = u32[10,4096,16,128]{3,1,2,0:T(8,128)} add(%add.1235.clone.1, %xor.498.clone.1), metadata={op_name="jit(optimized_compute)/jit(_normal)/jit(_normal_real)/jit(_uniform)/add" stack_frame_id=22}
  %shift_left.469.clone.1 = u32[10,4096,16,128]{3,1,2,0:T(8,128)} shift-left(%xor.498.clone.1, %broadcast.1263), metadata={op_name="jit(optimized_compute)/jit(_normal)/jit(_normal_real)/jit(_uniform)/shift_left" stack_frame_id=22}
  %shift_right_logical.486.clone.1 = u32[10,4096,16,128]{3,1,2,0:T(8,128)} shift-right-logical(%xor.498.clone.1, %broadcast.1263), metadata={op_name="jit(optimized_compute)/jit(_normal)/jit(_normal_real)/jit(_uniform)/shift_right_logical" stack_frame_id=22}
  %or.506.clone.1 = u32[10,4096,16,128]{3,1,2,0:T(8,128)} or(%shift_left.469.clone.1, %shift_right_logical.486.clone.1), metadata={op_name="jit(optimized_compute)/jit(_normal)/jit(_normal_real)/jit(_uniform)/or" stack_frame_id=22}
  %xor.497.clone.1 = u32[10,4096,16,128]{3,1,2,0:T(8,128)} xor(%add.1234.clone.1, %or.506.clone.1), metadata={op_name="jit(optimized_compute)/jit(_normal)/jit(_normal_real)/jit(_uniform)/xor" stack_frame_id=22}
  %add.1233.clone.1 = u32[10,4096,16,128]{3,1,2,0:T(8,128)} add(%add.1234.clone.1, %xor.497.clone.1), metadata={op_name="jit(optimized_compute)/jit(_normal)/jit(_normal_real)/jit(_uniform)/add" stack_frame_id=22}
  %add.1232.clone.1 = u32[10,4096,16,128]{3,1,2,0:T(8,128)} add(%add.1233.clone.1, %add.1239.clone.1), metadata={op_name="jit(optimized_compute)/jit(_normal)/jit(_normal_real)/jit(_uniform)/add" stack_frame_id=22}
  %shift_left.468.clone.1 = u32[10,4096,16,128]{3,1,2,0:T(8,128)} shift-left(%xor.497.clone.1, %broadcast.1262), metadata={op_name="jit(optimized_compute)/jit(_normal)/jit(_normal_real)/jit(_uniform)/shift_left" stack_frame_id=22}
  %shift_right_logical.485.clone.1 = u32[10,4096,16,128]{3,1,2,0:T(8,128)} shift-right-logical(%xor.497.clone.1, %broadcast.1261), metadata={op_name="jit(optimized_compute)/jit(_normal)/jit(_normal_real)/jit(_uniform)/shift_right_logical" stack_frame_id=22}
  %or.505.clone.1 = u32[10,4096,16,128]{3,1,2,0:T(8,128)} or(%shift_left.468.clone.1, %shift_right_logical.485.clone.1), metadata={op_name="jit(optimized_compute)/jit(_normal)/jit(_normal_real)/jit(_uniform)/or" stack_frame_id=22}
  %xor.496.clone.1 = u32[10,4096,16,128]{3,1,2,0:T(8,128)} xor(%add.1233.clone.1, %or.505.clone.1), metadata={op_name="jit(optimized_compute)/jit(_normal)/jit(_normal_real)/jit(_uniform)/xor" stack_frame_id=22}
  %add.1231.clone.1 = u32[10,4096,16,128]{3,1,2,0:T(8,128)} add(%xor.496.clone.1, %add.1248.clone.1), metadata={op_name="jit(optimized_compute)/jit(_normal)/jit(_normal_real)/jit(_uniform)/add" stack_frame_id=22}
  %add.1229.clone.1 = u32[10,4096,16,128]{3,1,2,0:T(8,128)} add(%add.1231.clone.1, %add.1434), metadata={op_name="jit(optimized_compute)/jit(_normal)/jit(_normal_real)/jit(_uniform)/add" stack_frame_id=22}
  %add.1228.clone.1 = u32[10,4096,16,128]{3,1,2,0:T(8,128)} add(%add.1232.clone.1, %add.1229.clone.1), metadata={op_name="jit(optimized_compute)/jit(_normal)/jit(_normal_real)/jit(_uniform)/add" stack_frame_id=22}
  %shift_left.467.clone.1 = u32[10,4096,16,128]{3,1,2,0:T(8,128)} shift-left(%add.1229.clone.1, %broadcast.1271), metadata={op_name="jit(optimized_compute)/jit(_normal)/jit(_normal_real)/jit(_uniform)/shift_left" stack_frame_id=22}
  %shift_right_logical.484.clone.1 = u32[10,4096,16,128]{3,1,2,0:T(8,128)} shift-right-logical(%add.1229.clone.1, %broadcast.1270), metadata={op_name="jit(optimized_compute)/jit(_normal)/jit(_normal_real)/jit(_uniform)/shift_right_logical" stack_frame_id=22}
  %or.504.clone.1 = u32[10,4096,16,128]{3,1,2,0:T(8,128)} or(%shift_left.467.clone.1, %shift_right_logical.484.clone.1), metadata={op_name="jit(optimized_compute)/jit(_normal)/jit(_normal_real)/jit(_uniform)/or" stack_frame_id=22}
  %xor.495.clone.1 = u32[10,4096,16,128]{3,1,2,0:T(8,128)} xor(%add.1228.clone.1, %or.504.clone.1), metadata={op_name="jit(optimized_compute)/jit(_normal)/jit(_normal_real)/jit(_uniform)/xor" stack_frame_id=22}
  %add.1227.clone.1 = u32[10,4096,16,128]{3,1,2,0:T(8,128)} add(%add.1228.clone.1, %xor.495.clone.1), metadata={op_name="jit(optimized_compute)/jit(_normal)/jit(_normal_real)/jit(_uniform)/add" stack_frame_id=22}
  %shift_left.466.clone.1 = u32[10,4096,16,128]{3,1,2,0:T(8,128)} shift-left(%xor.495.clone.1, %broadcast.1269), metadata={op_name="jit(optimized_compute)/jit(_normal)/jit(_normal_real)/jit(_uniform)/shift_left" stack_frame_id=22}
  %shift_right_logical.483.clone.1 = u32[10,4096,16,128]{3,1,2,0:T(8,128)} shift-right-logical(%xor.495.clone.1, %broadcast.1268), metadata={op_name="jit(optimized_compute)/jit(_normal)/jit(_normal_real)/jit(_uniform)/shift_right_logical" stack_frame_id=22}
  %or.503.clone.1 = u32[10,4096,16,128]{3,1,2,0:T(8,128)} or(%shift_left.466.clone.1, %shift_right_logical.483.clone.1), metadata={op_name="jit(optimized_compute)/jit(_normal)/jit(_normal_real)/jit(_uniform)/or" stack_frame_id=22}
  %xor.494.clone.1 = u32[10,4096,16,128]{3,1,2,0:T(8,128)} xor(%add.1227.clone.1, %or.503.clone.1), metadata={op_name="jit(optimized_compute)/jit(_normal)/jit(_normal_real)/jit(_uniform)/xor" stack_frame_id=22}
  %add.1226.clone.1 = u32[10,4096,16,128]{3,1,2,0:T(8,128)} add(%add.1227.clone.1, %xor.494.clone.1), metadata={op_name="jit(optimized_compute)/jit(_normal)/jit(_normal_real)/jit(_uniform)/add" stack_frame_id=22}
  %shift_left.465.clone.1 = u32[10,4096,16,128]{3,1,2,0:T(8,128)} shift-left(%xor.494.clone.1, %broadcast.1267), metadata={op_name="jit(optimized_compute)/jit(_normal)/jit(_normal_real)/jit(_uniform)/shift_left" stack_frame_id=22}
  %shift_right_logical.482.clone.1 = u32[10,4096,16,128]{3,1,2,0:T(8,128)} shift-right-logical(%xor.494.clone.1, %broadcast.1266), metadata={op_name="jit(optimized_compute)/jit(_normal)/jit(_normal_real)/jit(_uniform)/shift_right_logical" stack_frame_id=22}
  %or.502.clone.1 = u32[10,4096,16,128]{3,1,2,0:T(8,128)} or(%shift_left.465.clone.1, %shift_right_logical.482.clone.1), metadata={op_name="jit(optimized_compute)/jit(_normal)/jit(_normal_real)/jit(_uniform)/or" stack_frame_id=22}
  %xor.493.clone.1 = u32[10,4096,16,128]{3,1,2,0:T(8,128)} xor(%add.1226.clone.1, %or.502.clone.1), metadata={op_name="jit(optimized_compute)/jit(_normal)/jit(_normal_real)/jit(_uniform)/xor" stack_frame_id=22}
  %add.1225.clone.1 = u32[10,4096,16,128]{3,1,2,0:T(8,128)} add(%add.1226.clone.1, %xor.493.clone.1), metadata={op_name="jit(optimized_compute)/jit(_normal)/jit(_normal_real)/jit(_uniform)/add" stack_frame_id=22}
  %add.1224.clone.1 = u32[10,4096,16,128]{3,1,2,0:T(8,128)} add(%add.1225.clone.1, %add.1248.clone.1), metadata={op_name="jit(optimized_compute)/jit(_normal)/jit(_normal_real)/jit(_uniform)/add" stack_frame_id=22}
  %shift_left.464.clone.1 = u32[10,4096,16,128]{3,1,2,0:T(8,128)} shift-left(%xor.493.clone.1, %broadcast.1266), metadata={op_name="jit(optimized_compute)/jit(_normal)/jit(_normal_real)/jit(_uniform)/shift_left" stack_frame_id=22}
  %shift_right_logical.481.clone.1 = u32[10,4096,16,128]{3,1,2,0:T(8,128)} shift-right-logical(%xor.493.clone.1, %broadcast.1267), metadata={op_name="jit(optimized_compute)/jit(_normal)/jit(_normal_real)/jit(_uniform)/shift_right_logical" stack_frame_id=22}
  %or.501.clone.1 = u32[10,4096,16,128]{3,1,2,0:T(8,128)} or(%shift_left.464.clone.1, %shift_right_logical.481.clone.1), metadata={op_name="jit(optimized_compute)/jit(_normal)/jit(_normal_real)/jit(_uniform)/or" stack_frame_id=22}
  %xor.492.clone.1 = u32[10,4096,16,128]{3,1,2,0:T(8,128)} xor(%add.1225.clone.1, %or.501.clone.1), metadata={op_name="jit(optimized_compute)/jit(_normal)/jit(_normal_real)/jit(_uniform)/xor" stack_frame_id=22}
  %add.1223.clone.1 = u32[10,4096,16,128]{3,1,2,0:T(8,128)} add(%xor.492.clone.1, %add.1246.clone.1), metadata={op_name="jit(optimized_compute)/jit(_normal)/jit(_normal_real)/jit(_uniform)/add" stack_frame_id=22}
  %add.1222.clone.1 = u32[10,4096,16,128]{3,1,2,0:T(8,128)} add(%add.1223.clone.1, %broadcast.1264), metadata={op_name="jit(optimized_compute)/jit(_normal)/jit(_normal_real)/jit(_uniform)/add" stack_frame_id=22}
  %add.1221.clone.1 = u32[10,4096,16,128]{3,1,2,0:T(8,128)} add(%add.1224.clone.1, %add.1222.clone.1), metadata={op_name="jit(optimized_compute)/jit(_normal)/jit(_normal_real)/jit(_uniform)/add" stack_frame_id=22}
  %shift_left.463.clone.1 = u32[10,4096,16,128]{3,1,2,0:T(8,128)} shift-left(%add.1222.clone.1, %broadcast.1268), metadata={op_name="jit(optimized_compute)/jit(_normal)/jit(_normal_real)/jit(_uniform)/shift_left" stack_frame_id=22}
  %shift_right_logical.480.clone.1 = u32[10,4096,16,128]{3,1,2,0:T(8,128)} shift-right-logical(%add.1222.clone.1, %broadcast.1269), metadata={op_name="jit(optimized_compute)/jit(_normal)/jit(_normal_real)/jit(_uniform)/shift_right_logical" stack_frame_id=22}
  %or.500.clone.1 = u32[10,4096,16,128]{3,1,2,0:T(8,128)} or(%shift_left.463.clone.1, %shift_right_logical.480.clone.1), metadata={op_name="jit(optimized_compute)/jit(_normal)/jit(_normal_real)/jit(_uniform)/or" stack_frame_id=22}
  %xor.491.clone.1 = u32[10,4096,16,128]{3,1,2,0:T(8,128)} xor(%add.1221.clone.1, %or.500.clone.1), metadata={op_name="jit(optimized_compute)/jit(_normal)/jit(_normal_real)/jit(_uniform)/xor" stack_frame_id=22}
  %add.1220.clone.1 = u32[10,4096,16,128]{3,1,2,0:T(8,128)} add(%add.1221.clone.1, %xor.491.clone.1), metadata={op_name="jit(optimized_compute)/jit(_normal)/jit(_normal_real)/jit(_uniform)/add" stack_frame_id=22}
  %shift_left.462.clone.1 = u32[10,4096,16,128]{3,1,2,0:T(8,128)} shift-left(%xor.491.clone.1, %broadcast.1265), metadata={op_name="jit(optimized_compute)/jit(_normal)/jit(_normal_real)/jit(_uniform)/shift_left" stack_frame_id=22}
  %shift_right_logical.479.clone.1 = u32[10,4096,16,128]{3,1,2,0:T(8,128)} shift-right-logical(%xor.491.clone.1, %broadcast.1264), metadata={op_name="jit(optimized_compute)/jit(_normal)/jit(_normal_real)/jit(_uniform)/shift_right_logical" stack_frame_id=22}
  %or.499.clone.1 = u32[10,4096,16,128]{3,1,2,0:T(8,128)} or(%shift_left.462.clone.1, %shift_right_logical.479.clone.1), metadata={op_name="jit(optimized_compute)/jit(_normal)/jit(_normal_real)/jit(_uniform)/or" stack_frame_id=22}
  %xor.490.clone.1 = u32[10,4096,16,128]{3,1,2,0:T(8,128)} xor(%add.1220.clone.1, %or.499.clone.1), metadata={op_name="jit(optimized_compute)/jit(_normal)/jit(_normal_real)/jit(_uniform)/xor" stack_frame_id=22}
  %add.1219.clone.1 = u32[10,4096,16,128]{3,1,2,0:T(8,128)} add(%add.1220.clone.1, %xor.490.clone.1), metadata={op_name="jit(optimized_compute)/jit(_normal)/jit(_normal_real)/jit(_uniform)/add" stack_frame_id=22}
  %shift_left.461.clone.1 = u32[10,4096,16,128]{3,1,2,0:T(8,128)} shift-left(%xor.490.clone.1, %broadcast.1263), metadata={op_name="jit(optimized_compute)/jit(_normal)/jit(_normal_real)/jit(_uniform)/shift_left" stack_frame_id=22}
  %shift_right_logical.478.clone.1 = u32[10,4096,16,128]{3,1,2,0:T(8,128)} shift-right-logical(%xor.490.clone.1, %broadcast.1263), metadata={op_name="jit(optimized_compute)/jit(_normal)/jit(_normal_real)/jit(_uniform)/shift_right_logical" stack_frame_id=22}
  %or.498.clone.1 = u32[10,4096,16,128]{3,1,2,0:T(8,128)} or(%shift_left.461.clone.1, %shift_right_logical.478.clone.1), metadata={op_name="jit(optimized_compute)/jit(_normal)/jit(_normal_real)/jit(_uniform)/or" stack_frame_id=22}
  %xor.489.clone.1 = u32[10,4096,16,128]{3,1,2,0:T(8,128)} xor(%add.1219.clone.1, %or.498.clone.1), metadata={op_name="jit(optimized_compute)/jit(_normal)/jit(_normal_real)/jit(_uniform)/xor" stack_frame_id=22}
  %add.1218.clone.1 = u32[10,4096,16,128]{3,1,2,0:T(8,128)} add(%add.1219.clone.1, %xor.489.clone.1), metadata={op_name="jit(optimized_compute)/jit(_normal)/jit(_normal_real)/jit(_uniform)/add" stack_frame_id=22}
  %add.1217.clone.1 = u32[10,4096,16,128]{3,1,2,0:T(8,128)} add(%add.1218.clone.1, %add.1246.clone.1), metadata={op_name="jit(optimized_compute)/jit(_normal)/jit(_normal_real)/jit(_uniform)/add" stack_frame_id=22}
  %shift_left.460.clone.1 = u32[10,4096,16,128]{3,1,2,0:T(8,128)} shift-left(%xor.489.clone.1, %broadcast.1262), metadata={op_name="jit(optimized_compute)/jit(_normal)/jit(_normal_real)/jit(_uniform)/shift_left" stack_frame_id=22}
  %shift_right_logical.477.clone.1 = u32[10,4096,16,128]{3,1,2,0:T(8,128)} shift-right-logical(%xor.489.clone.1, %broadcast.1261), metadata={op_name="jit(optimized_compute)/jit(_normal)/jit(_normal_real)/jit(_uniform)/shift_right_logical" stack_frame_id=22}
  %or.497.clone.1 = u32[10,4096,16,128]{3,1,2,0:T(8,128)} or(%shift_left.460.clone.1, %shift_right_logical.477.clone.1), metadata={op_name="jit(optimized_compute)/jit(_normal)/jit(_normal_real)/jit(_uniform)/or" stack_frame_id=22}
  %xor.488.clone.1 = u32[10,4096,16,128]{3,1,2,0:T(8,128)} xor(%add.1218.clone.1, %or.497.clone.1), metadata={op_name="jit(optimized_compute)/jit(_normal)/jit(_normal_real)/jit(_uniform)/xor" stack_frame_id=22}
  %add.1216.clone.1 = u32[10,4096,16,128]{3,1,2,0:T(8,128)} add(%xor.488.clone.1, %add.1239.clone.1), metadata={op_name="jit(optimized_compute)/jit(_normal)/jit(_normal_real)/jit(_uniform)/add" stack_frame_id=22}
  %add.1214.clone.1 = u32[10,4096,16,128]{3,1,2,0:T(8,128)} add(%add.1216.clone.1, %add.1419), metadata={op_name="jit(optimized_compute)/jit(_normal)/jit(_normal_real)/jit(_uniform)/add" stack_frame_id=22}
  %add.1213.clone.1 = u32[10,4096,16,128]{3,1,2,0:T(8,128)} add(%add.1217.clone.1, %add.1214.clone.1), metadata={op_name="jit(optimized_compute)/jit(_normal)/jit(_normal_real)/jit(_uniform)/add" stack_frame_id=22}
  %shift_left.459.clone.1 = u32[10,4096,16,128]{3,1,2,0:T(8,128)} shift-left(%add.1214.clone.1, %broadcast.1271), metadata={op_name="jit(optimized_compute)/jit(_normal)/jit(_normal_real)/jit(_uniform)/shift_left" stack_frame_id=22}
  %shift_right_logical.476.clone.1 = u32[10,4096,16,128]{3,1,2,0:T(8,128)} shift-right-logical(%add.1214.clone.1, %broadcast.1270), metadata={op_name="jit(optimized_compute)/jit(_normal)/jit(_normal_real)/jit(_uniform)/shift_right_logical" stack_frame_id=22}
  %or.496.clone.1 = u32[10,4096,16,128]{3,1,2,0:T(8,128)} or(%shift_left.459.clone.1, %shift_right_logical.476.clone.1), metadata={op_name="jit(optimized_compute)/jit(_normal)/jit(_normal_real)/jit(_uniform)/or" stack_frame_id=22}
  %xor.487.clone.1 = u32[10,4096,16,128]{3,1,2,0:T(8,128)} xor(%add.1213.clone.1, %or.496.clone.1), metadata={op_name="jit(optimized_compute)/jit(_normal)/jit(_normal_real)/jit(_uniform)/xor" stack_frame_id=22}
  %add.1212.clone.1 = u32[10,4096,16,128]{3,1,2,0:T(8,128)} add(%add.1213.clone.1, %xor.487.clone.1), metadata={op_name="jit(optimized_compute)/jit(_normal)/jit(_normal_real)/jit(_uniform)/add" stack_frame_id=22}
  %shift_left.458.clone.1 = u32[10,4096,16,128]{3,1,2,0:T(8,128)} shift-left(%xor.487.clone.1, %broadcast.1269), metadata={op_name="jit(optimized_compute)/jit(_normal)/jit(_normal_real)/jit(_uniform)/shift_left" stack_frame_id=22}
  %shift_right_logical.475.clone.1 = u32[10,4096,16,128]{3,1,2,0:T(8,128)} shift-right-logical(%xor.487.clone.1, %broadcast.1268), metadata={op_name="jit(optimized_compute)/jit(_normal)/jit(_normal_real)/jit(_uniform)/shift_right_logical" stack_frame_id=22}
  %or.495.clone.1 = u32[10,4096,16,128]{3,1,2,0:T(8,128)} or(%shift_left.458.clone.1, %shift_right_logical.475.clone.1), metadata={op_name="jit(optimized_compute)/jit(_normal)/jit(_normal_real)/jit(_uniform)/or" stack_frame_id=22}
  %xor.486.clone.1 = u32[10,4096,16,128]{3,1,2,0:T(8,128)} xor(%add.1212.clone.1, %or.495.clone.1), metadata={op_name="jit(optimized_compute)/jit(_normal)/jit(_normal_real)/jit(_uniform)/xor" stack_frame_id=22}
  %add.1211.clone.1 = u32[10,4096,16,128]{3,1,2,0:T(8,128)} add(%add.1212.clone.1, %xor.486.clone.1), metadata={op_name="jit(optimized_compute)/jit(_normal)/jit(_normal_real)/jit(_uniform)/add" stack_frame_id=22}
  %shift_left.457.clone.1 = u32[10,4096,16,128]{3,1,2,0:T(8,128)} shift-left(%xor.486.clone.1, %broadcast.1267), metadata={op_name="jit(optimized_compute)/jit(_normal)/jit(_normal_real)/jit(_uniform)/shift_left" stack_frame_id=22}
  %shift_right_logical.474.clone.1 = u32[10,4096,16,128]{3,1,2,0:T(8,128)} shift-right-logical(%xor.486.clone.1, %broadcast.1266), metadata={op_name="jit(optimized_compute)/jit(_normal)/jit(_normal_real)/jit(_uniform)/shift_right_logical" stack_frame_id=22}
  %or.494.clone.1 = u32[10,4096,16,128]{3,1,2,0:T(8,128)} or(%shift_left.457.clone.1, %shift_right_logical.474.clone.1), metadata={op_name="jit(optimized_compute)/jit(_normal)/jit(_normal_real)/jit(_uniform)/or" stack_frame_id=22}
  %xor.485.clone.1 = u32[10,4096,16,128]{3,1,2,0:T(8,128)} xor(%add.1211.clone.1, %or.494.clone.1), metadata={op_name="jit(optimized_compute)/jit(_normal)/jit(_normal_real)/jit(_uniform)/xor" stack_frame_id=22}
  %add.1210.clone.1 = u32[10,4096,16,128]{3,1,2,0:T(8,128)} add(%add.1211.clone.1, %xor.485.clone.1), metadata={op_name="jit(optimized_compute)/jit(_normal)/jit(_normal_real)/jit(_uniform)/add" stack_frame_id=22}
  %add.1209.clone.1 = u32[10,4096,16,128]{3,1,2,0:T(8,128)} add(%add.1210.clone.1, %add.1239.clone.1), metadata={op_name="jit(optimized_compute)/jit(_normal)/jit(_normal_real)/jit(_uniform)/add" stack_frame_id=22}
  %shift_left.456.clone.1 = u32[10,4096,16,128]{3,1,2,0:T(8,128)} shift-left(%xor.485.clone.1, %broadcast.1266), metadata={op_name="jit(optimized_compute)/jit(_normal)/jit(_normal_real)/jit(_uniform)/shift_left" stack_frame_id=22}
  %shift_right_logical.473.clone.1 = u32[10,4096,16,128]{3,1,2,0:T(8,128)} shift-right-logical(%xor.485.clone.1, %broadcast.1267), metadata={op_name="jit(optimized_compute)/jit(_normal)/jit(_normal_real)/jit(_uniform)/shift_right_logical" stack_frame_id=22}
  %or.493.clone.1 = u32[10,4096,16,128]{3,1,2,0:T(8,128)} or(%shift_left.456.clone.1, %shift_right_logical.473.clone.1), metadata={op_name="jit(optimized_compute)/jit(_normal)/jit(_normal_real)/jit(_uniform)/or" stack_frame_id=22}
  %xor.484.clone.1 = u32[10,4096,16,128]{3,1,2,0:T(8,128)} xor(%add.1210.clone.1, %or.493.clone.1), metadata={op_name="jit(optimized_compute)/jit(_normal)/jit(_normal_real)/jit(_uniform)/xor" stack_frame_id=22}
  %add.1208.clone.1 = u32[10,4096,16,128]{3,1,2,0:T(8,128)} add(%xor.484.clone.1, %add.1248.clone.1), metadata={op_name="jit(optimized_compute)/jit(_normal)/jit(_normal_real)/jit(_uniform)/add" stack_frame_id=22}
  %add.1206.clone.1 = u32[10,4096,16,128]{3,1,2,0:T(8,128)} add(%add.1208.clone.1, %add.1411), metadata={op_name="jit(optimized_compute)/jit(_normal)/jit(_normal_real)/jit(_uniform)/add" stack_frame_id=22}
  %xor.483.clone.1 = u32[10,4096,16,128]{3,1,2,0:T(8,128)} xor(%add.1209.clone.1, %add.1206.clone.1), metadata={op_name="jit(optimized_compute)/jit(_normal)/jit(_normal_real)/jit(_uniform)/xor" stack_frame_id=22}
  %convert_element_type.23.clone.1 = u8[10,4096,16,128]{3,1,2,0:T(8,128)(4,1)} convert(%xor.483.clone.1), metadata={op_name="jit(optimized_compute)/jit(_normal)/jit(_normal_real)/jit(_uniform)/convert_element_type" stack_frame_id=22}
  %convert_element_type.21.clone.1 = u16[10,4096,16,128]{3,1,2,0:T(8,128)(2,1)} convert(%convert_element_type.23.clone.1), metadata={op_name="jit(optimized_compute)/jit(_normal)/jit(_normal_real)/jit(_uniform)/convert_element_type" stack_frame_id=22}
  %shift_right_logical.452.clone.1 = u16[10,4096,16,128]{3,1,2,0:T(8,128)(2,1)} shift-right-logical(%convert_element_type.21.clone.1, %shift_right_logical.573), metadata={op_name="jit(optimized_compute)/jit(_normal)/jit(_normal_real)/jit(_uniform)/shift_right_logical" stack_frame_id=22}
  %or.472.clone.1 = u16[10,4096,16,128]{3,1,2,0:T(8,128)(2,1)} or(%shift_right_logical.452.clone.1, %or.593), metadata={op_name="jit(optimized_compute)/jit(_normal)/jit(_normal_real)/jit(_uniform)/or" stack_frame_id=22}
  %bitcast_convert_type.9.clone.1 = bf16[10,4096,16,128]{3,1,2,0:T(8,128)(2,1)} bitcast-convert(%or.472.clone.1), metadata={op_name="jit(optimized_compute)/jit(_normal)/jit(_normal_real)/jit(_uniform)/bitcast_convert_type" stack_frame_id=22}
  %convert.23 = f32[10,4096,16,128]{3,1,2,0:T(8,128)} convert(%bitcast_convert_type.9.clone.1)
  %add.1094.clone.1 = f32[10,4096,16,128]{3,1,2,0:T(8,128)} add(%convert.23, %convert.16), metadata={op_name="jit(optimized_compute)/jit(_normal)/jit(_normal_real)/jit(_uniform)/sub" stack_frame_id=22}, backend_config={"flag_configs":[],"scoped_memory_configs":[],"used_scoped_memory_configs":[],"float_type_correction_info":{"original_type":"BF16","original_shape":{"element_type":"BF16","dimensions":["10","4096","16","128"],"tuple_shapes":[],"layout":{"minor_to_major":["3","1","2","0"],"tiles":[{"dimensions":["8","128"]},{"dimensions":["2","1"]}],"element_size_in_bits":"0","memory_space":"0","dim_level_types":[],"index_primitive_type":"PRIMITIVE_TYPE_INVALID","pointer_primitive_type":"PRIMITIVE_TYPE_INVALID","dim_unique":[],"dim_ordered":[],"dynamic_shape_metadata_prefix_bytes":"0","tail_padding_alignment_in_elements":"1","split_configs":[]},"is_dynamic_dimension":[false,false,false,false]}}}
  %mul.47.clone.1 = f32[10,4096,16,128]{3,1,2,0:T(8,128)} multiply(%add.1094.clone.1, %convert.17), metadata={op_name="jit(optimized_compute)/jit(_normal)/jit(_normal_real)/jit(_uniform)/mul" stack_frame_id=22}, backend_config={"flag_configs":[],"scoped_memory_configs":[],"used_scoped_memory_configs":[],"float_type_correction_info":{"original_type":"BF16","original_shape":{"element_type":"BF16","dimensions":["10","4096","16","128"],"tuple_shapes":[],"layout":{"minor_to_major":["3","1","2","0"],"tiles":[{"dimensions":["8","128"]},{"dimensions":["2","1"]}],"element_size_in_bits":"0","memory_space":"0","dim_level_types":[],"index_primitive_type":"PRIMITIVE_TYPE_INVALID","pointer_primitive_type":"PRIMITIVE_TYPE_INVALID","dim_unique":[],"dim_ordered":[],"dynamic_shape_metadata_prefix_bytes":"0","tail_padding_alignment_in_elements":"1","split_configs":[]},"is_dynamic_dimension":[false,false,false,false]}}}
  %add.1093.clone.1 = f32[10,4096,16,128]{3,1,2,0:T(8,128)} add(%mul.47.clone.1, %convert.18), metadata={op_name="jit(optimized_compute)/jit(_normal)/jit(_normal_real)/jit(_uniform)/add" stack_frame_id=22}, backend_config={"flag_configs":[],"scoped_memory_configs":[],"used_scoped_memory_configs":[],"float_type_correction_info":{"original_type":"BF16","original_shape":{"element_type":"BF16","dimensions":["10","4096","16","128"],"tuple_shapes":[],"layout":{"minor_to_major":["3","1","2","0"],"tiles":[{"dimensions":["8","128"]},{"dimensions":["2","1"]}],"element_size_in_bits":"0","memory_space":"0","dim_level_types":[],"index_primitive_type":"PRIMITIVE_TYPE_INVALID","pointer_primitive_type":"PRIMITIVE_TYPE_INVALID","dim_unique":[],"dim_ordered":[],"dynamic_shape_metadata_prefix_bytes":"0","tail_padding_alignment_in_elements":"1","split_configs":[]},"is_dynamic_dimension":[false,false,false,false]}}}
  %max.16.clone.1 = f32[10,4096,16,128]{3,1,2,0:T(8,128)} maximum(%convert.18, %add.1093.clone.1), metadata={op_name="jit(optimized_compute)/jit(_normal)/jit(_normal_real)/jit(_uniform)/max" stack_frame_id=22}, backend_config={"flag_configs":[],"scoped_memory_configs":[],"used_scoped_memory_configs":[],"float_type_correction_info":{"original_type":"BF16","original_shape":{"element_type":"BF16","dimensions":["10","4096","16","128"],"tuple_shapes":[],"layout":{"minor_to_major":["3","1","2","0"],"tiles":[{"dimensions":["8","128"]},{"dimensions":["2","1"]}],"element_size_in_bits":"0","memory_space":"0","dim_level_types":[],"index_primitive_type":"PRIMITIVE_TYPE_INVALID","pointer_primitive_type":"PRIMITIVE_TYPE_INVALID","dim_unique":[],"dim_ordered":[],"dynamic_shape_metadata_prefix_bytes":"0","tail_padding_alignment_in_elements":"1","split_configs":[]},"is_dynamic_dimension":[false,false,false,false]}}}
  %erf_inv.1395.clone.1 = f32[10,4096,16,128]{3,1,2,0:T(8,128)} convert(%max.16.clone.1), metadata={op_name="jit(optimized_compute)/jit(_normal)/jit(_normal_real)/erf_inv" stack_frame_id=22}
  %erf_inv.1394.clone.1 = f32[10,4096,16,128]{3,1,2,0:T(8,128)} abs(%erf_inv.1395.clone.1), metadata={op_name="jit(optimized_compute)/jit(_normal)/jit(_normal_real)/erf_inv" stack_frame_id=22}
  %erf_inv.1393.clone.1 = pred[10,4096,16,128]{3,1,2,0:T(8,128)(4,1)} compare(%erf_inv.1394.clone.1, %erf_inv.1456), direction=EQ, metadata={op_name="jit(optimized_compute)/jit(_normal)/jit(_normal_real)/erf_inv" stack_frame_id=22}
  %erf_inv.1392.clone.1 = f32[10,4096,16,128]{3,1,2,0:T(8,128)} multiply(%erf_inv.1395.clone.1, %erf_inv.1453), metadata={op_name="jit(optimized_compute)/jit(_normal)/jit(_normal_real)/erf_inv" stack_frame_id=22}
  %erf_inv.1391.clone.1 = f32[10,4096,16,128]{3,1,2,0:T(8,128)} negate(%erf_inv.1395.clone.1), metadata={op_name="jit(optimized_compute)/jit(_normal)/jit(_normal_real)/erf_inv" stack_frame_id=22}
  %erf_inv.1390.clone.1 = f32[10,4096,16,128]{3,1,2,0:T(8,128)} multiply(%erf_inv.1395.clone.1, %erf_inv.1391.clone.1), metadata={op_name="jit(optimized_compute)/jit(_normal)/jit(_normal_real)/erf_inv" stack_frame_id=22}
  %erf_inv.1389.clone.1 = f32[10,4096,16,128]{3,1,2,0:T(8,128)} log-plus-one(%erf_inv.1390.clone.1), metadata={op_name="jit(optimized_compute)/jit(_normal)/jit(_normal_real)/erf_inv" stack_frame_id=22}
  %erf_inv.1388.clone.1 = f32[10,4096,16,128]{3,1,2,0:T(8,128)} negate(%erf_inv.1389.clone.1), metadata={op_name="jit(optimized_compute)/jit(_normal)/jit(_normal_real)/erf_inv" stack_frame_id=22}
  %erf_inv.1387.clone.1 = pred[10,4096,16,128]{3,1,2,0:T(8,128)(4,1)} compare(%erf_inv.1388.clone.1, %erf_inv.1450), direction=LT, metadata={op_name="jit(optimized_compute)/jit(_normal)/jit(_normal_real)/erf_inv" stack_frame_id=22}
  %erf_inv.1386.clone.1 = f32[10,4096,16,128]{3,1,2,0:T(8,128)} select(%erf_inv.1387.clone.1, %erf_inv.1447, %erf_inv.1444), metadata={op_name="jit(optimized_compute)/jit(_normal)/jit(_normal_real)/erf_inv" stack_frame_id=22}
  %erf_inv.1385.clone.1 = f32[10,4096,16,128]{3,1,2,0:T(8,128)} select(%erf_inv.1387.clone.1, %erf_inv.1441, %erf_inv.1438), metadata={op_name="jit(optimized_compute)/jit(_normal)/jit(_normal_real)/erf_inv" stack_frame_id=22}
  %erf_inv.1384.clone.1 = f32[10,4096,16,128]{3,1,2,0:T(8,128)} select(%erf_inv.1387.clone.1, %erf_inv.1435, %erf_inv.1432), metadata={op_name="jit(optimized_compute)/jit(_normal)/jit(_normal_real)/erf_inv" stack_frame_id=22}
  %erf_inv.1383.clone.1 = f32[10,4096,16,128]{3,1,2,0:T(8,128)} select(%erf_inv.1387.clone.1, %erf_inv.1429, %erf_inv.1426), metadata={op_name="jit(optimized_compute)/jit(_normal)/jit(_normal_real)/erf_inv" stack_frame_id=22}
  %erf_inv.1382.clone.1 = f32[10,4096,16,128]{3,1,2,0:T(8,128)} select(%erf_inv.1387.clone.1, %erf_inv.1423, %erf_inv.1420), metadata={op_name="jit(optimized_compute)/jit(_normal)/jit(_normal_real)/erf_inv" stack_frame_id=22}
  %erf_inv.1381.clone.1 = f32[10,4096,16,128]{3,1,2,0:T(8,128)} select(%erf_inv.1387.clone.1, %erf_inv.1417, %erf_inv.1414), metadata={op_name="jit(optimized_compute)/jit(_normal)/jit(_normal_real)/erf_inv" stack_frame_id=22}
  %erf_inv.1380.clone.1 = f32[10,4096,16,128]{3,1,2,0:T(8,128)} select(%erf_inv.1387.clone.1, %erf_inv.1411, %erf_inv.1408), metadata={op_name="jit(optimized_compute)/jit(_normal)/jit(_normal_real)/erf_inv" stack_frame_id=22}
  %erf_inv.1379.clone.1 = f32[10,4096,16,128]{3,1,2,0:T(8,128)} select(%erf_inv.1387.clone.1, %erf_inv.1405, %erf_inv.1402), metadata={op_name="jit(optimized_compute)/jit(_normal)/jit(_normal_real)/erf_inv" stack_frame_id=22}
  %erf_inv.1378.clone.1 = f32[10,4096,16,128]{3,1,2,0:T(8,128)} select(%erf_inv.1387.clone.1, %erf_inv.1399, %erf_inv.1396), metadata={op_name="jit(optimized_compute)/jit(_normal)/jit(_normal_real)/erf_inv" stack_frame_id=22}
  %add.1082.clone.1 = f32[10,4096,16,128]{3,1,2,0:T(8,128)} add(%erf_inv.1388.clone.1, %broadcast.1061), metadata={op_name="jit(optimized_compute)/jit(_normal)/jit(_normal_real)/erf_inv" stack_frame_id=22}
  %erf_inv.1377.clone.1 = f32[10,4096,16,128]{3,1,2,0:T(8,128)} sqrt(%erf_inv.1388.clone.1), metadata={op_name="jit(optimized_compute)/jit(_normal)/jit(_normal_real)/erf_inv" stack_frame_id=22}
  %add.1081.clone.1 = f32[10,4096,16,128]{3,1,2,0:T(8,128)} add(%erf_inv.1377.clone.1, %broadcast.1058), metadata={op_name="jit(optimized_compute)/jit(_normal)/jit(_normal_real)/erf_inv" stack_frame_id=22}
  %erf_inv.1376.clone.1 = f32[10,4096,16,128]{3,1,2,0:T(8,128)} select(%erf_inv.1387.clone.1, %add.1082.clone.1, %add.1081.clone.1), metadata={op_name="jit(optimized_compute)/jit(_normal)/jit(_normal_real)/erf_inv" stack_frame_id=22}
  %erf_inv.1375.clone.1 = f32[10,4096,16,128]{3,1,2,0:T(8,128)} multiply(%erf_inv.1378.clone.1, %erf_inv.1376.clone.1), metadata={op_name="jit(optimized_compute)/jit(_normal)/jit(_normal_real)/erf_inv" stack_frame_id=22}
  %erf_inv.1374.clone.1 = f32[10,4096,16,128]{3,1,2,0:T(8,128)} add(%erf_inv.1379.clone.1, %erf_inv.1375.clone.1), metadata={op_name="jit(optimized_compute)/jit(_normal)/jit(_normal_real)/erf_inv" stack_frame_id=22}
  %erf_inv.1373.clone.1 = f32[10,4096,16,128]{3,1,2,0:T(8,128)} multiply(%erf_inv.1374.clone.1, %erf_inv.1376.clone.1), metadata={op_name="jit(optimized_compute)/jit(_normal)/jit(_normal_real)/erf_inv" stack_frame_id=22}
  %erf_inv.1372.clone.1 = f32[10,4096,16,128]{3,1,2,0:T(8,128)} add(%erf_inv.1380.clone.1, %erf_inv.1373.clone.1), metadata={op_name="jit(optimized_compute)/jit(_normal)/jit(_normal_real)/erf_inv" stack_frame_id=22}
  %erf_inv.1371.clone.1 = f32[10,4096,16,128]{3,1,2,0:T(8,128)} multiply(%erf_inv.1372.clone.1, %erf_inv.1376.clone.1), metadata={op_name="jit(optimized_compute)/jit(_normal)/jit(_normal_real)/erf_inv" stack_frame_id=22}
  %erf_inv.1370.clone.1 = f32[10,4096,16,128]{3,1,2,0:T(8,128)} add(%erf_inv.1381.clone.1, %erf_inv.1371.clone.1), metadata={op_name="jit(optimized_compute)/jit(_normal)/jit(_normal_real)/erf_inv" stack_frame_id=22}
  %erf_inv.1369.clone.1 = f32[10,4096,16,128]{3,1,2,0:T(8,128)} multiply(%erf_inv.1370.clone.1, %erf_inv.1376.clone.1), metadata={op_name="jit(optimized_compute)/jit(_normal)/jit(_normal_real)/erf_inv" stack_frame_id=22}
  %erf_inv.1368.clone.1 = f32[10,4096,16,128]{3,1,2,0:T(8,128)} add(%erf_inv.1382.clone.1, %erf_inv.1369.clone.1), metadata={op_name="jit(optimized_compute)/jit(_normal)/jit(_normal_real)/erf_inv" stack_frame_id=22}
  %erf_inv.1367.clone.1 = f32[10,4096,16,128]{3,1,2,0:T(8,128)} multiply(%erf_inv.1368.clone.1, %erf_inv.1376.clone.1), metadata={op_name="jit(optimized_compute)/jit(_normal)/jit(_normal_real)/erf_inv" stack_frame_id=22}
  %erf_inv.1366.clone.1 = f32[10,4096,16,128]{3,1,2,0:T(8,128)} add(%erf_inv.1383.clone.1, %erf_inv.1367.clone.1), metadata={op_name="jit(optimized_compute)/jit(_normal)/jit(_normal_real)/erf_inv" stack_frame_id=22}
  %erf_inv.1365.clone.1 = f32[10,4096,16,128]{3,1,2,0:T(8,128)} multiply(%erf_inv.1366.clone.1, %erf_inv.1376.clone.1), metadata={op_name="jit(optimized_compute)/jit(_normal)/jit(_normal_real)/erf_inv" stack_frame_id=22}
  %erf_inv.1364.clone.1 = f32[10,4096,16,128]{3,1,2,0:T(8,128)} add(%erf_inv.1384.clone.1, %erf_inv.1365.clone.1), metadata={op_name="jit(optimized_compute)/jit(_normal)/jit(_normal_real)/erf_inv" stack_frame_id=22}
  %erf_inv.1363.clone.1 = f32[10,4096,16,128]{3,1,2,0:T(8,128)} multiply(%erf_inv.1364.clone.1, %erf_inv.1376.clone.1), metadata={op_name="jit(optimized_compute)/jit(_normal)/jit(_normal_real)/erf_inv" stack_frame_id=22}
  %erf_inv.1362.clone.1 = f32[10,4096,16,128]{3,1,2,0:T(8,128)} add(%erf_inv.1385.clone.1, %erf_inv.1363.clone.1), metadata={op_name="jit(optimized_compute)/jit(_normal)/jit(_normal_real)/erf_inv" stack_frame_id=22}
  %erf_inv.1361.clone.1 = f32[10,4096,16,128]{3,1,2,0:T(8,128)} multiply(%erf_inv.1362.clone.1, %erf_inv.1376.clone.1), metadata={op_name="jit(optimized_compute)/jit(_normal)/jit(_normal_real)/erf_inv" stack_frame_id=22}
  %erf_inv.1360.clone.1 = f32[10,4096,16,128]{3,1,2,0:T(8,128)} add(%erf_inv.1386.clone.1, %erf_inv.1361.clone.1), metadata={op_name="jit(optimized_compute)/jit(_normal)/jit(_normal_real)/erf_inv" stack_frame_id=22}
  %erf_inv.1359.clone.1 = f32[10,4096,16,128]{3,1,2,0:T(8,128)} multiply(%erf_inv.1360.clone.1, %erf_inv.1395.clone.1), metadata={op_name="jit(optimized_compute)/jit(_normal)/jit(_normal_real)/erf_inv" stack_frame_id=22}
  %erf_inv.1358.clone.1 = f32[10,4096,16,128]{3,1,2,0:T(8,128)} select(%erf_inv.1393.clone.1, %erf_inv.1392.clone.1, %erf_inv.1359.clone.1), metadata={op_name="jit(optimized_compute)/jit(_normal)/jit(_normal_real)/erf_inv" stack_frame_id=22}
  %erf_inv.1357.clone.1 = bf16[10,4096,16,128]{3,1,2,0:T(8,128)(2,1)} convert(%erf_inv.1358.clone.1), metadata={op_name="jit(optimized_compute)/jit(_normal)/jit(_normal_real)/erf_inv" stack_frame_id=22}
  %convert.24 = f32[10,4096,16,128]{3,1,2,0:T(8,128)} convert(%erf_inv.1357.clone.1)
…
  %add.2287 = u32[16]{0:T(128)} add(%add.2288, %add.2325), metadata={op_name="jit(optimized_compute)/jit(_normal)/jit(_normal_real)/jit(_uniform)/add" stack_frame_id=25}
  %shift_left.1114 = u32[16]{0:T(128)} shift-left(%xor.1148, %broadcast.1980), metadata={op_name="jit(optimized_compute)/jit(_normal)/jit(_normal_real)/jit(_uniform)/shift_left" stack_frame_id=25}
  %shift_right_logical.1135 = u32[16]{0:T(128)} shift-right-logical(%xor.1148, %broadcast.1981), metadata={op_name="jit(optimized_compute)/jit(_normal)/jit(_normal_real)/jit(_uniform)/shift_right_logical" stack_frame_id=25}
  %or.1157 = u32[16]{0:T(128)} or(%shift_left.1114, %shift_right_logical.1135), metadata={op_name="jit(optimized_compute)/jit(_normal)/jit(_normal_real)/jit(_uniform)/or" stack_frame_id=25}
  %xor.1147 = u32[16]{0:T(128)} xor(%add.2288, %or.1157), metadata={op_name="jit(optimized_compute)/jit(_normal)/jit(_normal_real)/jit(_uniform)/xor" stack_frame_id=25}
  %add.2286 = u32[16]{0:T(128)} add(%xor.1147, %broadcast.1943), metadata={op_name="jit(optimized_compute)/jit(_normal)/jit(_normal_real)/jit(_uniform)/add" stack_frame_id=25}
  %constant.800 = u32[]{:T(128)} constant(5), metadata={op_name="jit(optimized_compute)/jit(_threefry_split)/_make_test_data" stack_frame_id=38}
  %broadcast.1972 = u32[16]{0:T(128)} broadcast(%constant.800), dimensions={}, metadata={op_name="jit(optimized_compute)/jit(_normal)/jit(_normal_real)/jit(_uniform)" stack_frame_id=25}
  %add.2285 = u32[16]{0:T(128)} add(%add.2286, %broadcast.1972), metadata={op_name="jit(optimized_compute)/jit(_normal)/jit(_normal_real)/jit(_uniform)/add" stack_frame_id=25}
  %xor.1146 = u32[16]{0:T(128)} xor(%add.2287, %add.2285), metadata={op_name="jit(optimized_compute)/jit(_normal)/jit(_normal_real)/jit(_uniform)/xor" stack_frame_id=25}
  %constant.795 = u32[]{:T(128)} constant(9), metadata={op_name="jit(optimized_compute)/jit(_normal)/jit(_normal_real)/jit(_uniform)" stack_frame_id=25}
  %broadcast.1971 = u32[16]{0:T(128)} broadcast(%constant.795), dimensions={}, metadata={op_name="jit(optimized_compute)/jit(_normal)/jit(_normal_real)/jit(_uniform)" stack_frame_id=25}
  %shift_right_logical.1134 = u32[16]{0:T(128)} shift-right-logical(%xor.1146, %broadcast.1971), metadata={op_name="jit(optimized_compute)/jit(_normal)/jit(_normal_real)/jit(_uniform)/shift_right_logical" stack_frame_id=25}
  %constant.794 = u32[]{:T(128)} constant(1065353216), metadata={op_name="jit(optimized_compute)/jit(_normal)/jit(_normal_real)/jit(_uniform)" stack_frame_id=25}
  %broadcast.1970 = u32[16]{0:T(128)} broadcast(%constant.794), dimensions={}, metadata={op_name="jit(optimized_compute)/jit(_normal)/jit(_normal_real)/jit(_uniform)" stack_frame_id=25}
  %or.1156 = u32[16]{0:T(128)} or(%shift_right_logical.1134, %broadcast.1970), metadata={op_name="jit(optimized_compute)/jit(_normal)/jit(_normal_real)/jit(_uniform)/or" stack_frame_id=25}
  %bitcast_convert_type.10 = f32[16]{0:T(128)} bitcast-convert(%or.1156), metadata={op_name="jit(optimized_compute)/jit(_normal)/jit(_normal_real)/jit(_uniform)/bitcast_convert_type" stack_frame_id=25}
  %constant.701 = f32[]{:T(128)} constant(-1), metadata={op_name="jit(optimized_compute)/jit(_normal)/jit(_normal_real)/jit(_uniform)" stack_frame_id=25}
  %broadcast.1946 = f32[16]{0:T(128)} broadcast(%constant.701), dimensions={}, metadata={op_name="jit(optimized_compute)/jit(_normal)/jit(_normal_real)/jit(_uniform)" stack_frame_id=25}
  %add.2284 = f32[16]{0:T(128)} add(%bitcast_convert_type.10, %broadcast.1946), metadata={op_name="jit(optimized_compute)/jit(_normal)/jit(_normal_real)/jit(_uniform)/sub" stack_frame_id=25}
  %constant.700 = f32[]{:T(128)} constant(2), metadata={op_name="jit(optimized_compute)/jit(_normal)/jit(_normal_real)/jit(_uniform)/mul" stack_frame_id=25}
  %mul.67 = f32[16]{0:T(128)} broadcast(%constant.700), dimensions={}, metadata={op_name="jit(optimized_compute)/jit(_normal)/jit(_normal_real)/jit(_uniform)/mul" stack_frame_id=25}
  %mul.66 = f32[16]{0:T(128)} multiply(%add.2284, %mul.67), metadata={op_name="jit(optimized_compute)/jit(_normal)/jit(_normal_real)/jit(_uniform)/mul" stack_frame_id=25}
  %add.2283 = f32[16]{0:T(128)} add(%mul.66, %max.29), metadata={op_name="jit(optimized_compute)/jit(_normal)/jit(_normal_real)/jit(_uniform)/add" stack_frame_id=25}
  %max.28 = f32[16]{0:T(128)} maximum(%max.29, %add.2283), metadata={op_name="jit(optimized_compute)/jit(_normal)/jit(_normal_real)/jit(_uniform)/max" stack_frame_id=25}
  %erf_inv.1603 = f32[16]{0:T(128)} abs(%max.28), metadata={op_name="jit(optimized_compute)/jit(_normal)/jit(_normal_real)/erf_inv" stack_frame_id=25}
  %constant.793 = f32[]{:T(128)} constant(1), metadata={op_name="jit(optimized_compute)/jit(_normal)/jit(_normal_real)/jit(_uniform)" stack_frame_id=25}
  %broadcast.1969 = f32[16]{0:T(128)} broadcast(%constant.793), dimensions={}, metadata={op_name="jit(optimized_compute)/jit(_normal)/jit(_normal_real)/jit(_uniform)" stack_frame_id=25}
  %erf_inv.1602 = pred[16]{0:T(512)(128)(4,1)} compare(%erf_inv.1603, %broadcast.1969), direction=EQ, metadata={op_name="jit(optimized_compute)/jit(_normal)/jit(_normal_real)/erf_inv" stack_frame_id=25}
  %constant.789 = f32[]{:T(128)} constant(inf), metadata={op_name="jit(optimized_compute)/jit(_normal)/jit(_normal_real)" stack_frame_id=25}
  %broadcast.1968 = f32[16]{0:T(128)} broadcast(%constant.789), dimensions={}, metadata={op_name="jit(optimized_compute)/jit(_normal)/jit(_normal_real)" stack_frame_id=25}
  %erf_inv.1601 = f32[16]{0:T(128)} multiply(%max.28, %broadcast.1968), metadata={op_name="jit(optimized_compute)/jit(_normal)/jit(_normal_real)/erf_inv" stack_frame_id=25}
  %erf_inv.1600 = f32[16]{0:T(128)} negate(%max.28), metadata={op_name="jit(optimized_compute)/jit(_normal)/jit(_normal_real)/erf_inv" stack_frame_id=25}
  %erf_inv.1599 = f32[16]{0:T(128)} multiply(%max.28, %erf_inv.1600), metadata={op_name="jit(optimized_compute)/jit(_normal)/jit(_normal_real)/erf_inv" stack_frame_id=25}
  %erf_inv.1598 = f32[16]{0:T(128)} log-plus-one(%erf_inv.1599), metadata={op_name="jit(optimized_compute)/jit(_normal)/jit(_normal_real)/erf_inv" stack_frame_id=25}
  %erf_inv.1597 = f32[16]{0:T(128)} negate(%erf_inv.1598), metadata={op_name="jit(optimized_compute)/jit(_normal)/jit(_normal_real)/erf_inv" stack_frame_id=25}
  %constant.785 = f32[]{:T(128)} constant(5), metadata={op_name="jit(optimized_compute)/jit(_normal)/jit(_normal_real)" stack_frame_id=25}
  %broadcast.1967 = f32[16]{0:T(128)} broadcast(%constant.785), dimensions={}, metadata={op_name="jit(optimized_compute)/jit(_normal)/jit(_normal_real)" stack_frame_id=25}
  %erf_inv.1596 = pred[16]{0:T(512)(128)(4,1)} compare(%erf_inv.1597, %broadcast.1967), direction=LT, metadata={op_name="jit(optimized_compute)/jit(_normal)/jit(_normal_real)/erf_inv" stack_frame_id=25}
  %constant.781 = f32[]{:T(128)} constant(1.50140941), metadata={op_name="jit(optimized_compute)/jit(_normal)/jit(_normal_real)" stack_frame_id=25}
  %broadcast.1966 = f32[16]{0:T(128)} broadcast(%constant.781), dimensions={}, metadata={op_name="jit(optimized_compute)/jit(_normal)/jit(_normal_real)" stack_frame_id=25}
  %constant.777 = f32[]{:T(128)} constant(2.83297682), metadata={op_name="jit(optimized_compute)/jit(_normal)/jit(_normal_real)" stack_frame_id=25}
  %broadcast.1965 = f32[16]{0:T(128)} broadcast(%constant.777), dimensions={}, metadata={op_name="jit(optimized_compute)/jit(_normal)/jit(_normal_real)" stack_frame_id=25}
  %erf_inv.1595 = f32[16]{0:T(128)} select(%erf_inv.1596, %broadcast.1966, %broadcast.1965), metadata={op_name="jit(optimized_compute)/jit(_normal)/jit(_normal_real)/erf_inv" stack_frame_id=25}
  %constant.773 = f32[]{:T(128)} constant(0.246640727), metadata={op_name="jit(optimized_compute)/jit(_normal)/jit(_normal_real)" stack_frame_id=25}
  %broadcast.1964 = f32[16]{0:T(128)} broadcast(%constant.773), dimensions={}, metadata={op_name="jit(optimized_compute)/jit(_normal)/jit(_normal_real)" stack_frame_id=25}
  %constant.769 = f32[]{:T(128)} constant(1.00167406), metadata={op_name="jit(optimized_compute)/jit(_normal)/jit(_normal_real)" stack_frame_id=25}
  %broadcast.1963 = f32[16]{0:T(128)} broadcast(%constant.769), dimensions={}, metadata={op_name="jit(optimized_compute)/jit(_normal)/jit(_normal_real)" stack_frame_id=25}
  %erf_inv.1594 = f32[16]{0:T(128)} select(%erf_inv.1596, %broadcast.1964, %broadcast.1963), metadata={op_name="jit(optimized_compute)/jit(_normal)/jit(_normal_real)/erf_inv" stack_frame_id=25}
  %constant.765 = f32[]{:T(128)} constant(-0.00417768164), metadata={op_name="jit(optimized_compute)/jit(_normal)/jit(_normal_real)" stack_frame_id=25}
  %broadcast.1962 = f32[16]{0:T(128)} broadcast(%constant.765), dimensions={}, metadata={op_name="jit(optimized_compute)/jit(_normal)/jit(_normal_real)" stack_frame_id=25}
  %constant.761 = f32[]{:T(128)} constant(0.00943887047), metadata={op_name="jit(optimized_compute)/jit(_normal)/jit(_normal_real)" stack_frame_id=25}
  %broadcast.1961 = f32[16]{0:T(128)} broadcast(%constant.761), dimensions={}, metadata={op_name="jit(optimized_compute)/jit(_normal)/jit(_normal_real)" stack_frame_id=25}
  %erf_inv.1593 = f32[16]{0:T(128)} select(%erf_inv.1596, %broadcast.1962, %broadcast.1961), metadata={op_name="jit(optimized_compute)/jit(_normal)/jit(_normal_real)/erf_inv" stack_frame_id=25}
  %constant.757 = f32[]{:T(128)} constant(-0.00125372503), metadata={op_name="jit(optimized_compute)/jit(_normal)/jit(_normal_real)" stack_frame_id=25}
  %broadcast.1960 = f32[16]{0:T(128)} broadcast(%constant.757), dimensions={}, metadata={op_name="jit(optimized_compute)/jit(_normal)/jit(_normal_real)" stack_frame_id=25}
  %constant.753 = f32[]{:T(128)} constant(-0.0076224613), metadata={op_name="jit(optimized_compute)/jit(_normal)/jit(_normal_real)" stack_frame_id=25}
  %broadcast.1959 = f32[16]{0:T(128)} broadcast(%constant.753), dimensions={}, metadata={op_name="jit(optimized_compute)/jit(_normal)/jit(_normal_real)" stack_frame_id=25}
  %erf_inv.1592 = f32[16]{0:T(128)} select(%erf_inv.1596, %broadcast.1960, %broadcast.1959), metadata={op_name="jit(optimized_compute)/jit(_normal)/jit(_normal_real)/erf_inv" stack_frame_id=25}
  %constant.749 = f32[]{:T(128)} constant(0.00021858087), metadata={op_name="jit(optimized_compute)/jit(_normal)/jit(_normal_real)" stack_frame_id=25}
  %broadcast.1958 = f32[16]{0:T(128)} broadcast(%constant.749), dimensions={}, metadata={op_name="jit(optimized_compute)/jit(_normal)/jit(_normal_real)" stack_frame_id=25}
  %constant.745 = f32[]{:T(128)} constant(0.00573950773), metadata={op_name="jit(optimized_compute)/jit(_normal)/jit(_normal_real)" stack_frame_id=25}
  %broadcast.1957 = f32[16]{0:T(128)} broadcast(%constant.745), dimensions={}, metadata={op_name="jit(optimized_compute)/jit(_normal)/jit(_normal_real)" stack_frame_id=25}
  %erf_inv.1591 = f32[16]{0:T(128)} select(%erf_inv.1596, %broadcast.1958, %broadcast.1957), metadata={op_name="jit(optimized_compute)/jit(_normal)/jit(_normal_real)/erf_inv" stack_frame_id=25}
  %constant.741 = f32[]{:T(128)} constant(-4.39150654e-06), metadata={op_name="jit(optimized_compute)/jit(_normal)/jit(_normal_real)" stack_frame_id=25}
  %broadcast.1956 = f32[16]{0:T(128)} broadcast(%constant.741), dimensions={}, metadata={op_name="jit(optimized_compute)/jit(_normal)/jit(_normal_real)" stack_frame_id=25}
  %constant.737 = f32[]{:T(128)} constant(-0.00367342844), metadata={op_name="jit(optimized_compute)/jit(_normal)/jit(_normal_real)" stack_frame_id=25}
  %broadcast.1955 = f32[16]{0:T(128)} broadcast(%constant.737), dimensions={}, metadata={op_name="jit(optimized_compute)/jit(_normal)/jit(_normal_real)" stack_frame_id=25}
  %erf_inv.1590 = f32[16]{0:T(128)} select(%erf_inv.1596, %broadcast.1956, %broadcast.1955), metadata={op_name="jit(optimized_compute)/jit(_normal)/jit(_normal_real)/erf_inv" stack_frame_id=25}
  %constant.733 = f32[]{:T(128)} constant(-3.5233877e-06), metadata={op_name="jit(optimized_compute)/jit(_normal)/jit(_normal_real)" stack_frame_id=25}
  %broadcast.1954 = f32[16]{0:T(128)} broadcast(%constant.733), dimensions={}, metadata={op_name="jit(optimized_compute)/jit(_normal)/jit(_normal_real)" stack_frame_id=25}
  %constant.729 = f32[]{:T(128)} constant(0.00134934322), metadata={op_name="jit(optimized_compute)/jit(_normal)/jit(_normal_real)" stack_frame_id=25}
  %broadcast.1953 = f32[16]{0:T(128)} broadcast(%constant.729), dimensions={}, metadata={op_name="jit(optimized_compute)/jit(_normal)/jit(_normal_real)" stack_frame_id=25}
  %erf_inv.1589 = f32[16]{0:T(128)} select(%erf_inv.1596, %broadcast.1954, %broadcast.1953), metadata={op_name="jit(optimized_compute)/jit(_normal)/jit(_normal_real)/erf_inv" stack_frame_id=25}
  %constant.725 = f32[]{:T(128)} constant(3.43273939e-07), metadata={op_name="jit(optimized_compute)/jit(_normal)/jit(_normal_real)" stack_frame_id=25}
  %broadcast.1952 = f32[16]{0:T(128)} broadcast(%constant.725), dimensions={}, metadata={op_name="jit(optimized_compute)/jit(_normal)/jit(_normal_real)" stack_frame_id=25}
  %constant.721 = f32[]{:T(128)} constant(0.000100950558), metadata={op_name="jit(optimized_compute)/jit(_normal)/jit(_normal_real)" stack_frame_id=25}
  %broadcast.1951 = f32[16]{0:T(128)} broadcast(%constant.721), dimensions={}, metadata={op_name="jit(optimized_compute)/jit(_normal)/jit(_normal_real)" stack_frame_id=25}
  %erf_inv.1588 = f32[16]{0:T(128)} select(%erf_inv.1596, %broadcast.1952, %broadcast.1951), metadata={op_name="jit(optimized_compute)/jit(_normal)/jit(_normal_real)/erf_inv" stack_frame_id=25}
  %constant.717 = f32[]{:T(128)} constant(2.81022636e-08), metadata={op_name="jit(optimized_compute)/jit(_normal)/jit(_normal_real)" stack_frame_id=25}
  %broadcast.1950 = f32[16]{0:T(128)} broadcast(%constant.717), dimensions={}, metadata={op_name="jit(optimized_compute)/jit(_normal)/jit(_normal_real)" stack_frame_id=25}
  %constant.713 = f32[]{:T(128)} constant(-0.000200214257), metadata={op_name="jit(optimized_compute)/jit(_normal)/jit(_normal_real)" stack_frame_id=25}
  %broadcast.1949 = f32[16]{0:T(128)} broadcast(%constant.713), dimensions={}, metadata={op_name="jit(optimized_compute)/jit(_normal)/jit(_normal_real)" stack_frame_id=25}
  %erf_inv.1587 = f32[16]{0:T(128)} select(%erf_inv.1596, %broadcast.1950, %broadcast.1949), metadata={op_name="jit(optimized_compute)/jit(_normal)/jit(_normal_real)/erf_inv" stack_frame_id=25}
  %constant.699 = f32[]{:T(128)} constant(-2.5), metadata={op_name="jit(optimized_compute)/jit(_normal)/jit(_normal_real)" stack_frame_id=25}
  %broadcast.1945 = f32[16]{0:T(128)} broadcast(%constant.699), dimensions={}, metadata={op_name="jit(optimized_compute)/jit(_normal)/jit(_normal_real)" stack_frame_id=25}
  %add.2282 = f32[16]{0:T(128)} add(%erf_inv.1597, %broadcast.1945), metadata={op_name="jit(optimized_compute)/jit(_normal)/jit(_normal_real)/erf_inv" stack_frame_id=25}
  %erf_inv.1586 = f32[16]{0:T(128)} sqrt(%erf_inv.1597), metadata={op_name="jit(optimized_compute)/jit(_normal)/jit(_normal_real)/erf_inv" stack_frame_id=25}
  %constant.695 = f32[]{:T(128)} constant(-3), metadata={op_name="jit(optimized_compute)/jit(_normal)/jit(_normal_real)" stack_frame_id=25}
  %broadcast.1944 = f32[16]{0:T(128)} broadcast(%constant.695), dimensions={}, metadata={op_name="jit(optimized_compute)/jit(_normal)/jit(_normal_real)" stack_frame_id=25}
  %add.2281 = f32[16]{0:T(128)} add(%erf_inv.1586, %broadcast.1944), metadata={op_name="jit(optimized_compute)/jit(_normal)/jit(_normal_real)/erf_inv" stack_frame_id=25}
  %erf_inv.1585 = f32[16]{0:T(128)} select(%erf_inv.1596, %add.2282, %add.2281), metadata={op_name="jit(optimized_compute)/jit(_normal)/jit(_normal_real)/erf_inv" stack_frame_id=25}
  %erf_inv.1584 = f32[16]{0:T(128)} multiply(%erf_inv.1587, %erf_inv.1585), metadata={op_name="jit(optimized_compute)/jit(_normal)/jit(_normal_real)/erf_inv" stack_frame_id=25}
  %erf_inv.1583 = f32[16]{0:T(128)} add(%erf_inv.1588, %erf_inv.1584), metadata={op_name="jit(optimized_compute)/jit(_normal)/jit(_normal_real)/erf_inv" stack_frame_id=25}
  %erf_inv.1582 = f32[16]{0:T(128)} multiply(%erf_inv.1583, %erf_inv.1585), metadata={op_name="jit(optimized_compute)/jit(_normal)/jit(_normal_real)/erf_inv" stack_frame_id=25}
  %erf_inv.1581 = f32[16]{0:T(128)} add(%erf_inv.1589, %erf_inv.1582), metadata={op_name="jit(optimized_compute)/jit(_normal)/jit(_normal_real)/erf_inv" stack_frame_id=25}
  %erf_inv.1580 = f32[16]{0:T(128)} multiply(%erf_inv.1581, %erf_inv.1585), metadata={op_name="jit(optimized_compute)/jit(_normal)/jit(_normal_real)/erf_inv" stack_frame_id=25}
  %erf_inv.1579 = f32[16]{0:T(128)} add(%erf_inv.1590, %erf_inv.1580), metadata={op_name="jit(optimized_compute)/jit(_normal)/jit(_normal_real)/erf_inv" stack_frame_id=25}
  %erf_inv.1578 = f32[16]{0:T(128)} multiply(%erf_inv.1579, %erf_inv.1585), metadata={op_name="jit(optimized_compute)/jit(_normal)/jit(_normal_real)/erf_inv" stack_frame_id=25}
  %erf_inv.1577 = f32[16]{0:T(128)} add(%erf_inv.1591, %erf_inv.1578), metadata={op_name="jit(optimized_compute)/jit(_normal)/jit(_normal_real)/erf_inv" stack_frame_id=25}
  %erf_inv.1576 = f32[16]{0:T(128)} multiply(%erf_inv.1577, %erf_inv.1585), metadata={op_name="jit(optimized_compute)/jit(_normal)/jit(_normal_real)/erf_inv" stack_frame_id=25}
  %erf_inv.1575 = f32[16]{0:T(128)} add(%erf_inv.1592, %erf_inv.1576), metadata={op_name="jit(optimized_compute)/jit(_normal)/jit(_normal_real)/erf_inv" stack_frame_id=25}
  %erf_inv.1574 = f32[16]{0:T(128)} multiply(%erf_inv.1575, %erf_inv.1585), metadata={op_name="jit(optimized_compute)/jit(_normal)/jit(_normal_real)/erf_inv" stack_frame_id=25}
  %erf_inv.1573 = f32[16]{0:T(128)} add(%erf_inv.1593, %erf_inv.1574), metadata={op_name="jit(optimized_compute)/jit(_normal)/jit(_normal_real)/erf_inv" stack_frame_id=25}
  %erf_inv.1572 = f32[16]{0:T(128)} multiply(%erf_inv.1573, %erf_inv.1585), metadata={op_name="jit(optimized_compute)/jit(_normal)/jit(_normal_real)/erf_inv" stack_frame_id=25}
  %erf_inv.1571 = f32[16]{0:T(128)} add(%erf_inv.1594, %erf_inv.1572), metadata={op_name="jit(optimized_compute)/jit(_normal)/jit(_normal_real)/erf_inv" stack_frame_id=25}
  %erf_inv.1570 = f32[16]{0:T(128)} multiply(%erf_inv.1571, %erf_inv.1585), metadata={op_name="jit(optimized_compute)/jit(_normal)/jit(_normal_real)/erf_inv" stack_frame_id=25}
  %erf_inv.1569 = f32[16]{0:T(128)} add(%erf_inv.1595, %erf_inv.1570), metadata={op_name="jit(optimized_compute)/jit(_normal)/jit(_normal_real)/erf_inv" stack_frame_id=25}
  %erf_inv.1568 = f32[16]{0:T(128)} multiply(%erf_inv.1569, %max.28), metadata={op_name="jit(optimized_compute)/jit(_normal)/jit(_normal_real)/erf_inv" stack_frame_id=25}
  %erf_inv.1567 = f32[16]{0:T(128)} select(%erf_inv.1602, %erf_inv.1601, %erf_inv.1568), metadata={op_name="jit(optimized_compute)/jit(_normal)/jit(_normal_real)/erf_inv" stack_frame_id=25}
  %constant.709 = f32[]{:T(128)} constant(1.41421354), metadata={op_name="jit(optimized_compute)/jit(_normal)/jit(_normal_real)" stack_frame_id=25}
  %broadcast.1948 = f32[16]{0:T(128)} broadcast(%constant.709), dimensions={}, metadata={op_name="jit(optimized_compute)/jit(_normal)/jit(_normal_real)" stack_frame_id=25}
  %mul.65 = f32[16]{0:T(128)} multiply(%erf_inv.1567, %broadcast.1948), metadata={op_name="jit(optimized_compute)/jit(_normal)/jit(_normal_real)/mul" stack_frame_id=25}
  %abs.0 = f32[16]{0:T(128)} abs(%mul.65), metadata={op_name="jit(optimized_compute)/abs" stack_frame_id=26}
  %neg.0 = f32[16]{0:T(128)} negate(%abs.0), metadata={op_name="jit(optimized_compute)/neg" stack_frame_id=27}
  %constant.708 = f32[]{:T(128)} constant(0.1)
  %broadcast.1947 = f32[16]{0:T(128)} broadcast(%constant.708), dimensions={}
  ROOT %mul.60 = f32[16]{0:T(128)} multiply(%neg.0, %broadcast.1947), metadata={op_name="jit(optimized_compute)/mul" stack_frame_id=27}
}

%fused_computation.135 (param_0.511: u32[4,2]) -> (u32[2], u32[2], u32[2], u32[2]) {
  %param_0.511 = u32[4,2]{1,0:T(4,128)S(1)} parameter(0)
  %slice.15 = u32[1,2]{1,0:T(1,128)} slice(%param_0.511), slice={[3:4], [0:2]}, metadata={op_name="jit(optimized_compute)/slice" stack_frame_id=21}
  %bitcast.18 = u32[2]{0:T(128)S(1)} bitcast(%slice.15), metadata={op_name="jit(optimized_compute)/squeeze" stack_frame_id=21}
  %slice.22.clone.1 = u32[1,2]{1,0:T(1,128)} slice(%param_0.511), slice={[2:3], [0:2]}, metadata={op_name="jit(optimized_compute)/slice" stack_frame_id=21}
  %bitcast.19.clone.1 = u32[2]{0:T(128)S(1)} bitcast(%slice.22.clone.1), metadata={op_name="jit(optimized_compute)/squeeze" stack_frame_id=21}
  %slice.23.clone.1 = u32[1,2]{1,0:T(1,128)} slice(%param_0.511), slice={[1:2], [0:2]}, metadata={op_name="jit(optimized_compute)/slice" stack_frame_id=21}
  %bitcast.20.clone.1 = u32[2]{0:T(128)S(1)} bitcast(%slice.23.clone.1), metadata={op_name="jit(optimized_compute)/squeeze" stack_frame_id=21}
  %slice.24.clone.1 = u32[1,2]{1,0:T(1,128)} slice(%param_0.511), slice={[0:1], [0:2]}, metadata={op_name="jit(optimized_compute)/slice" stack_frame_id=21}
  %bitcast.21.clone.1 = u32[2]{0:T(128)S(1)} bitcast(%slice.24.clone.1), metadata={op_name="jit(optimized_compute)/squeeze" stack_frame_id=21}
  ROOT %tuple.44 = (u32[2]{0:T(128)S(1)}, u32[2]{0:T(128)S(1)}, u32[2]{0:T(128)S(1)}, u32[2]{0:T(128)S(1)}) tuple(%bitcast.18, %bitcast.19.clone.1, %bitcast.20.clone.1, %bitcast.21.clone.1)
}

%fused_computation.140 (param_0.676: u32[2]) -> (u32[1], u32[1]) {
  %param_0.676 = u32[2]{0:T(128)S(1)} parameter(0)
  %slice.25 = u32[1]{0:T(128)} slice(%param_0.676), slice={[1:2]}, metadata={op_name="jit(optimized_compute)/jit(_normal)/jit(_normal_real)/jit(_uniform)/slice" stack_frame_id=24}
  %slice.26 = u32[1]{0:T(128)} slice(%param_0.676), slice={[0:1]}, metadata={op_name="jit(optimized_compute)/jit(_normal)/jit(_normal_real)/jit(_uniform)/slice" stack_frame_id=24}
  ROOT %tuple.45 = (u32[1]{0:T(128)}, u32[1]{0:T(128)}) tuple(%slice.25, %slice.26)
}

%fused_computation.141 (param_0.677: u32[2]) -> (u32[1], u32[1]) {
  %param_0.677 = u32[2]{0:T(128)S(1)} parameter(0)
  %slice.27 = u32[1]{0:T(128)} slice(%param_0.677), slice={[1:2]}, metadata={op_name="jit(optimized_compute)/jit(_normal)/jit(_normal_real)/jit(_uniform)/slice" stack_frame_id=23}
  %slice.28 = u32[1]{0:T(128)} slice(%param_0.677), slice={[0:1]}, metadata={op_name="jit(optimized_compute)/jit(_normal)/jit(_normal_real)/jit(_uniform)/slice" stack_frame_id=23}
  ROOT %tuple.46 = (u32[1]{0:T(128)}, u32[1]{0:T(128)}) tuple(%slice.27, %slice.28)
}

%fused_computation.142 (param_0.678: u32[2]) -> (u32[1], u32[1]) {
  %param_0.678 = u32[2]{0:T(128)S(1)} parameter(0)
  %slice.29 = u32[1]{0:T(128)} slice(%param_0.678), slice={[1:2]}, metadata={op_name="jit(optimized_compute)/jit(_normal)/jit(_normal_real)/jit(_uniform)/slice" stack_frame_id=22}
  %slice.30 = u32[1]{0:T(128)} slice(%param_0.678), slice={[0:1]}, metadata={op_name="jit(optimized_compute)/jit(_normal)/jit(_normal_real)/jit(_uniform)/slice" stack_frame_id=22}
  ROOT %tuple.47 = (u32[1]{0:T(128)}, u32[1]{0:T(128)}) tuple(%slice.29, %slice.30)
}

ENTRY %main.14 () -> f32[] {
  %constant.312 = u32[]{:T(128)} constant(466688986), metadata={op_name="jit(optimized_compute)/jit(_threefry_split)/_make_test_data" stack_frame_id=38}, backend_config={"flag_configs":[],"scoped_memory_configs":[{"memory_space":"1","offset":"0","size":"0"}],"used_scoped_memory_configs":[]}
  %shift-right-logical_add_fusion = (u32[16]{0:T(128)S(1)}, u32[16]{0:T(128)S(1)}) fusion(), kind=kLoop, calls=%fused_computation.126, metadata={op_name="jit(optimized_compute)/jit(_normal)/jit(_normal_real)/jit(_uniform)/iota_2x32_shape" stack_frame_id=22}, backend_config={"flag_configs":[],"window_config":{"kernel_window_bounds":[],"output_window_bounds":["1"],"input_window_bounds":[],"estimated_cycles":"2301","iteration_bounds":["1"],"cost_model_type":"COST_MODEL_TYPE_INVALID","ml_estimated_microseconds":0,"is_mask":false,"pad_output_on_minor_dim":"0","pad_input_on_minor_dim":"0","estimated_vmem_bytes":"0","estimated_bundle_count":"0","estimated_scoped_vmem_bytes":"0"},"scoped_memory_configs":[{"memory_space":"1","offset":"0","size":"5872027"}],"used_scoped_memory_configs":[{"memory_space":"1","offset":"0","size":"0"}],"retry_config":{"retry_count":"0"},"fusion_formation_source":{"fusion_creating_compiler_pass":"TpuAdvancedMOF","fusion_id":"42"},"aliasing_operands":{"lists":[]}}
  %get-tuple-element.24 = u32[16]{0:T(128)S(1)} get-tuple-element(%shift-right-logical_add_fusion), index=1, metadata={op_name="jit(optimized_compute)/jit(_normal)/jit(_normal_real)/jit(_uniform)/iota_2x32_shape" stack_frame_id=22}, backend_config={"flag_configs":[],"scoped_memory_configs":[{"memory_space":"1","offset":"0","size":"0"}],"used_scoped_memory_configs":[]}
  %get-tuple-element.23 = u32[16]{0:T(128)S(1)} get-tuple-element(%shift-right-logical_add_fusion), index=0, metadata={op_name="jit(optimized_compute)/jit(_normal)/jit(_normal_real)/jit(_uniform)/iota_2x32_shape" stack_frame_id=22}, backend_config={"flag_configs":[],"scoped_memory_configs":[{"memory_space":"1","offset":"0","size":"0"}],"used_scoped_memory_configs":[]}
  %fusion.59 = (u32[10]{0:T(128)S(1)}, u32[10]{0:T(128)S(1)}) fusion(), kind=kLoop, calls=%fused_computation.121, metadata={op_name="jit(optimized_compute)/jit(_normal)/jit(_normal_real)/jit(_uniform)/iota_2x32_shape" stack_frame_id=22}, backend_config={"flag_configs":[],"window_config":{"kernel_window_bounds":[],"output_window_bounds":["1"],"input_window_bounds":[],"estimated_cycles":"2299","iteration_bounds":["1"],"cost_model_type":"COST_MODEL_TYPE_INVALID","ml_estimated_microseconds":0,"is_mask":false,"pad_output_on_minor_dim":"0","pad_input_on_minor_dim":"0","estimated_vmem_bytes":"0","estimated_bundle_count":"0","estimated_scoped_vmem_bytes":"0"},"scoped_memory_configs":[{"memory_space":"1","offset":"0","size":"5872027"}],"used_scoped_memory_configs":[{"memory_space":"1","offset":"0","size":"0"}],"retry_config":{"retry_count":"0"},"fusion_formation_source":{"fusion_creating_compiler_pass":"TpuAdvancedMOF","fusion_id":"42"},"aliasing_operands":{"lists":[]}}
  %get-tuple-element.22 = u32[10]{0:T(128)S(1)} get-tuple-element(%fusion.59), index=1, metadata={op_name="jit(optimized_compute)/jit(_normal)/jit(_normal_real)/jit(_uniform)/iota_2x32_shape" stack_frame_id=22}, backend_config={"flag_configs":[],"scoped_memory_configs":[{"memory_space":"1","offset":"0","size":"0"}],"used_scoped_memory_configs":[]}
  %get-tuple-element.21 = u32[10]{0:T(128)S(1)} get-tuple-element(%fusion.59), index=0, metadata={op_name="jit(optimized_compute)/jit(_normal)/jit(_normal_real)/jit(_uniform)/iota_2x32_shape" stack_frame_id=22}, backend_config={"flag_configs":[],"scoped_memory_configs":[{"memory_space":"1","offset":"0","size":"0"}],"used_scoped_memory_configs":[]}
  %xor_add_fusion = (u32[4,1]{1,0:T(4,128)S(1)}, u32[4,1]{1,0:T(4,128)S(1)}) fusion(), kind=kLoop, calls=%fused_computation.79, metadata={op_name="jit(optimized_compute)/jit(_threefry_split)/_make_test_data/add" stack_frame_id=38}, backend_config={"flag_configs":[],"window_config":{"kernel_window_bounds":[],"output_window_bounds":["1","1"],"input_window_bounds":[],"estimated_cycles":"2325","iteration_bounds":["1","1"],"cost_model_type":"COST_MODEL_TYPE_INVALID","ml_estimated_microseconds":0,"is_mask":false,"pad_output_on_minor_dim":"0","pad_input_on_minor_dim":"0","estimated_vmem_bytes":"0","estimated_bundle_count":"0","estimated_scoped_vmem_bytes":"0"},"scoped_memory_configs":[{"memory_space":"1","offset":"0","size":"5872027"}],"used_scoped_memory_configs":[{"memory_space":"1","offset":"0","size":"0"}],"retry_config":{"retry_count":"0"},"fusion_formation_source":{"fusion_creating_compiler_pass":"TpuAdvancedMOF","fusion_id":"42"},"aliasing_operands":{"lists":[]}}
  %get-tuple-element.18 = u32[4,1]{1,0:T(4,128)S(1)} get-tuple-element(%xor_add_fusion), index=1, metadata={op_name="jit(optimized_compute)/jit(_threefry_split)/_make_test_data/add" stack_frame_id=38}, backend_config={"flag_configs":[],"scoped_memory_configs":[{"memory_space":"1","offset":"0","size":"0"}],"used_scoped_memory_configs":[]}
  %slice = u32[1,1]{1,0:T(1,128)} slice(%get-tuple-element.18), slice={[3:4], [0:1]}, metadata={op_name="jit(optimized_compute)/jit(_normal)/jit(_normal_real)/jit(_uniform)/slice" stack_frame_id=25}, backend_config={"flag_configs":[],"window_config":{"kernel_window_bounds":[],"output_window_bounds":["1","1"],"input_window_bounds":[],"estimated_cycles":"2298","iteration_bounds":["1","1"],"cost_model_type":"COST_MODEL_TYPE_INVALID","ml_estimated_microseconds":0,"is_mask":false,"pad_output_on_minor_dim":"0","pad_input_on_minor_dim":"0","estimated_vmem_bytes":"0","estimated_bundle_count":"0","estimated_scoped_vmem_bytes":"0"},"scoped_memory_configs":[{"memory_space":"1","offset":"0","size":"5872027"}],"used_scoped_memory_configs":[{"memory_space":"1","offset":"0","size":"1024"}],"retry_config":{"retry_count":"0"},"aliasing_operands":{"lists":[]}}
  %get-tuple-element.17 = u32[4,1]{1,0:T(4,128)S(1)} get-tuple-element(%xor_add_fusion), index=0, metadata={op_name="jit(optimized_compute)/jit(_threefry_split)/_make_test_data/add" stack_frame_id=38}, backend_config={"flag_configs":[],"scoped_memory_configs":[{"memory_space":"1","offset":"0","size":"0"}],"used_scoped_memory_configs":[]}
  %pad_add_fusion = u32[4,2]{1,0:T(4,128)S(1)} fusion(%get-tuple-element.17, %get-tuple-element.18), kind=kLoop, calls=%fused_computation.78, metadata={op_name="jit(optimized_compute)/jit(_threefry_split)/concatenate" stack_frame_id=38}, backend_config={"flag_configs":[],"window_config":{"kernel_window_bounds":[],"output_window_bounds":["1","1"],"input_window_bounds":[],"estimated_cycles":"2299","iteration_bounds":["1","1"],"cost_model_type":"COST_MODEL_TYPE_INVALID","ml_estimated_microseconds":0,"is_mask":false,"pad_output_on_minor_dim":"0","pad_input_on_minor_dim":"0","estimated_vmem_bytes":"0","estimated_bundle_count":"0","estimated_scoped_vmem_bytes":"0"},"scoped_memory_configs":[{"memory_space":"1","offset":"0","size":"5872027"}],"used_scoped_memory_configs":[{"memory_space":"1","offset":"0","size":"0"}],"retry_config":{"retry_count":"0"},"aliasing_operands":{"lists":[]}}
  %slice_bitcast_fusion = (u32[2]{0:T(128)S(1)}, u32[2]{0:T(128)S(1)}, u32[2]{0:T(128)S(1)}, u32[2]{0:T(128)S(1)}) fusion(%pad_add_fusion), kind=kLoop, calls=%fused_computation.135, metadata={op_name="jit(optimized_compute)/squeeze" stack_frame_id=21}, backend_config={"flag_configs":[],"window_config":{"kernel_window_bounds":[],"output_window_bounds":["1"],"input_window_bounds":[],"estimated_cycles":"2301","iteration_bounds":["1"],"cost_model_type":"COST_MODEL_TYPE_INVALID","ml_estimated_microseconds":0,"is_mask":false,"pad_output_on_minor_dim":"0","pad_input_on_minor_dim":"0","estimated_vmem_bytes":"0","estimated_bundle_count":"0","estimated_scoped_vmem_bytes":"0"},"scoped_memory_configs":[{"memory_space":"1","offset":"0","size":"5872027"}],"used_scoped_memory_configs":[{"memory_space":"1","offset":"0","size":"0"}],"retry_config":{"retry_count":"0"},"aliasing_operands":{"lists":[]}}
  %get-tuple-element.8 = u32[2]{0:T(128)S(1)} get-tuple-element(%slice_bitcast_fusion), index=3, metadata={op_name="jit(optimized_compute)/squeeze" stack_frame_id=21}, backend_config={"flag_configs":[],"scoped_memory_configs":[{"memory_space":"1","offset":"0","size":"0"}],"used_scoped_memory_configs":[]}
  %get-tuple-element.7 = u32[2]{0:T(128)S(1)} get-tuple-element(%slice_bitcast_fusion), index=2, metadata={op_name="jit(optimized_compute)/squeeze" stack_frame_id=21}, backend_config={"flag_configs":[],"scoped_memory_configs":[{"memory_space":"1","offset":"0","size":"0"}],"used_scoped_memory_configs":[]}
  %get-tuple-element.6 = u32[2]{0:T(128)S(1)} get-tuple-element(%slice_bitcast_fusion), index=1, metadata={op_name="jit(optimized_compute)/squeeze" stack_frame_id=21}, backend_config={"flag_configs":[],"scoped_memory_configs":[{"memory_space":"1","offset":"0","size":"0"}],"used_scoped_memory_configs":[]}
  %get-tuple-element.3 = u32[2]{0:T(128)S(1)} get-tuple-element(%slice_bitcast_fusion), index=0, metadata={op_name="jit(optimized_compute)/squeeze" stack_frame_id=21}, backend_config={"flag_configs":[],"scoped_memory_configs":[{"memory_space":"1","offset":"0","size":"0"}],"used_scoped_memory_configs":[]}
  %slice.21 = u32[1]{0:T(128)} slice(%get-tuple-element.3), slice={[1:2]}, metadata={op_name="jit(optimized_compute)/jit(_normal)/jit(_normal_real)/jit(_uniform)/slice" stack_frame_id=25}, backend_config={"flag_configs":[],"window_config":{"kernel_window_bounds":[],"output_window_bounds":["1"],"input_window_bounds":[],"estimated_cycles":"2298","iteration_bounds":["1"],"cost_model_type":"COST_MODEL_TYPE_INVALID","ml_estimated_microseconds":0,"is_mask":false,"pad_output_on_minor_dim":"0","pad_input_on_minor_dim":"0","estimated_vmem_bytes":"0","estimated_bundle_count":"0","estimated_scoped_vmem_bytes":"0"},"scoped_memory_configs":[{"memory_space":"1","offset":"0","size":"5872027"}],"used_scoped_memory_configs":[{"memory_space":"1","offset":"0","size":"1024"}],"retry_config":{"retry_count":"0"},"aliasing_operands":{"lists":[]}}
  %bitcast.12 = u32[]{:T(128)} bitcast(%slice), metadata={op_name="jit(optimized_compute)/jit(_normal)/jit(_normal_real)/jit(_uniform)/squeeze" stack_frame_id=25}, backend_config={"flag_configs":[],"scoped_memory_configs":[{"memory_space":"1","offset":"0","size":"0"}],"used_scoped_memory_configs":[]}
  %bitcast.14 = u32[]{:T(128)} bitcast(%slice.21), metadata={op_name="jit(optimized_compute)/jit(_normal)/jit(_normal_real)/jit(_uniform)/squeeze" stack_frame_id=25}, backend_config={"flag_configs":[],"scoped_memory_configs":[{"memory_space":"1","offset":"0","size":"0"}],"used_scoped_memory_configs":[]}
  %xor.252 = u32[]{:T(128)S(6)} xor(%bitcast.12, %bitcast.14), metadata={op_name="jit(optimized_compute)/jit(_normal)/jit(_normal_real)/jit(_uniform)/xor" stack_frame_id=25}, backend_config={"flag_configs":[],"scoped_memory_configs":[{"memory_space":"1","offset":"0","size":"33554432"}],"used_scoped_memory_configs":[],"aliasing_operands":{"lists":[]}}
  %xor.253 = u32[]{:T(128)S(6)} xor(%xor.252, %constant.312), metadata={op_name="jit(optimized_compute)/jit(_normal)/jit(_normal_real)/jit(_uniform)/xor" stack_frame_id=25}, backend_config={"flag_configs":[],"scoped_memory_configs":[{"memory_space":"1","offset":"0","size":"33554432"}],"used_scoped_memory_configs":[],"aliasing_operands":{"lists":[{"indices":["0","2"]}]}}
  %negate_multiply_fusion.1 = f32[16]{0:T(128)} fusion(%bitcast.12, %xor.253, %bitcast.14), kind=kLoop, calls=%fused_computation.132, metadata={op_name="jit(optimized_compute)/mul" stack_frame_id=27}, backend_config={"flag_configs":[],"window_config":{"kernel_window_bounds":[],"output_window_bounds":["1"],"input_window_bounds":[],"estimated_cycles":"2337","iteration_bounds":["1"],"cost_model_type":"COST_MODEL_TYPE_INVALID","ml_estimated_microseconds":0,"is_mask":false,"pad_output_on_minor_dim":"0","pad_input_on_minor_dim":"0","estimated_vmem_bytes":"0","estimated_bundle_count":"0","estimated_scoped_vmem_bytes":"0"},"scoped_memory_configs":[{"memory_space":"1","offset":"0","size":"5872027"}],"used_scoped_memory_configs":[{"memory_space":"1","offset":"0","size":"1024"}],"retry_config":{"retry_count":"0"},"aliasing_operands":{"lists":[]}}
  %fusion.67 = (u32[1]{0:T(128)}, u32[1]{0:T(128)}) fusion(%get-tuple-element.6), kind=kLoop, calls=%fused_computation.140, metadata={op_name="jit(optimized_compute)/jit(_normal)/jit(_normal_real)/jit(_uniform)/slice" stack_frame_id=24}, backend_config={"flag_configs":[],"window_config":{"kernel_window_bounds":[],"output_window_bounds":["1"],"input_window_bounds":[],"estimated_cycles":"2299","iteration_bounds":["1"],"cost_model_type":"COST_MODEL_TYPE_INVALID","ml_estimated_microseconds":0,"is_mask":false,"pad_output_on_minor_dim":"0","pad_input_on_minor_dim":"0","estimated_vmem_bytes":"0","estimated_bundle_count":"0","estimated_scoped_vmem_bytes":"0"},"scoped_memory_configs":[{"memory_space":"1","offset":"0","size":"5872027"}],"used_scoped_memory_configs":[{"memory_space":"1","offset":"0","size":"2048"}],"retry_config":{"retry_count":"0"},"aliasing_operands":{"lists":[]}}
  %get-tuple-element.10 = u32[1]{0:T(128)} get-tuple-element(%fusion.67), index=1, metadata={op_name="jit(optimized_compute)/jit(_normal)/jit(_normal_real)/jit(_uniform)/slice" stack_frame_id=24}, backend_config={"flag_configs":[],"scoped_memory_configs":[{"memory_space":"1","offset":"0","size":"0"}],"used_scoped_memory_configs":[]}
  %get-tuple-element.9 = u32[1]{0:T(128)} get-tuple-element(%fusion.67), index=0, metadata={op_name="jit(optimized_compute)/jit(_normal)/jit(_normal_real)/jit(_uniform)/slice" stack_frame_id=24}, backend_config={"flag_configs":[],"scoped_memory_configs":[{"memory_space":"1","offset":"0","size":"0"}],"used_scoped_memory_configs":[]}
  %bitcast.9 = u32[]{:T(128)} bitcast(%get-tuple-element.10), metadata={op_name="jit(optimized_compute)/jit(_normal)/jit(_normal_real)/jit(_uniform)/squeeze" stack_frame_id=24}, backend_config={"flag_configs":[],"scoped_memory_configs":[{"memory_space":"1","offset":"0","size":"0"}],"used_scoped_memory_configs":[]}
  %bitcast.10 = u32[]{:T(128)} bitcast(%get-tuple-element.9), metadata={op_name="jit(optimized_compute)/jit(_normal)/jit(_normal_real)/jit(_uniform)/squeeze" stack_frame_id=24}, backend_config={"flag_configs":[],"scoped_memory_configs":[{"memory_space":"1","offset":"0","size":"0"}],"used_scoped_memory_configs":[]}
  %xor.380 = u32[]{:T(128)S(6)} xor(%bitcast.9, %bitcast.10), metadata={op_name="jit(optimized_compute)/jit(_normal)/jit(_normal_real)/jit(_uniform)/xor" stack_frame_id=24}, backend_config={"flag_configs":[],"scoped_memory_configs":[{"memory_space":"1","offset":"0","size":"33554432"}],"used_scoped_memory_configs":[],"aliasing_operands":{"lists":[]}}
  %xor.381 = u32[]{:T(128)S(6)} xor(%xor.380, %constant.312), metadata={op_name="jit(optimized_compute)/jit(_normal)/jit(_normal_real)/jit(_uniform)/xor" stack_frame_id=24}, backend_config={"flag_configs":[],"scoped_memory_configs":[{"memory_space":"1","offset":"0","size":"33554432"}],"used_scoped_memory_configs":[],"aliasing_operands":{"lists":[{"indices":["0","2"]}]}}
  %fusion.68 = (u32[1]{0:T(128)}, u32[1]{0:T(128)}) fusion(%get-tuple-element.7), kind=kLoop, calls=%fused_computation.141, metadata={op_name="jit(optimized_compute)/jit(_normal)/jit(_normal_real)/jit(_uniform)/slice" stack_frame_id=23}, backend_config={"flag_configs":[],"window_config":{"kernel_window_bounds":[],"output_window_bounds":["1"],"input_window_bounds":[],"estimated_cycles":"2299","iteration_bounds":["1"],"cost_model_type":"COST_MODEL_TYPE_INVALID","ml_estimated_microseconds":0,"is_mask":false,"pad_output_on_minor_dim":"0","pad_input_on_minor_dim":"0","estimated_vmem_bytes":"0","estimated_bundle_count":"0","estimated_scoped_vmem_bytes":"0"},"scoped_memory_configs":[{"memory_space":"1","offset":"0","size":"5872027"}],"used_scoped_memory_configs":[{"memory_space":"1","offset":"0","size":"2048"}],"retry_config":{"retry_count":"0"},"aliasing_operands":{"lists":[]}}
  %get-tuple-element.14 = u32[1]{0:T(128)} get-tuple-element(%fusion.68), index=1, metadata={op_name="jit(optimized_compute)/jit(_normal)/jit(_normal_real)/jit(_uniform)/slice" stack_frame_id=23}, backend_config={"flag_configs":[],"scoped_memory_configs":[{"memory_space":"1","offset":"0","size":"0"}],"used_scoped_memory_configs":[]}
  %get-tuple-element.11 = u32[1]{0:T(128)} get-tuple-element(%fusion.68), index=0, metadata={op_name="jit(optimized_compute)/jit(_normal)/jit(_normal_real)/jit(_uniform)/slice" stack_frame_id=23}, backend_config={"flag_configs":[],"scoped_memory_configs":[{"memory_space":"1","offset":"0","size":"0"}],"used_scoped_memory_configs":[]}
  %bitcast.5 = u32[]{:T(128)} bitcast(%get-tuple-element.14), metadata={op_name="jit(optimized_compute)/jit(_normal)/jit(_normal_real)/jit(_uniform)/squeeze" stack_frame_id=23}, backend_config={"flag_configs":[],"scoped_memory_configs":[{"memory_space":"1","offset":"0","size":"0"}],"used_scoped_memory_configs":[]}
  %bitcast.6 = u32[]{:T(128)} bitcast(%get-tuple-element.11), metadata={op_name="jit(optimized_compute)/jit(_normal)/jit(_normal_real)/jit(_uniform)/squeeze" stack_frame_id=23}, backend_config={"flag_configs":[],"scoped_memory_configs":[{"memory_space":"1","offset":"0","size":"0"}],"used_scoped_memory_configs":[]}
  %xor.357 = u32[]{:T(128)S(6)} xor(%bitcast.5, %bitcast.6), metadata={op_name="jit(optimized_compute)/jit(_normal)/jit(_normal_real)/jit(_uniform)/xor" stack_frame_id=23}, backend_config={"flag_configs":[],"scoped_memory_configs":[{"memory_space":"1","offset":"0","size":"33554432"}],"used_scoped_memory_configs":[],"aliasing_operands":{"lists":[]}}
  %xor.358 = u32[]{:T(128)S(6)} xor(%xor.357, %constant.312), metadata={op_name="jit(optimized_compute)/jit(_normal)/jit(_normal_real)/jit(_uniform)/xor" stack_frame_id=23}, backend_config={"flag_configs":[],"scoped_memory_configs":[{"memory_space":"1","offset":"0","size":"33554432"}],"used_scoped_memory_configs":[],"aliasing_operands":{"lists":[{"indices":["0","2"]}]}}
  %fusion.69 = (u32[1]{0:T(128)}, u32[1]{0:T(128)}) fusion(%get-tuple-element.8), kind=kLoop, calls=%fused_computation.142, metadata={op_name="jit(optimized_compute)/jit(_normal)/jit(_normal_real)/jit(_uniform)/slice" stack_frame_id=22}, backend_config={"flag_configs":[],"window_config":{"kernel_window_bounds":[],"output_window_bounds":["1"],"input_window_bounds":[],"estimated_cycles":"2299","iteration_bounds":["1"],"cost_model_type":"COST_MODEL_TYPE_INVALID","ml_estimated_microseconds":0,"is_mask":false,"pad_output_on_minor_dim":"0","pad_input_on_minor_dim":"0","estimated_vmem_bytes":"0","estimated_bundle_count":"0","estimated_scoped_vmem_bytes":"0"},"scoped_memory_configs":[{"memory_space":"1","offset":"0","size":"5872027"}],"used_scoped_memory_configs":[{"memory_space":"1","offset":"0","size":"2048"}],"retry_config":{"retry_count":"0"},"aliasing_operands":{"lists":[]}}
  %get-tuple-element.16 = u32[1]{0:T(128)} get-tuple-element(%fusion.69), index=1, metadata={op_name="jit(optimized_compute)/jit(_normal)/jit(_normal_real)/jit(_uniform)/slice" stack_frame_id=22}, backend_config={"flag_configs":[],"scoped_memory_configs":[{"memory_space":"1","offset":"0","size":"0"}],"used_scoped_memory_configs":[]}
  %get-tuple-element.15 = u32[1]{0:T(128)} get-tuple-element(%fusion.69), index=0, metadata={op_name="jit(optimized_compute)/jit(_normal)/jit(_normal_real)/jit(_uniform)/slice" stack_frame_id=22}, backend_config={"flag_configs":[],"scoped_memory_configs":[{"memory_space":"1","offset":"0","size":"0"}],"used_scoped_memory_configs":[]}
  %bitcast.1 = u32[]{:T(128)} bitcast(%get-tuple-element.16), metadata={op_name="jit(optimized_compute)/jit(_normal)/jit(_normal_real)/jit(_uniform)/squeeze" stack_frame_id=22}, backend_config={"flag_configs":[],"scoped_memory_configs":[{"memory_space":"1","offset":"0","size":"0"}],"used_scoped_memory_configs":[]}
  %bitcast.2 = u32[]{:T(128)} bitcast(%get-tuple-element.15), metadata={op_name="jit(optimized_compute)/jit(_normal)/jit(_normal_real)/jit(_uniform)/squeeze" stack_frame_id=22}, backend_config={"flag_configs":[],"scoped_memory_configs":[{"memory_space":"1","offset":"0","size":"0"}],"used_scoped_memory_configs":[]}
  %xor.334 = u32[]{:T(128)S(6)} xor(%bitcast.1, %bitcast.2), metadata={op_name="jit(optimized_compute)/jit(_normal)/jit(_normal_real)/jit(_uniform)/xor" stack_frame_id=22}, backend_config={"flag_configs":[],"scoped_memory_configs":[{"memory_space":"1","offset":"0","size":"33554432"}],"used_scoped_memory_configs":[],"aliasing_operands":{"lists":[]}}
  %xor.335 = u32[]{:T(128)S(6)} xor(%xor.334, %constant.312), metadata={op_name="jit(optimized_compute)/jit(_normal)/jit(_normal_real)/jit(_uniform)/xor" stack_frame_id=22}, backend_config={"flag_configs":[],"scoped_memory_configs":[{"memory_space":"1","offset":"0","size":"33554432"}],"used_scoped_memory_configs":[],"aliasing_operands":{"lists":[{"indices":["0","2"]}]}}
  %fusion.40 = (u32[4096]{0:T(1024)S(1)}, u32[4096]{0:T(1024)S(1)}) fusion(), kind=kLoop, calls=%fused_computation.70, metadata={op_name="jit(optimized_compute)/jit(_normal)/jit(_normal_real)/jit(_uniform)/iota_2x32_shape" stack_frame_id=22}, backend_config={"flag_configs":[],"window_config":{"kernel_window_bounds":[],"output_window_bounds":["4"],"input_window_bounds":[],"estimated_cycles":"31","iteration_bounds":["1"],"cost_model_type":"COST_MODEL_TYPE_INVALID","ml_estimated_microseconds":0,"is_mask":false,"pad_output_on_minor_dim":"0","pad_input_on_minor_dim":"0","estimated_vmem_bytes":"0","estimated_bundle_count":"0","estimated_scoped_vmem_bytes":"0"},"scoped_memory_configs":[{"memory_space":"1","offset":"0","size":"5872027"}],"used_scoped_memory_configs":[{"memory_space":"1","offset":"0","size":"0"}],"retry_config":{"retry_count":"0"},"fusion_formation_source":{"fusion_creating_compiler_pass":"TpuAdvancedMOF","fusion_id":"42"},"aliasing_operands":{"lists":[]}}
  %get-tuple-element.20 = u32[4096]{0:T(1024)S(1)} get-tuple-element(%fusion.40), index=1, metadata={op_name="jit(optimized_compute)/jit(_normal)/jit(_normal_real)/jit(_uniform)/iota_2x32_shape" stack_frame_id=22}, backend_config={"flag_configs":[],"scoped_memory_configs":[{"memory_space":"1","offset":"0","size":"0"}],"used_scoped_memory_configs":[]}
  %get-tuple-element.19 = u32[4096]{0:T(1024)S(1)} get-tuple-element(%fusion.40), index=0, metadata={op_name="jit(optimized_compute)/jit(_normal)/jit(_normal_real)/jit(_uniform)/iota_2x32_shape" stack_frame_id=22}, backend_config={"flag_configs":[],"scoped_memory_configs":[{"memory_space":"1","offset":"0","size":"0"}],"used_scoped_memory_configs":[]}
  %copy-start = (f32[16]{0:T(128)S(1)}, f32[16]{0:T(128)}, u32[]{:S(2)}) copy-start(%negate_multiply_fusion.1)
  %convert_bitcast_fusion = (f32[10,16,4096,128]{3,2,1,0:T(8,128)}, f32[10,16,4096,128]{3,2,1,0:T(8,128)}, f32[10,16,4096,128]{3,2,1,0:T(8,128)}) fusion(%xor.381, %bitcast.10, %bitcast.9, %get-tuple-element.23, %get-tuple-element.20, /*index=5*/%get-tuple-element.21, %get-tuple-element.24, %get-tuple-element.19, %get-tuple-element.22, %xor.358, /*index=10*/%bitcast.6, %bitcast.5, %xor.335, %bitcast.2, %bitcast.1), kind=kLoop, calls=%fused_computation.58, metadata={op_name="jit(optimized_compute)/jvp(jit(fused_chunk_fwd_kernel))/transpose" stack_frame_id=41}, backend_config={"flag_configs":[],"window_config":{"kernel_window_bounds":[],"output_window_bounds":["5","4","3","1"],"input_window_bounds":[],"estimated_cycles":"10707260","iteration_bounds":["2","4","171","1"],"cost_model_type":"COST_MODEL_TYPE_INVALID","ml_estimated_microseconds":0,"is_mask":false,"pad_output_on_minor_dim":"0","pad_input_on_minor_dim":"0","estimated_vmem_bytes":"0","estimated_bundle_count":"0","estimated_scoped_vmem_bytes":"0"},"scoped_memory_configs":[{"memory_space":"1","offset":"0","size":"21810382"}],"used_scoped_memory_configs":[{"memory_space":"1","offset":"0","size":"4558848"}],"retry_config":{"retry_count":"1"},"aliasing_operands":{"lists":[]}}
  %get-tuple-element.2 = f32[10,16,4096,128]{3,2,1,0:T(8,128)} get-tuple-element(%convert_bitcast_fusion), index=2, metadata={op_name="jit(optimized_compute)/jvp(jit(fused_chunk_fwd_kernel))/transpose" stack_frame_id=41}, backend_config={"flag_configs":[],"scoped_memory_configs":[{"memory_space":"1","offset":"0","size":"0"}],"used_scoped_memory_configs":[]}
  %get-tuple-element.1 = f32[10,16,4096,128]{3,2,1,0:T(8,128)} get-tuple-element(%convert_bitcast_fusion), index=1, metadata={op_name="jit(optimized_compute)/jvp(jit(fused_chunk_fwd_kernel))/transpose" stack_frame_id=41}, backend_config={"flag_configs":[],"scoped_memory_configs":[{"memory_space":"1","offset":"0","size":"0"}],"used_scoped_memory_configs":[]}
  %get-tuple-element = f32[10,16,4096,128]{3,2,1,0:T(8,128)} get-tuple-element(%convert_bitcast_fusion), index=0, metadata={op_name="jit(optimized_compute)/jvp(jit(fused_chunk_fwd_kernel))/transpose" stack_frame_id=41}, backend_config={"flag_configs":[],"scoped_memory_configs":[{"memory_space":"1","offset":"0","size":"0"}],"used_scoped_memory_configs":[]}
  %copy-done = f32[16]{0:T(128)S(1)} copy-done(%copy-start)
  %jvp_jit_fused_chunk_fwd_kernel__.1 = f32[10,16,1,4096,128]{4,3,2,1,0:T(8,128)} custom-call(%get-tuple-element.2, %get-tuple-element.1, %get-tuple-element, %copy-done), custom_call_target="tpu_custom_call", operand_layout_constraints={f32[10,16,4096,128]{3,2,1,0}, f32[10,16,4096,128]{3,2,1,0}, f32[10,16,4096,128]{3,2,1,0}, f32[16]{0}}, frontend_attributes={kernel_metadata={}}, metadata={op_name="jit(optimized_compute)/jvp(jit(fused_chunk_fwd_kernel))/pallas_call" stack_frame_id=42}, backend_config={"flag_configs":[],"scoped_memory_configs":[{"memory_space":"1","offset":"0","size":"33554432"}],"custom_call_config":{"body":"…","needs_layout_passes":true,"allow_input_fusion":[],"serialization_format":"1","output_memory_colors":[],"output_memory_space_colors":[],"input_memory_space_colors":[]},"used_scoped_memory_configs":[{"memory_space":"1","offset":"0","size":"1675264"}],"retry_config":{"retry_count":"0"},"aliasing_operands":{"lists":[]}}
  ROOT %multiply_reduce_fusion = f32[]{:T(128)} fusion(%jvp_jit_fused_chunk_fwd_kernel__.1), kind=kLoop, calls=%fused_computation.61, metadata={op_name="jit(optimized_compute)/jvp()/reduce_sum" stack_frame_id=13}, backend_config={"flag_configs":[],"window_config":{"kernel_window_bounds":[],"output_window_bounds":["1","2","1","512","1"],"input_window_bounds":[],"estimated_cycles":"530624","iteration_bounds":["10","8","1","1","1"],"cost_model_type":"COST_MODEL_TYPE_INVALID","ml_estimated_microseconds":0,"is_mask":false,"pad_output_on_minor_dim":"0","pad_input_on_minor_dim":"0","estimated_vmem_bytes":"0","estimated_bundle_count":"0","estimated_scoped_vmem_bytes":"0"},"scoped_memory_configs":[{"memory_space":"1","offset":"0","size":"31876711"}],"used_scoped_memory_configs":[{"memory_space":"1","offset":"0","size":"16781312"}],"retry_config":{"retry_count":"0"},"aliasing_operands":{"lists":[]}}
}

