HloModule jit_wrapped, is_scheduled=true, entry_computation_layout={(f32[2,16,4096,128]{3,2,1,0:T(8,128)}, f32[2,16,4096,128]{3,2,1,0:T(8,128)}, f32[2,16,4096,128]{3,2,1,0:T(8,128)}, f32[16]{0:T(128)})->(f32[2,64,16,128,128]{4,3,2,1,0:T(8,128)}, f32[2,16,4096,128]{3,2,1,0:T(8,128)})}, allow_spmd_sharding_propagation_to_parameters={true,true,true,true}, allow_spmd_sharding_propagation_to_output={true,true}

FileNames
1 "/workspace/kernel-evolve/docker/evaluate.py"
2 "<string>"

FunctionNames
1 "<module>"
2 "main"
3 "stage_performance"
4 "optimized_compute"
5 "optimized_compute.<locals>.loss_fn"
6 "chunk_gla"
7 "chunk_gla.<locals>._fwd"
8 "chunk_gla_fwd"
9 "chunk_fwd_combined"

FileLocations
1 {file_name_id=1 function_name_id=1 line=870 end_line=870 column=4 end_column=10}
2 {file_name_id=1 function_name_id=2 line=749 end_line=749 column=16 end_column=79}
3 {file_name_id=1 function_name_id=3 line=120 end_line=120 column=12 end_column=30}
4 {file_name_id=2 function_name_id=4 line=683 end_line=683 column=14 end_column=73}
5 {file_name_id=2 function_name_id=5 line=680 end_line=681 column=15 end_column=74}
6 {file_name_id=2 function_name_id=6 line=662 end_line=662 column=11 end_column=28}
7 {file_name_id=2 function_name_id=7 line=647 end_line=647 column=25 end_column=75}
8 {file_name_id=2 function_name_id=8 line=293 end_line=293 column=11 end_column=57}
9 {file_name_id=2 function_name_id=9 line=181 end_line=209 column=21 end_column=35}

StackFrames
1 {file_location_id=1 parent_frame_id=1}
2 {file_location_id=2 parent_frame_id=2}
3 {file_location_id=3 parent_frame_id=3}
4 {file_location_id=4 parent_frame_id=4}
5 {file_location_id=5 parent_frame_id=5}
6 {file_location_id=6 parent_frame_id=6}
7 {file_location_id=7 parent_frame_id=7}
8 {file_location_id=8 parent_frame_id=8}
9 {file_location_id=9 parent_frame_id=9}


ENTRY %main.1 (args_0_.1: f32[2,16,4096,128], args_1_.1: f32[2,16,4096,128], args_2_.1: f32[2,16,4096,128], args_4_.1: f32[16]) -> (f32[2,64,16,128,128], f32[2,16,4096,128]) {
  %args_4_.1 = f32[16]{0:T(128)} parameter(3), metadata={op_name="args[4]"}, backend_config={"flag_configs":[],"scoped_memory_configs":[{"memory_space":"1","offset":"0","size":"0"}],"used_scoped_memory_configs":[]}
  %args_2_.1 = f32[2,16,4096,128]{3,2,1,0:T(8,128)} parameter(2), metadata={op_name="args[2]"}, backend_config={"flag_configs":[],"scoped_memory_configs":[{"memory_space":"1","offset":"0","size":"0"}],"used_scoped_memory_configs":[]}
  %args_1_.1 = f32[2,16,4096,128]{3,2,1,0:T(8,128)} parameter(1), metadata={op_name="args[1]"}, backend_config={"flag_configs":[],"scoped_memory_configs":[{"memory_space":"1","offset":"0","size":"0"}],"used_scoped_memory_configs":[]}
  %args_0_.1 = f32[2,16,4096,128]{3,2,1,0:T(8,128)} parameter(0), metadata={op_name="args[0]"}, backend_config={"flag_configs":[],"scoped_memory_configs":[{"memory_space":"1","offset":"0","size":"0"}],"used_scoped_memory_configs":[]}
  ROOT %tpu_custom_call.1 = (f32[2,64,16,128,128]{4,3,2,1,0:T(8,128)}, f32[2,16,4096,128]{3,2,1,0:T(8,128)}) custom-call(%args_0_.1, %args_1_.1, %args_2_.1, %args_4_.1), custom_call_target="tpu_custom_call", operand_layout_constraints={f32[2,16,4096,128]{3,2,1,0}, f32[2,16,4096,128]{3,2,1,0}, f32[2,16,4096,128]{3,2,1,0}, f32[16]{0}}, frontend_attributes={kernel_metadata={}}, metadata={op_name="jit(wrapped)/pallas_call" stack_frame_id=9}, backend_config={"flag_configs":[],"scoped_memory_configs":[{"memory_space":"1","offset":"0","size":"33554432"}],"custom_call_config":{"body":"…","needs_layout_passes":true,"allow_input_fusion":[],"serialization_format":"1","output_memory_colors":[],"output_memory_space_colors":[],"input_memory_space_colors":[],"disable_bounds_checks":true},"used_scoped_memory_configs":[{"memory_space":"1","offset":"0","size":"8912896"}],"retry_config":{"retry_count":"0"},"aliasing_operands":{"lists":[]}}
}

