HloModule jit_tgmm, is_scheduled=true, entry_computation_layout={(s32[32]{0:T(128)}, bf16[512,8192]{1,0:T(8,128)(2,1)}, f32[8192,2048]{1,0:T(8,128)})->bf16[32,512,2048]{2,1,0:T(8,128)(2,1)}}, allow_spmd_sharding_propagation_to_parameters={true,true,true}, allow_spmd_sharding_propagation_to_output={true}

FileNames
1 "/workspace/kernel-evolve/docker/evaluate.py"
2 "<string>"

FunctionNames
1 "<module>"
2 "main"
3 "stage_correctness"
4 "optimized_compute"
5 "optimized_compute.<locals>.loss_fn"
6 "gmm_fp8_blockwise"

FileLocations
1 {file_name_id=1 function_name_id=1 line=870 end_line=870 column=4 end_column=10}
2 {file_name_id=1 function_name_id=2 line=731 end_line=738 column=19 end_column=3}
3 {file_name_id=1 function_name_id=3 line=99 end_line=99 column=19 end_column=37}
4 {file_name_id=2 function_name_id=4 line=198 end_line=198 column=14 end_column=67}
5 {file_name_id=2 function_name_id=5 line=196 end_line=196 column=15 end_column=55}
6 {file_name_id=2 function_name_id=6 line=94 end_line=94 column=11 end_column=58}

StackFrames
1 {file_location_id=1 parent_frame_id=1}
2 {file_location_id=2 parent_frame_id=2}
3 {file_location_id=3 parent_frame_id=3}
4 {file_location_id=4 parent_frame_id=4}
5 {file_location_id=5 parent_frame_id=5}
6 {file_location_id=6 parent_frame_id=6}
7 {file_location_id=3 parent_frame_id=1}
8 {file_location_id=4 parent_frame_id=8}
9 {file_location_id=5 parent_frame_id=9}
10 {file_location_id=6 parent_frame_id=10}
11 {file_location_id=1 parent_frame_id=11}
12 {file_location_id=2 parent_frame_id=12}
13 {file_location_id=3 parent_frame_id=13}
14 {file_location_id=4 parent_frame_id=14}
15 {file_location_id=5 parent_frame_id=15}
16 {file_location_id=6 parent_frame_id=16}
17 {file_location_id=1 parent_frame_id=17}
18 {file_location_id=2 parent_frame_id=18}
19 {file_location_id=3 parent_frame_id=19}
20 {file_location_id=4 parent_frame_id=20}
21 {file_location_id=5 parent_frame_id=21}
22 {file_location_id=6 parent_frame_id=22}
23 {file_location_id=1 parent_frame_id=7}
24 {file_location_id=2 parent_frame_id=24}
25 {file_location_id=3 parent_frame_id=25}
26 {file_location_id=4 parent_frame_id=26}
27 {file_location_id=5 parent_frame_id=27}
28 {file_location_id=6 parent_frame_id=28}
29 {file_location_id=1 parent_frame_id=29}
30 {file_location_id=2 parent_frame_id=30}
31 {file_location_id=3 parent_frame_id=31}
32 {file_location_id=4 parent_frame_id=32}
33 {file_location_id=5 parent_frame_id=33}
34 {file_location_id=6 parent_frame_id=34}
35 {file_location_id=1 parent_frame_id=35}
36 {file_location_id=2 parent_frame_id=36}
37 {file_location_id=3 parent_frame_id=37}
38 {file_location_id=4 parent_frame_id=38}
39 {file_location_id=5 parent_frame_id=39}
40 {file_location_id=6 parent_frame_id=40}


%region_0.1 (reduce_window_sum.3: s32[], reduce_window_sum.4: s32[]) -> s32[] {
  %reduce_window_sum.4 = s32[]{:T(128)} parameter(1), metadata={op_name="reduce_window_sum"}, backend_config={"flag_configs":[],"scoped_memory_configs":[{"memory_space":"1","offset":"0","size":"0"}],"used_scoped_memory_configs":[]}
  %reduce_window_sum.3 = s32[]{:T(128)} parameter(0), metadata={op_name="reduce_window_sum"}, backend_config={"flag_configs":[],"scoped_memory_configs":[{"memory_space":"1","offset":"0","size":"0"}],"used_scoped_memory_configs":[]}
  ROOT %reduce_window_sum.5 = s32[]{:T(128)} add(%reduce_window_sum.3, %reduce_window_sum.4), metadata={op_name="reduce_window_sum" stack_frame_id=6}, backend_config={"flag_configs":[],"scoped_memory_configs":[{"memory_space":"1","offset":"0","size":"33554432"}],"used_scoped_memory_configs":[],"aliasing_operands":{"lists":[{"indices":["0","2"]}]}}
}

%region_0.1.clone (reduce_window_sum.16: s32[], reduce_window_sum.17: s32[]) -> s32[] {
  %reduce_window_sum.17 = s32[]{:T(128)} parameter(1), metadata={op_name="reduce_window_sum"}, backend_config={"flag_configs":[],"scoped_memory_configs":[{"memory_space":"1","offset":"0","size":"0"}],"used_scoped_memory_configs":[]}
  %reduce_window_sum.16 = s32[]{:T(128)} parameter(0), metadata={op_name="reduce_window_sum"}, backend_config={"flag_configs":[],"scoped_memory_configs":[{"memory_space":"1","offset":"0","size":"0"}],"used_scoped_memory_configs":[]}
  ROOT %reduce_window_sum.18 = s32[]{:T(128)} add(%reduce_window_sum.16, %reduce_window_sum.17), metadata={op_name="reduce_window_sum" stack_frame_id=6}, backend_config={"flag_configs":[],"scoped_memory_configs":[{"memory_space":"1","offset":"0","size":"33554432"}],"used_scoped_memory_configs":[],"aliasing_operands":{"lists":[{"indices":["0","2"]}]}}
}

%region_3.10 (reduce_window_sum.11: s32[], reduce_window_sum.12: s32[]) -> s32[] {
  %reduce_window_sum.12 = s32[]{:T(128)} parameter(1), metadata={op_name="reduce_window_sum"}, backend_config={"flag_configs":[],"scoped_memory_configs":[{"memory_space":"1","offset":"0","size":"0"}],"used_scoped_memory_configs":[]}
  %reduce_window_sum.11 = s32[]{:T(128)} parameter(0), metadata={op_name="reduce_window_sum"}, backend_config={"flag_configs":[],"scoped_memory_configs":[{"memory_space":"1","offset":"0","size":"0"}],"used_scoped_memory_configs":[]}
  ROOT %reduce_window_sum.13 = s32[]{:T(128)} add(%reduce_window_sum.11, %reduce_window_sum.12), metadata={op_name="reduce_window_sum" stack_frame_id=6}, backend_config={"flag_configs":[],"scoped_memory_configs":[{"memory_space":"1","offset":"0","size":"33554432"}],"used_scoped_memory_configs":[],"aliasing_operands":{"lists":[{"indices":["0","2"]}]}}
}

%region_11.35 (reduce_window_sum.19: s32[], reduce_window_sum.20: s32[]) -> s32[] {
  %reduce_window_sum.20 = s32[]{:T(128)} parameter(1), metadata={op_name="reduce_window_sum"}, backend_config={"flag_configs":[],"scoped_memory_configs":[{"memory_space":"1","offset":"0","size":"0"}],"used_scoped_memory_configs":[]}
  %reduce_window_sum.19 = s32[]{:T(128)} parameter(0), metadata={op_name="reduce_window_sum"}, backend_config={"flag_configs":[],"scoped_memory_configs":[{"memory_space":"1","offset":"0","size":"0"}],"used_scoped_memory_configs":[]}
  ROOT %reduce_window_sum.21 = s32[]{:T(128)} add(%reduce_window_sum.19, %reduce_window_sum.20), metadata={op_name="reduce_window_sum" stack_frame_id=6}, backend_config={"flag_configs":[],"scoped_memory_configs":[{"memory_space":"1","offset":"0","size":"33554432"}],"used_scoped_memory_configs":[],"aliasing_operands":{"lists":[{"indices":["0","2"]}]}}
}

%region_3.10.clone (reduce_window_sum.22: s32[], reduce_window_sum.24: s32[]) -> s32[] {
  %reduce_window_sum.24 = s32[]{:T(128)} parameter(1), metadata={op_name="reduce_window_sum"}, backend_config={"flag_configs":[],"scoped_memory_configs":[{"memory_space":"1","offset":"0","size":"0"}],"used_scoped_memory_configs":[]}
  %reduce_window_sum.22 = s32[]{:T(128)} parameter(0), metadata={op_name="reduce_window_sum"}, backend_config={"flag_configs":[],"scoped_memory_configs":[{"memory_space":"1","offset":"0","size":"0"}],"used_scoped_memory_configs":[]}
  ROOT %reduce_window_sum.25 = s32[]{:T(128)} add(%reduce_window_sum.22, %reduce_window_sum.24), metadata={op_name="reduce_window_sum" stack_frame_id=6}, backend_config={"flag_configs":[],"scoped_memory_configs":[{"memory_space":"1","offset":"0","size":"33554432"}],"used_scoped_memory_configs":[],"aliasing_operands":{"lists":[{"indices":["0","2"]}]}}
}

%fused_computation (param_0.2: s32[32], param_1.13: s32[1024]) -> s32[35] {
  %param_0.2 = s32[32]{0:T(128)S(1)} parameter(0)
  %param_1.13 = s32[1024]{0:T(1024)S(1)} parameter(1)
  %custom-call.3 = s32[1024]{0:T(1024)} custom-call(%param_1.13), custom_call_target="AssumeGatherIndicesInBound", operand_layout_constraints={s32[1024]{0:T(1024)}}, metadata={op_name="jit(tgmm)/jit(_take)/gather" stack_frame_id=28}
  %slice.53 = s32[35]{0:T(128)} slice(%custom-call.3), slice={[0:35]}, metadata={op_name="jit(tgmm)/jit(_take)/gather" stack_frame_id=28}
  %reshape.172 = s32[35]{0:T(128)} reshape(%slice.53), metadata={op_name="jit(tgmm)/jit(_take)/jit(_where)/select_n" stack_frame_id=6}
  %transpose.14 = s32[35]{0:T(128)} transpose(%reshape.172), dimensions={0}, metadata={op_name="jit(tgmm)/jit(_take)/jit(_where)/select_n" stack_frame_id=6}
  %gather.11 = s32[35]{0:T(128)} gather(%param_0.2, %transpose.14), offset_dims={}, collapsed_slice_dims={0}, start_index_map={0}, index_vector_dim=1, slice_sizes={1}, metadata={op_name="jit(tgmm)/jit(_take)/gather" stack_frame_id=28}
  %transpose.13 = s32[35]{0:T(128)} transpose(%gather.11), dimensions={0}, metadata={op_name="jit(tgmm)/jit(_take)/gather" stack_frame_id=28}
  ROOT %reshape.171 = s32[35]{0:T(128)S(1)} reshape(%transpose.13), metadata={op_name="jit(tgmm)/jit(_take)/gather" stack_frame_id=28}
}

%reduce-window.reduce_sub_computation (lhs.3: s32[], rhs.3: s32[]) -> s32[] {
  %rhs.3 = s32[] parameter(1), backend_config={"flag_configs":[],"scoped_memory_configs":[{"memory_space":"1","offset":"0","size":"33554432"}],"used_scoped_memory_configs":[]}
  %lhs.3 = s32[] parameter(0), backend_config={"flag_configs":[],"scoped_memory_configs":[{"memory_space":"1","offset":"0","size":"33554432"}],"used_scoped_memory_configs":[]}
  ROOT %add.117 = s32[] add(%lhs.3, %rhs.3), backend_config={"flag_configs":[],"scoped_memory_configs":[{"memory_space":"1","offset":"0","size":"33554432"}],"used_scoped_memory_configs":[],"aliasing_operands":{"lists":[]}}
}

%add.109.reduce_sub_computation (lhs.9: s32[], rhs.9: s32[]) -> s32[] {
  %rhs.9 = s32[] parameter(1), backend_config={"flag_configs":[],"scoped_memory_configs":[{"memory_space":"1","offset":"0","size":"33554432"}],"used_scoped_memory_configs":[]}
  %lhs.9 = s32[] parameter(0), backend_config={"flag_configs":[],"scoped_memory_configs":[{"memory_space":"1","offset":"0","size":"33554432"}],"used_scoped_memory_configs":[]}
  ROOT %add.123 = s32[] add(%lhs.9, %rhs.9), backend_config={"flag_configs":[],"scoped_memory_configs":[{"memory_space":"1","offset":"0","size":"33554432"}],"used_scoped_memory_configs":[],"aliasing_operands":{"lists":[]}}
}

%select.42.reduce_sub_computation (lhs.11: s32[], rhs.11: s32[]) -> s32[] {
  %rhs.11 = s32[] parameter(1), backend_config={"flag_configs":[],"scoped_memory_configs":[{"memory_space":"1","offset":"0","size":"33554432"}],"used_scoped_memory_configs":[]}
  %lhs.11 = s32[] parameter(0), backend_config={"flag_configs":[],"scoped_memory_configs":[{"memory_space":"1","offset":"0","size":"33554432"}],"used_scoped_memory_configs":[]}
  ROOT %add.125 = s32[] add(%lhs.11, %rhs.11), backend_config={"flag_configs":[],"scoped_memory_configs":[{"memory_space":"1","offset":"0","size":"33554432"}],"used_scoped_memory_configs":[],"aliasing_operands":{"lists":[]}}
}

%add.111.reduce_sub_computation (lhs.10: s32[], rhs.10: s32[]) -> s32[] {
  %rhs.10 = s32[] parameter(1), backend_config={"flag_configs":[],"scoped_memory_configs":[{"memory_space":"1","offset":"0","size":"33554432"}],"used_scoped_memory_configs":[]}
  %lhs.10 = s32[] parameter(0), backend_config={"flag_configs":[],"scoped_memory_configs":[{"memory_space":"1","offset":"0","size":"33554432"}],"used_scoped_memory_configs":[]}
  ROOT %add.124 = s32[] add(%lhs.10, %rhs.10), backend_config={"flag_configs":[],"scoped_memory_configs":[{"memory_space":"1","offset":"0","size":"33554432"}],"used_scoped_memory_configs":[],"aliasing_operands":{"lists":[]}}
}

%fused_computation.28 (param_0.282: s32[35,1], param_1.342: s32[], param_2.350: s32[], param_3.225: s32[], param_4.199: s32[]) -> (s32[35], s32[35], s32[35]) {
  %param_0.282 = s32[35,1]{1,0:T(8,128)S(1)} parameter(0)
  %constant.359 = s32[]{:T(128)} constant(-1)
  %broadcast.342 = s32[35,1]{1,0:T(8,128)} broadcast(%constant.359), dimensions={}
  %add.145 = s32[35,1]{1,0:T(8,128)} add(%param_0.282, %broadcast.342), metadata={op_name="jit(tgmm)/sub" stack_frame_id=16}
  %constant.391 = s32[]{:T(128)} constant(0)
  %reduce.17 = s32[35]{0:T(128)S(1)} reduce(%add.145, %constant.391), dimensions={1}, to_apply=%add.109.reduce_sub_computation, metadata={op_name="jit(tgmm)/sub" stack_frame_id=16}
  %broadcast.344.clone.1 = s32[35,1]{1,0:T(8,128)} broadcast(%constant.391), dimensions={}
  %lt.66.clone.1 = pred[35,1]{1,0:T(8,128)(4,1)} compare(%add.145, %broadcast.344.clone.1), direction=LT, metadata={op_name="jit(tgmm)/jit(_take)/lt" stack_frame_id=6}
  %constant.369.clone.1 = s32[]{:T(128)} constant(3), metadata={op_name="jit(tgmm)/jit(_take)" stack_frame_id=6}
  %broadcast.336.clone.1 = s32[35,1]{1,0:T(8,128)} broadcast(%constant.369.clone.1), dimensions={}, metadata={op_name="jit(tgmm)/jit(_take)/add" stack_frame_id=6}
  %add.140.clone.1 = s32[35,1]{1,0:T(8,128)} add(%param_0.282, %broadcast.336.clone.1), metadata={op_name="jit(tgmm)/jit(_take)/add" stack_frame_id=6}
  %select_n.139.clone.1 = s32[35,1]{1,0:T(8,128)} select(%lt.66.clone.1, %add.140.clone.1, %add.145), metadata={op_name="jit(tgmm)/jit(_take)/jit(_where)/select_n" stack_frame_id=6}
  %compare.79.clone.1 = pred[35,1]{1,0:T(8,128)(4,1)} compare(%select_n.139.clone.1, %broadcast.336.clone.1), direction=GE, metadata={op_name="jit(tgmm)/jit(_take)/gather" stack_frame_id=28}
  %param_4.199 = s32[]{:T(128)} parameter(4)
  %broadcast.330.clone.1 = s32[35,1]{1,0:T(8,128)} broadcast(%param_4.199), dimensions={}, metadata={op_name="jit(tgmm)/jit(_take)/gather" stack_frame_id=28}
  %constant.355.clone.1 = s32[]{:T(128)} constant(2), metadata={op_name="jit(tgmm)/jit(_take)/jit(_where)/select_n" stack_frame_id=6}
  %broadcast.335.clone.1 = s32[35,1]{1,0:T(8,128)} broadcast(%constant.355.clone.1), dimensions={}, metadata={op_name="jit(tgmm)/jit(_take)/jit(_where)/select_n" stack_frame_id=6}
  %compare.80.clone.1 = pred[35,1]{1,0:T(8,128)(4,1)} compare(%select_n.139.clone.1, %broadcast.335.clone.1), direction=GE, metadata={op_name="jit(tgmm)/jit(_take)/gather" stack_frame_id=28}
  %param_3.225 = s32[]{:T(128)} parameter(3)
  %broadcast.331.clone.1 = s32[35,1]{1,0:T(8,128)} broadcast(%param_3.225), dimensions={}, metadata={op_name="jit(tgmm)/jit(_take)/gather" stack_frame_id=28}
  %constant.407.clone.1 = s32[]{:T(128)} constant(1)
  %broadcast.334.clone.1 = s32[35,1]{1,0:T(8,128)} broadcast(%constant.407.clone.1), dimensions={}, metadata={op_name="jit(tgmm)/jit(_take)/jit(_where)/select_n" stack_frame_id=6}
  %compare.81.clone.1 = pred[35,1]{1,0:T(8,128)(4,1)} compare(%select_n.139.clone.1, %broadcast.334.clone.1), direction=GE, metadata={op_name="jit(tgmm)/jit(_take)/gather" stack_frame_id=28}
  %param_2.350 = s32[]{:T(128)} parameter(2)
  %broadcast.333.clone.1 = s32[35,1]{1,0:T(8,128)} broadcast(%param_2.350), dimensions={}, metadata={op_name="jit(tgmm)/jit(_take)/gather" stack_frame_id=28}
  %param_1.342 = s32[]{:T(128)} parameter(1)
  %broadcast.332.clone.1 = s32[35,1]{1,0:T(8,128)} broadcast(%param_1.342), dimensions={}, metadata={op_name="jit(tgmm)/jit(_take)/gather" stack_frame_id=28}
  %select.107.clone.1 = s32[35,1]{1,0:T(8,128)} select(%compare.81.clone.1, %broadcast.333.clone.1, %broadcast.332.clone.1), metadata={op_name="jit(tgmm)/jit(_take)/gather" stack_frame_id=28}
  %select.106.clone.1 = s32[35,1]{1,0:T(8,128)} select(%compare.80.clone.1, %broadcast.331.clone.1, %select.107.clone.1), metadata={op_name="jit(tgmm)/jit(_take)/gather" stack_frame_id=28}
  %select.105.clone.1 = s32[35,1]{1,0:T(8,128)} select(%compare.79.clone.1, %broadcast.330.clone.1, %select.106.clone.1), metadata={op_name="jit(tgmm)/jit(_take)/gather" stack_frame_id=28}
  %reduce.14.clone.1 = s32[35]{0:T(128)S(1)} reduce(%select.105.clone.1, %constant.391), dimensions={1}, to_apply=%select.42.reduce_sub_computation, metadata={op_name="jit(tgmm)/jit(_take)/gather" stack_frame_id=28}
  %reduce.15.clone.1 = s32[35]{0:T(128)S(1)} reduce(%add.140.clone.1, %constant.391), dimensions={1}, to_apply=%add.111.reduce_sub_computation, metadata={op_name="jit(tgmm)/jit(_take)/add" stack_frame_id=6}
  ROOT %tuple.24 = (s32[35]{0:T(128)S(1)}, s32[35]{0:T(128)S(1)}, s32[35]{0:T(128)S(1)}) tuple(%reduce.17, %reduce.14.clone.1, %reduce.15.clone.1)
}

%add.108.reduce_sub_computation (lhs.6: s32[], rhs.6: s32[]) -> s32[] {
  %rhs.6 = s32[] parameter(1), backend_config={"flag_configs":[],"scoped_memory_configs":[{"memory_space":"1","offset":"0","size":"33554432"}],"used_scoped_memory_configs":[]}
  %lhs.6 = s32[] parameter(0), backend_config={"flag_configs":[],"scoped_memory_configs":[{"memory_space":"1","offset":"0","size":"33554432"}],"used_scoped_memory_configs":[]}
  ROOT %add.120 = s32[] add(%lhs.6, %rhs.6), backend_config={"flag_configs":[],"scoped_memory_configs":[{"memory_space":"1","offset":"0","size":"33554432"}],"used_scoped_memory_configs":[],"aliasing_operands":{"lists":[]}}
}

%select_n.100.reduce_sub_computation (lhs.8: s32[], rhs.8: s32[]) -> s32[] {
  %rhs.8 = s32[] parameter(1), backend_config={"flag_configs":[],"scoped_memory_configs":[{"memory_space":"1","offset":"0","size":"33554432"}],"used_scoped_memory_configs":[]}
  %lhs.8 = s32[] parameter(0), backend_config={"flag_configs":[],"scoped_memory_configs":[{"memory_space":"1","offset":"0","size":"33554432"}],"used_scoped_memory_configs":[]}
  ROOT %add.122 = s32[] add(%lhs.8, %rhs.8), backend_config={"flag_configs":[],"scoped_memory_configs":[{"memory_space":"1","offset":"0","size":"33554432"}],"used_scoped_memory_configs":[],"aliasing_operands":{"lists":[]}}
}

%add.110.reduce_sub_computation (lhs.7: s32[], rhs.7: s32[]) -> s32[] {
  %rhs.7 = s32[] parameter(1), backend_config={"flag_configs":[],"scoped_memory_configs":[{"memory_space":"1","offset":"0","size":"33554432"}],"used_scoped_memory_configs":[]}
  %lhs.7 = s32[] parameter(0), backend_config={"flag_configs":[],"scoped_memory_configs":[{"memory_space":"1","offset":"0","size":"33554432"}],"used_scoped_memory_configs":[]}
  ROOT %add.121 = s32[] add(%lhs.7, %rhs.7), backend_config={"flag_configs":[],"scoped_memory_configs":[{"memory_space":"1","offset":"0","size":"33554432"}],"used_scoped_memory_configs":[],"aliasing_operands":{"lists":[]}}
}

%fused_computation.29 (param_0.285: s32[35,1]) -> (s32[35], s32[35], s32[35]) {
  %param_0.285 = s32[35,1]{1,0:T(8,128)S(1)} parameter(0)
  %constant.362 = s32[]{:T(128)} constant(-1)
  %broadcast.343 = s32[35,1]{1,0:T(8,128)} broadcast(%constant.362), dimensions={}
  %add.147 = s32[35,1]{1,0:T(8,128)} add(%param_0.285, %broadcast.343), metadata={op_name="jit(tgmm)/sub" stack_frame_id=16}
  %constant.394 = s32[]{:T(128)} constant(0)
  %reduce.18 = s32[35]{0:T(128)S(1)} reduce(%add.147, %constant.394), dimensions={1}, to_apply=%add.108.reduce_sub_computation, metadata={op_name="jit(tgmm)/sub" stack_frame_id=16}
  %broadcast.345.clone.1 = s32[35,1]{1,0:T(8,128)} broadcast(%constant.394), dimensions={}
  %lt.64.clone.1 = pred[35,1]{1,0:T(8,128)(4,1)} compare(%add.147, %broadcast.345.clone.1), direction=LT, metadata={op_name="jit(tgmm)/jit(_take)/lt" stack_frame_id=6}
  %constant.408.clone.1 = s32[]{:T(128)} constant(31)
  %broadcast.338.clone.1 = s32[35,1]{1,0:T(8,128)} broadcast(%constant.408.clone.1), dimensions={}, metadata={op_name="jit(tgmm)/jit(_take)/add" stack_frame_id=6}
  %add.142.clone.1 = s32[35,1]{1,0:T(8,128)} add(%param_0.285, %broadcast.338.clone.1), metadata={op_name="jit(tgmm)/jit(_take)/add" stack_frame_id=6}
  %select_n.137.clone.1 = s32[35,1]{1,0:T(8,128)} select(%lt.64.clone.1, %add.142.clone.1, %add.147), metadata={op_name="jit(tgmm)/jit(_take)/jit(_where)/select_n" stack_frame_id=6}
  %reduce.13.clone.1 = s32[35]{0:T(128)S(1)} reduce(%select_n.137.clone.1, %constant.394), dimensions={1}, to_apply=%select_n.100.reduce_sub_computation, metadata={op_name="jit(tgmm)/jit(_take)/jit(_where)/select_n" stack_frame_id=6}
  %reduce.16.clone.1 = s32[35]{0:T(128)S(1)} reduce(%add.142.clone.1, %constant.394), dimensions={1}, to_apply=%add.110.reduce_sub_computation, metadata={op_name="jit(tgmm)/jit(_take)/add" stack_frame_id=6}
  ROOT %tuple.26 = (s32[35]{0:T(128)S(1)}, s32[35]{0:T(128)S(1)}, s32[35]{0:T(128)S(1)}) tuple(%reduce.18, %reduce.13.clone.1, %reduce.16.clone.1)
}

%select_n.99.reduce_sub_computation (lhs.5: s32[], rhs.5: s32[]) -> s32[] {
  %rhs.5 = s32[] parameter(1), backend_config={"flag_configs":[],"scoped_memory_configs":[{"memory_space":"1","offset":"0","size":"33554432"}],"used_scoped_memory_configs":[]}
  %lhs.5 = s32[] parameter(0), backend_config={"flag_configs":[],"scoped_memory_configs":[{"memory_space":"1","offset":"0","size":"33554432"}],"used_scoped_memory_configs":[]}
  ROOT %add.119 = s32[] add(%lhs.5, %rhs.5), backend_config={"flag_configs":[],"scoped_memory_configs":[{"memory_space":"1","offset":"0","size":"33554432"}],"used_scoped_memory_configs":[],"aliasing_operands":{"lists":[]}}
}

%fused_computation.30 (param_0.286: s32[32,1]) -> s32[32] {
  %param_0.286 = s32[32,1]{1,0:T(8,128)S(1)} parameter(0)
  %constant.395 = s32[]{:T(128)} constant(0)
  %broadcast.347 = s32[32,1]{1,0:T(8,128)} broadcast(%constant.395), dimensions={}
  %lt.68 = pred[32,1]{1,0:T(8,128)(4,1)} compare(%param_0.286, %broadcast.347), direction=LT, metadata={op_name="jit(tgmm)/lt" stack_frame_id=16}
  %constant.403 = s32[]{:T(128)} constant(35)
  %broadcast.346 = s32[32,1]{1,0:T(8,128)} broadcast(%constant.403), dimensions={}, metadata={op_name="jit(tgmm)/add" stack_frame_id=16}
  %add.149 = s32[32,1]{1,0:T(8,128)} add(%param_0.286, %broadcast.346), metadata={op_name="jit(tgmm)/add" stack_frame_id=16}
  %select_n.141 = s32[32,1]{1,0:T(8,128)} select(%lt.68, %add.149, %param_0.286), metadata={op_name="jit(tgmm)/select_n" stack_frame_id=16}
  ROOT %reduce.19 = s32[32]{0:T(128)S(1)} reduce(%select_n.141, %constant.395), dimensions={1}, to_apply=%select_n.99.reduce_sub_computation, metadata={op_name="jit(tgmm)/select_n" stack_frame_id=16}
}

%slice.33.reduce_sub_computation (lhs.4: s32[], rhs.4: s32[]) -> s32[] {
  %rhs.4 = s32[] parameter(1), backend_config={"flag_configs":[],"scoped_memory_configs":[{"memory_space":"1","offset":"0","size":"33554432"}],"used_scoped_memory_configs":[]}
  %lhs.4 = s32[] parameter(0), backend_config={"flag_configs":[],"scoped_memory_configs":[{"memory_space":"1","offset":"0","size":"33554432"}],"used_scoped_memory_configs":[]}
  ROOT %add.118 = s32[] add(%lhs.4, %rhs.4), backend_config={"flag_configs":[],"scoped_memory_configs":[{"memory_space":"1","offset":"0","size":"33554432"}],"used_scoped_memory_configs":[],"aliasing_operands":{"lists":[]}}
}

%fused_computation.31 (param_0.287: s32[32,1]) -> s32[31] {
  %param_0.287 = s32[32,1]{1,0:T(8,128)S(1)} parameter(0)
  %slice.55 = s32[31,1]{1,0:T(8,128)} slice(%param_0.287), slice={[0:31], [0:1]}, metadata={op_name="jit(tgmm)/slice" stack_frame_id=16}
  %constant.396 = s32[]{:T(128)} constant(0)
  ROOT %reduce.20 = s32[31]{0:T(128)S(1)} reduce(%slice.55, %constant.396), dimensions={1}, to_apply=%slice.33.reduce_sub_computation, metadata={op_name="jit(tgmm)/slice" stack_frame_id=16}
}

%fused_computation.32 (param_0.103: s32[35]) -> s32[1024] {
  %constant.352 = s32[] constant(0), metadata={op_name="jit(tgmm)/jit(_take)/gather" stack_frame_id=28}
  %broadcast.349 = s32[1024]{0:T(1024)} broadcast(%constant.352), dimensions={}, metadata={op_name="jit(tgmm)/jit(_take)/gather" stack_frame_id=28}
  %param_0.103 = s32[35]{0:T(128)S(1)} parameter(0)
  %constant.353 = s32[] constant(2147483647), metadata={op_name="jit(tgmm)/jit(_take)/gather" stack_frame_id=28}
  %pad.19 = s32[1024]{0:T(1024)} pad(%param_0.103, %constant.353), padding=0_989, metadata={op_name="jit(tgmm)/jit(_take)/gather" stack_frame_id=28}
  %constant.351 = s32[] constant(31), metadata={op_name="jit(tgmm)/jit(_take)/gather" stack_frame_id=28}
  %broadcast.348 = s32[1024]{0:T(1024)} broadcast(%constant.351), dimensions={}, metadata={op_name="jit(tgmm)/jit(_take)/gather" stack_frame_id=28}
  ROOT %clamp.1 = s32[1024]{0:T(1024)S(1)} clamp(%broadcast.349, %pad.19, %broadcast.348), metadata={op_name="jit(tgmm)/jit(_take)/gather" stack_frame_id=28}
}

%fused_computation.36 (param_0.278: f32[32], param_1.328: u32[32]) -> s32[32] {
  %param_0.278 = f32[32]{0:T(128)S(1)} parameter(0)
  %constant.357 = f32[]{:T(128)} constant(3), metadata={op_name="jit(tgmm)/jit(_where)/select_n" stack_frame_id=6}
  %eq.47 = f32[32]{0:T(128)} broadcast(%constant.357), dimensions={}, metadata={op_name="jit(tgmm)/eq" stack_frame_id=16}
  %eq.40 = pred[32]{0:T(512)(128)(4,1)} compare(%param_0.278, %eq.47), direction=EQ, metadata={op_name="jit(tgmm)/eq" stack_frame_id=16}
  %constant.374 = s32[]{:T(128)} constant(4)
  %broadcast_in_dim.39 = s32[32]{0:T(128)} broadcast(%constant.374), dimensions={}, metadata={op_name="jit(tgmm)/jit(_where)/broadcast_in_dim" stack_frame_id=6}
  %param_1.328 = u32[32]{0:T(128)S(1)} parameter(1)
  %convert_element_type.22 = s32[32]{0:T(128)} convert(%param_1.328), metadata={op_name="jit(tgmm)/jit(searchsorted)/jit(_searchsorted_scan_impl)/vmap(jit(_searchsorted_scan_impl))/convert_element_type" stack_frame_id=6}
  %select_n.166 = s32[32]{0:T(128)} select(%eq.40, %broadcast_in_dim.39, %convert_element_type.22), metadata={op_name="jit(tgmm)/jit(_where)/select_n" stack_frame_id=6}
  %constant.401 = s32[]{:T(128)} constant(0)
  %broadcast.367 = s32[32]{0:T(128)} broadcast(%constant.401), dimensions={}
  %lt.72 = pred[32]{0:T(512)(128)(4,1)} compare(%select_n.166, %broadcast.367), direction=LT, metadata={op_name="jit(tgmm)/lt" stack_frame_id=16}
  %constant.379 = s32[]{:T(128)} constant(5)
  %add.198 = s32[32]{0:T(128)} broadcast(%constant.379), dimensions={}, metadata={op_name="jit(tgmm)/add" stack_frame_id=16}
  %add.156 = s32[32]{0:T(128)} add(%select_n.166, %add.198), metadata={op_name="jit(tgmm)/add" stack_frame_id=16}
  ROOT %select_n.145 = s32[32]{0:T(128)S(1)} select(%lt.72, %add.156, %select_n.166), metadata={op_name="jit(tgmm)/select_n" stack_frame_id=16}
}

%fused_computation.37 (param_0.105: s32[35], param_1.318: s32[35], param_2.328: s32[35]) -> s32[35] {
  %param_2.328 = s32[35]{0:T(128)S(1)} parameter(2)
  %constant.382 = s32[]{:T(128)} constant(0)
  %broadcast.371 = s32[35]{0:T(128)} broadcast(%constant.382), dimensions={}
  %lt.79 = pred[35]{0:T(512)(128)(4,1)} compare(%param_2.328, %broadcast.371), direction=LT, metadata={op_name="jit(tgmm)/jit(_take)/lt" stack_frame_id=6}
  %param_1.318 = s32[35]{0:T(128)S(1)} parameter(1)
  %select_n.172 = s32[35]{0:T(128)} select(%lt.79, %param_1.318, %param_2.328), metadata={op_name="jit(tgmm)/jit(_take)/jit(_where)/select_n" stack_frame_id=6}
  %ge.15 = pred[35]{0:T(512)(128)(4,1)} compare(%select_n.172, %broadcast.371), direction=GE, metadata={op_name="jit(tgmm)/jit(_take)/ge" stack_frame_id=28}
  %constant.370 = s32[]{:T(128)} constant(3), metadata={op_name="jit(tgmm)/jit(_take)" stack_frame_id=6}
  %broadcast.352 = s32[35]{0:T(128)} broadcast(%constant.370), dimensions={}, metadata={op_name="jit(tgmm)/jit(_take)/add" stack_frame_id=6}
  %le.16 = pred[35]{0:T(512)(128)(4,1)} compare(%select_n.172, %broadcast.352), direction=LE, metadata={op_name="jit(tgmm)/jit(_take)/le" stack_frame_id=28}
  %and.34 = pred[35]{0:T(512)(128)(4,1)} and(%ge.15, %le.16), metadata={op_name="jit(tgmm)/jit(_take)/and" stack_frame_id=28}
  %param_0.105 = s32[35]{0:T(128)S(1)} parameter(0)
  %constant.372 = s32[]{:T(128)} constant(-2147483648), metadata={op_name="jit(tgmm)/jit(_take)" stack_frame_id=6}
  %broadcast_in_dim.41 = s32[35]{0:T(128)} broadcast(%constant.372), dimensions={}, metadata={op_name="jit(tgmm)/jit(_take)/broadcast_in_dim" stack_frame_id=28}
  ROOT %select_n.146 = s32[35]{0:T(128)S(1)} select(%and.34, %param_0.105, %broadcast_in_dim.41), metadata={op_name="jit(tgmm)/jit(_take)/select_n" stack_frame_id=28}
}

%fused_computation.66 () -> f32[4] {
  %constant.378 = f32[]{:T(128)} constant(0)
  %mul.32 = f32[4]{0:T(128)} broadcast(%constant.378), dimensions={}, metadata={op_name="jit(tgmm)/jit(_linspace)/mul" stack_frame_id=6}
  %constant.381 = f32[]{:T(128)} constant(1)
  %broadcast.363 = f32[4]{0:T(128)} broadcast(%constant.381), dimensions={}, metadata={op_name="jit(tgmm)/jit(_linspace)" stack_frame_id=6}
  %iota.12 = f32[4]{0:T(128)} iota(), iota_dimension=0, metadata={op_name="jit(tgmm)/jit(_linspace)/iota" stack_frame_id=6}
  %constant.364 = f32[]{:T(128)} constant(0.25), metadata={op_name="jit(tgmm)/jit(_linspace)" stack_frame_id=6}
  %broadcast.357 = f32[4]{0:T(128)} broadcast(%constant.364), dimensions={}, metadata={op_name="jit(tgmm)/jit(_linspace)" stack_frame_id=6}
  %multiply.9 = f32[4]{0:T(128)} multiply(%iota.12, %broadcast.357), metadata={op_name="jit(tgmm)/jit(_linspace)/div" stack_frame_id=6}
  %sub.40 = f32[4]{0:T(128)} subtract(%broadcast.363, %multiply.9), metadata={op_name="jit(tgmm)/jit(_linspace)/sub" stack_frame_id=6}
  %mul.21 = f32[4]{0:T(128)} multiply(%mul.32, %sub.40), metadata={op_name="jit(tgmm)/jit(_linspace)/mul" stack_frame_id=6}
  %iota.14 = f32[4]{0:T(128)} iota(), iota_dimension=0, metadata={op_name="jit(tgmm)/jit(_linspace)/iota" stack_frame_id=6}
  %constant.356 = f32[]{:T(128)} constant(0.75), metadata={op_name="jit(tgmm)/jit(_linspace)/mul" stack_frame_id=6}
  %broadcast.356 = f32[4]{0:T(128)} broadcast(%constant.356), dimensions={}, metadata={op_name="jit(tgmm)/jit(_linspace)/mul" stack_frame_id=6}
  %mul.23 = f32[4]{0:T(128)} multiply(%iota.14, %broadcast.356), metadata={op_name="jit(tgmm)/jit(_linspace)/mul" stack_frame_id=6}
  ROOT %add.159 = f32[4]{0:T(128)S(1)} add(%mul.21, %mul.23), metadata={op_name="jit(tgmm)/jit(_linspace)/add" stack_frame_id=6}
}

%region_14.41 (reduce_sum.3: s32[], reduce_sum.4: s32[]) -> s32[] {
  %reduce_sum.4 = s32[]{:T(128)} parameter(1), metadata={op_name="reduce_sum"}, backend_config={"flag_configs":[],"scoped_memory_configs":[{"memory_space":"1","offset":"0","size":"33554432"}],"used_scoped_memory_configs":[]}
  %reduce_sum.3 = s32[]{:T(128)} parameter(0), metadata={op_name="reduce_sum"}, backend_config={"flag_configs":[],"scoped_memory_configs":[{"memory_space":"1","offset":"0","size":"33554432"}],"used_scoped_memory_configs":[]}
  ROOT %reduce_sum.5 = s32[]{:T(128)} add(%reduce_sum.3, %reduce_sum.4), metadata={op_name="jit(tgmm)/reduce_sum" stack_frame_id=16}, backend_config={"flag_configs":[],"scoped_memory_configs":[{"memory_space":"1","offset":"0","size":"33554432"}],"used_scoped_memory_configs":[],"aliasing_operands":{"lists":[{"indices":["0","2"]}]}}
}

%fused_computation.67 (param_0.302: s32[35], param_1.367: s32[35], param_2.376: s32[35]) -> (s32[], s32[35]) {
  %param_2.376 = s32[35]{0:T(128)S(1)} parameter(2)
  %constant.398 = s32[]{:T(128)} constant(0)
  %broadcast.401.clone.1 = s32[35]{0:T(128)} broadcast(%constant.398), dimensions={}
  %lt.82.clone.1 = pred[35]{0:T(512)(128)(4,1)} compare(%param_2.376, %broadcast.401.clone.1), direction=LT, metadata={op_name="jit(tgmm)/jit(_take)/lt" stack_frame_id=6}
  %param_1.367 = s32[35]{0:T(128)S(1)} parameter(1)
  %select_n.206.clone.1 = s32[35]{0:T(128)} select(%lt.82.clone.1, %param_1.367, %param_2.376), metadata={op_name="jit(tgmm)/jit(_take)/jit(_where)/select_n" stack_frame_id=6}
  %ge.17.clone.1 = pred[35]{0:T(512)(128)(4,1)} compare(%select_n.206.clone.1, %broadcast.401.clone.1), direction=GE, metadata={op_name="jit(tgmm)/jit(_take)/ge" stack_frame_id=28}
  %constant.429.clone.1 = s32[]{:T(128)} constant(31)
  %broadcast.400.clone.1 = s32[35]{0:T(128)} broadcast(%constant.429.clone.1), dimensions={}, metadata={op_name="jit(tgmm)/jit(_take)/add" stack_frame_id=6}
  %le.22.clone.1 = pred[35]{0:T(512)(128)(4,1)} compare(%select_n.206.clone.1, %broadcast.400.clone.1), direction=LE, metadata={op_name="jit(tgmm)/jit(_take)/le" stack_frame_id=28}
  %and.84.clone.1 = pred[35]{0:T(512)(128)(4,1)} and(%ge.17.clone.1, %le.22.clone.1), metadata={op_name="jit(tgmm)/jit(_take)/and" stack_frame_id=28}
  %param_0.302 = s32[35]{0:T(128)S(1)} parameter(0)
  %constant.427.clone.1 = s32[]{:T(128)} constant(-2147483648), metadata={op_name="jit(tgmm)/jit(_take)" stack_frame_id=6}
  %broadcast_in_dim.47.clone.1 = s32[35]{0:T(128)} broadcast(%constant.427.clone.1), dimensions={}, metadata={op_name="jit(tgmm)/jit(_take)/broadcast_in_dim" stack_frame_id=28}
  %select_n.205.clone.1 = s32[35]{0:T(128)S(1)} select(%and.84.clone.1, %param_0.302, %broadcast_in_dim.47.clone.1), metadata={op_name="jit(tgmm)/jit(_take)/select_n" stack_frame_id=28}
  %lt.75 = pred[35]{0:T(512)(128)(4,1)} compare(%select_n.205.clone.1, %broadcast.401.clone.1), direction=LT, metadata={op_name="jit(tgmm)/lt" stack_frame_id=16}
  %convert_element_type.21 = s32[35]{0:T(128)} convert(%lt.75), metadata={op_name="jit(tgmm)/convert_element_type" stack_frame_id=16}
  %reduce_sum.0 = s32[]{:T(128)} reduce(%convert_element_type.21, %constant.398), dimensions={0}, to_apply=%region_14.41, metadata={op_name="jit(tgmm)/reduce_sum" stack_frame_id=16}
  ROOT %tuple.31 = (s32[]{:T(128)}, s32[35]{0:T(128)S(1)}) tuple(%reduce_sum.0, %select_n.205.clone.1)
}

%region_15.45 (reduce_sum.10: s32[], reduce_sum.11: s32[]) -> s32[] {
  %reduce_sum.11 = s32[]{:T(128)} parameter(1), metadata={op_name="reduce_sum"}, backend_config={"flag_configs":[],"scoped_memory_configs":[{"memory_space":"1","offset":"0","size":"33554432"}],"used_scoped_memory_configs":[]}
  %reduce_sum.10 = s32[]{:T(128)} parameter(0), metadata={op_name="reduce_sum"}, backend_config={"flag_configs":[],"scoped_memory_configs":[{"memory_space":"1","offset":"0","size":"33554432"}],"used_scoped_memory_configs":[]}
  ROOT %reduce_sum.12 = s32[]{:T(128)} add(%reduce_sum.10, %reduce_sum.11), metadata={op_name="jit(tgmm)/reduce_sum" stack_frame_id=16}, backend_config={"flag_configs":[],"scoped_memory_configs":[{"memory_space":"1","offset":"0","size":"33554432"}],"used_scoped_memory_configs":[],"aliasing_operands":{"lists":[{"indices":["0","2"]}]}}
}

%fused_computation.68 (param_0.306: s32[31], param_1.373: s32[1], param_2.386: s32[32], param_3.260: s32[32]) -> (s32[], s32[32]) {
  %iota.15 = s32[32]{0:T(128)} iota(), iota_dimension=0, metadata={op_name="jit(tgmm)/iota" stack_frame_id=16}
  %constant.411 = s32[]{:T(128)} constant(31)
  %le.21 = s32[32]{0:T(128)} broadcast(%constant.411), dimensions={}, metadata={op_name="jit(tgmm)/le" stack_frame_id=16}
  %le.20 = pred[32]{0:T(512)(128)(4,1)} compare(%iota.15, %le.21), direction=LE, metadata={op_name="jit(tgmm)/le" stack_frame_id=16}
  %param_3.260 = s32[32]{0:T(128)} parameter(3)
  %constant.400 = s32[]{:T(128)} constant(0)
  %broadcast.406.clone.1 = s32[32]{0:T(128)} broadcast(%constant.400), dimensions={}
  %eq.52.clone.1 = pred[32]{0:T(512)(128)(4,1)} compare(%param_3.260, %broadcast.406.clone.1), direction=EQ, metadata={op_name="jit(tgmm)/eq" stack_frame_id=16}
  %constant.435.clone.1 = s32[]{:T(128)} constant(1)
  %broadcast_in_dim.48.clone.1 = s32[32]{0:T(128)} broadcast(%constant.435.clone.1), dimensions={}, metadata={op_name="jit(tgmm)/jit(_where)/broadcast_in_dim" stack_frame_id=6}
  %param_2.386 = s32[32]{0:T(128)S(1)} parameter(2)
  %constant.432.clone.1 = s32[]{:T(128)} constant(2047), metadata={op_name="jit(tgmm)/jit(floor_divide)/rem" stack_frame_id=6}
  %broadcast.402.clone.1 = s32[32]{0:T(128)} broadcast(%constant.432.clone.1), dimensions={}, metadata={op_name="jit(tgmm)/sub" stack_frame_id=16}
  %add.206.clone.1 = s32[32]{0:T(128)} add(%param_2.386, %broadcast.402.clone.1), metadata={op_name="jit(tgmm)/sub" stack_frame_id=16}
  %sign.29.clone.1 = s32[32]{0:T(128)} sign(%add.206.clone.1), metadata={op_name="jit(tgmm)/jit(floor_divide)/sign" stack_frame_id=6}
  %ne.121.clone.1 = pred[32]{0:T(512)(128)(4,1)} compare(%sign.29.clone.1, %broadcast_in_dim.48.clone.1), direction=NE, metadata={op_name="jit(tgmm)/jit(floor_divide)/ne" stack_frame_id=6}
  %compare.143.clone.1 = pred[32]{0:T(512)(128)(4,1)} compare(%add.206.clone.1, %broadcast.406.clone.1), direction=LT, metadata={op_name="jit(tgmm)/jit(floor_divide)/rem" stack_frame_id=6}
  %negate.116.clone.1 = s32[32]{0:T(128)} negate(%add.206.clone.1), metadata={op_name="jit(tgmm)/jit(floor_divide)/rem" stack_frame_id=6}
  %select.207.clone.1 = s32[32]{0:T(128)} select(%compare.143.clone.1, %negate.116.clone.1, %add.206.clone.1), metadata={op_name="jit(tgmm)/jit(floor_divide)/rem" stack_frame_id=6}
  %and.90.clone.1 = s32[32]{0:T(128)} and(%select.207.clone.1, %broadcast.402.clone.1), metadata={op_name="jit(tgmm)/jit(floor_divide)/rem" stack_frame_id=6}
  %negate.115.clone.1 = s32[32]{0:T(128)} negate(%and.90.clone.1), metadata={op_name="jit(tgmm)/jit(floor_divide)/rem" stack_frame_id=6}
  %select.206.clone.1 = s32[32]{0:T(128)} select(%compare.143.clone.1, %negate.115.clone.1, %and.90.clone.1), metadata={op_name="jit(tgmm)/jit(floor_divide)/rem" stack_frame_id=6}
  %ne.120.clone.1 = pred[32]{0:T(512)(128)(4,1)} compare(%select.206.clone.1, %broadcast.406.clone.1), direction=NE, metadata={op_name="jit(tgmm)/jit(floor_divide)/ne" stack_frame_id=6}
  %and.89.clone.1 = pred[32]{0:T(512)(128)(4,1)} and(%ne.121.clone.1, %ne.120.clone.1), metadata={op_name="jit(tgmm)/jit(floor_divide)/and" stack_frame_id=6}
  %constant.431.clone.1 = s32[]{:T(128)} constant(11), metadata={op_name="jit(tgmm)/jit(floor_divide)/div" stack_frame_id=6}
  %broadcast.403.clone.1 = s32[32]{0:T(128)} broadcast(%constant.431.clone.1), dimensions={}, metadata={op_name="jit(tgmm)/jit(floor_divide)/div" stack_frame_id=6}
  %shift-right-logical.35.clone.1 = s32[32]{0:T(128)} shift-right-logical(%select.207.clone.1, %broadcast.403.clone.1), metadata={op_name="jit(tgmm)/jit(floor_divide)/div" stack_frame_id=6}
  %negate.114.clone.1 = s32[32]{0:T(128)} negate(%shift-right-logical.35.clone.1), metadata={op_name="jit(tgmm)/jit(floor_divide)/div" stack_frame_id=6}
  %select.205.clone.1 = s32[32]{0:T(128)} select(%compare.143.clone.1, %negate.114.clone.1, %shift-right-logical.35.clone.1), metadata={op_name="jit(tgmm)/jit(floor_divide)/div" stack_frame_id=6}
  %constant.430.clone.1 = s32[]{:T(128)} constant(-1)
  %broadcast.404.clone.1 = s32[32]{0:T(128)} broadcast(%constant.430.clone.1), dimensions={}
  %add.205.clone.1 = s32[32]{0:T(128)} add(%select.205.clone.1, %broadcast.404.clone.1), metadata={op_name="jit(tgmm)/jit(floor_divide)/sub" stack_frame_id=6}
  %select_n.211.clone.1 = s32[32]{0:T(128)} select(%and.89.clone.1, %add.205.clone.1, %select.205.clone.1), metadata={op_name="jit(tgmm)/jit(floor_divide)/jit(_where)/select_n" stack_frame_id=6}
  %constant.433.clone.1 = s32[]{:T(128)} constant(2048)
  %broadcast.405.clone.1 = s32[32]{0:T(128)} broadcast(%constant.433.clone.1), dimensions={}
  %mul.34.clone.1 = s32[32]{0:T(128)} multiply(%select_n.211.clone.1, %broadcast.405.clone.1), metadata={op_name="jit(tgmm)/mul" stack_frame_id=16}
  %param_1.373 = s32[1]{0:T(128)} parameter(1)
  %pad.51.clone.1 = s32[32]{0:T(128)} pad(%param_1.373, %constant.400), padding=0_31, metadata={op_name="jit(tgmm)/concatenate" stack_frame_id=16}
  %param_0.306 = s32[31]{0:T(128)S(1)} parameter(0)
  %pad.50.clone.1 = s32[32]{0:T(128)} pad(%param_0.306, %constant.400), padding=1_0, metadata={op_name="jit(tgmm)/concatenate" stack_frame_id=16}
  %add.204.clone.1 = s32[32]{0:T(128)} add(%pad.51.clone.1, %pad.50.clone.1), metadata={op_name="jit(tgmm)/concatenate" stack_frame_id=16}
  %sign.28.clone.1 = s32[32]{0:T(128)} sign(%add.204.clone.1), metadata={op_name="jit(tgmm)/jit(floor_divide)/sign" stack_frame_id=6}
  %ne.119.clone.1 = pred[32]{0:T(512)(128)(4,1)} compare(%sign.28.clone.1, %broadcast_in_dim.48.clone.1), direction=NE, metadata={op_name="jit(tgmm)/jit(floor_divide)/ne" stack_frame_id=6}
  %compare.142.clone.1 = pred[32]{0:T(512)(128)(4,1)} compare(%add.204.clone.1, %broadcast.406.clone.1), direction=LT, metadata={op_name="jit(tgmm)/jit(floor_divide)/rem" stack_frame_id=6}
  %negate.113.clone.1 = s32[32]{0:T(128)} negate(%add.204.clone.1), metadata={op_name="jit(tgmm)/jit(floor_divide)/rem" stack_frame_id=6}
  %select.204.clone.1 = s32[32]{0:T(128)} select(%compare.142.clone.1, %negate.113.clone.1, %add.204.clone.1), metadata={op_name="jit(tgmm)/jit(floor_divide)/rem" stack_frame_id=6}
  %and.88.clone.1 = s32[32]{0:T(128)} and(%select.204.clone.1, %broadcast.402.clone.1), metadata={op_name="jit(tgmm)/jit(floor_divide)/rem" stack_frame_id=6}
  %negate.112.clone.1 = s32[32]{0:T(128)} negate(%and.88.clone.1), metadata={op_name="jit(tgmm)/jit(floor_divide)/rem" stack_frame_id=6}
  %select.203.clone.1 = s32[32]{0:T(128)} select(%compare.142.clone.1, %negate.112.clone.1, %and.88.clone.1), metadata={op_name="jit(tgmm)/jit(floor_divide)/rem" stack_frame_id=6}
  %ne.118.clone.1 = pred[32]{0:T(512)(128)(4,1)} compare(%select.203.clone.1, %broadcast.406.clone.1), direction=NE, metadata={op_name="jit(tgmm)/jit(floor_divide)/ne" stack_frame_id=6}
  %and.87.clone.1 = pred[32]{0:T(512)(128)(4,1)} and(%ne.119.clone.1, %ne.118.clone.1), metadata={op_name="jit(tgmm)/jit(floor_divide)/and" stack_frame_id=6}
  %shift-right-logical.34.clone.1 = s32[32]{0:T(128)} shift-right-logical(%select.204.clone.1, %broadcast.403.clone.1), metadata={op_name="jit(tgmm)/jit(floor_divide)/div" stack_frame_id=6}
  %negate.111.clone.1 = s32[32]{0:T(128)} negate(%shift-right-logical.34.clone.1), metadata={op_name="jit(tgmm)/jit(floor_divide)/div" stack_frame_id=6}
  %select.202.clone.1 = s32[32]{0:T(128)} select(%compare.142.clone.1, %negate.111.clone.1, %shift-right-logical.34.clone.1), metadata={op_name="jit(tgmm)/jit(floor_divide)/div" stack_frame_id=6}
  %add.203.clone.1 = s32[32]{0:T(128)} add(%select.202.clone.1, %broadcast.404.clone.1), metadata={op_name="jit(tgmm)/jit(floor_divide)/sub" stack_frame_id=6}
  %select_n.210.clone.1 = s32[32]{0:T(128)} select(%and.87.clone.1, %add.203.clone.1, %select.202.clone.1), metadata={op_name="jit(tgmm)/jit(floor_divide)/jit(_where)/select_n" stack_frame_id=6}
  %mul.33.clone.1 = s32[32]{0:T(128)} multiply(%select_n.210.clone.1, %broadcast.405.clone.1), metadata={op_name="jit(tgmm)/mul" stack_frame_id=16}
  %sub.45.clone.1 = s32[32]{0:T(128)} subtract(%mul.34.clone.1, %mul.33.clone.1), metadata={op_name="jit(tgmm)/sub" stack_frame_id=16}
  %select_n.209.clone.1 = s32[32]{0:T(128)} select(%eq.52.clone.1, %broadcast.406.clone.1, %sub.45.clone.1), metadata={op_name="jit(tgmm)/jit(_where)/select_n" stack_frame_id=6}
  %sign.27.clone.1 = s32[32]{0:T(128)} sign(%select_n.209.clone.1), metadata={op_name="jit(tgmm)/jit(floor_divide)/sign" stack_frame_id=6}
  %ne.117.clone.1 = pred[32]{0:T(512)(128)(4,1)} compare(%sign.27.clone.1, %broadcast_in_dim.48.clone.1), direction=NE, metadata={op_name="jit(tgmm)/jit(floor_divide)/ne" stack_frame_id=6}
  %compare.141.clone.1 = pred[32]{0:T(512)(128)(4,1)} compare(%select_n.209.clone.1, %broadcast.406.clone.1), direction=LT, metadata={op_name="jit(tgmm)/jit(floor_divide)/rem" stack_frame_id=6}
  %negate.110.clone.1 = s32[32]{0:T(128)} negate(%select_n.209.clone.1), metadata={op_name="jit(tgmm)/jit(floor_divide)/rem" stack_frame_id=6}
  %select.201.clone.1 = s32[32]{0:T(128)} select(%compare.141.clone.1, %negate.110.clone.1, %select_n.209.clone.1), metadata={op_name="jit(tgmm)/jit(floor_divide)/rem" stack_frame_id=6}
  %and.86.clone.1 = s32[32]{0:T(128)} and(%select.201.clone.1, %broadcast.402.clone.1), metadata={op_name="jit(tgmm)/jit(floor_divide)/rem" stack_frame_id=6}
  %negate.109.clone.1 = s32[32]{0:T(128)} negate(%and.86.clone.1), metadata={op_name="jit(tgmm)/jit(floor_divide)/rem" stack_frame_id=6}
  %select.200.clone.1 = s32[32]{0:T(128)} select(%compare.141.clone.1, %negate.109.clone.1, %and.86.clone.1), metadata={op_name="jit(tgmm)/jit(floor_divide)/rem" stack_frame_id=6}
  %ne.116.clone.1 = pred[32]{0:T(512)(128)(4,1)} compare(%select.200.clone.1, %broadcast.406.clone.1), direction=NE, metadata={op_name="jit(tgmm)/jit(floor_divide)/ne" stack_frame_id=6}
  %and.85.clone.1 = pred[32]{0:T(512)(128)(4,1)} and(%ne.117.clone.1, %ne.116.clone.1), metadata={op_name="jit(tgmm)/jit(floor_divide)/and" stack_frame_id=6}
  %shift-right-logical.33.clone.1 = s32[32]{0:T(128)} shift-right-logical(%select.201.clone.1, %broadcast.403.clone.1), metadata={op_name="jit(tgmm)/jit(floor_divide)/div" stack_frame_id=6}
  %negate.108.clone.1 = s32[32]{0:T(128)} negate(%shift-right-logical.33.clone.1), metadata={op_name="jit(tgmm)/jit(floor_divide)/div" stack_frame_id=6}
  %select.199.clone.1 = s32[32]{0:T(128)} select(%compare.141.clone.1, %negate.108.clone.1, %shift-right-logical.33.clone.1), metadata={op_name="jit(tgmm)/jit(floor_divide)/div" stack_frame_id=6}
  %add.202.clone.1 = s32[32]{0:T(128)} add(%select.199.clone.1, %broadcast.404.clone.1), metadata={op_name="jit(tgmm)/jit(floor_divide)/sub" stack_frame_id=6}
  %select_n.208.clone.1 = s32[32]{0:T(128)} select(%and.85.clone.1, %add.202.clone.1, %select.199.clone.1), metadata={op_name="jit(tgmm)/jit(floor_divide)/jit(_where)/select_n" stack_frame_id=6}
  %select_n.207.clone.1 = s32[32]{0:T(128)S(1)} select(%eq.52.clone.1, %broadcast_in_dim.48.clone.1, %select_n.208.clone.1), metadata={op_name="jit(tgmm)/jit(_where)/select_n" stack_frame_id=6}
  %select_n.168 = s32[32]{0:T(128)} select(%le.20, %select_n.207.clone.1, %broadcast.406.clone.1), metadata={op_name="jit(tgmm)/jit(_where)/select_n" stack_frame_id=6}
  %reduce_sum.1 = s32[]{:T(128)} reduce(%select_n.168, %constant.400), dimensions={0}, to_apply=%region_15.45, metadata={op_name="jit(tgmm)/reduce_sum" stack_frame_id=16}
  ROOT %tuple.32 = (s32[]{:T(128)}, s32[32]{0:T(128)S(1)}) tuple(%reduce_sum.1, %select_n.207.clone.1)
}

%fused_computation.69 (param_0.215: s32[4,1]) -> s32[4] {
  %param_0.215 = s32[4,1]{0,1:T(1,128)S(1)} parameter(0)
  %constant.402 = s32[]{:T(128)} constant(0)
  %broadcast.351 = s32[4,1]{0,1:T(1,128)} broadcast(%constant.402), dimensions={}
  %lt.81 = pred[4,1]{0,1:T(4,128)(4,1)} compare(%param_0.215, %broadcast.351), direction=LT, metadata={op_name="jit(tgmm)/lt" stack_frame_id=16}
  %constant.404 = s32[]{:T(128)} constant(35)
  %broadcast.350 = s32[4,1]{0,1:T(1,128)} broadcast(%constant.404), dimensions={}
  %add.165 = s32[4,1]{0,1:T(1,128)} add(%param_0.215, %broadcast.350), metadata={op_name="jit(tgmm)/add" stack_frame_id=16}
  %select_n.174 = s32[4,1]{0,1:T(1,128)} select(%lt.81, %add.165, %param_0.215), metadata={op_name="jit(tgmm)/select_n" stack_frame_id=16}
  ROOT %bitcast.17 = s32[4]{0:T(128)S(1)} bitcast(%select_n.174), metadata={op_name="jit(tgmm)/select_n" stack_frame_id=16}
}

%fused_computation.71 (param_0.219: s32[32], param_1.338: s32[1]) -> s32[33] {
  %param_1.338 = s32[1]{0:T(128)} parameter(1)
  %constant.399 = s32[]{:T(128)} constant(0)
  %pad.23 = s32[33]{0:T(128)} pad(%param_1.338, %constant.399), padding=0_32, metadata={op_name="jit(tgmm)/concatenate" stack_frame_id=16}
  %param_0.219 = s32[32]{0:T(128)S(1)} parameter(0)
  %pad.22 = s32[33]{0:T(128)} pad(%param_0.219, %constant.399), padding=1_0, metadata={op_name="jit(tgmm)/concatenate" stack_frame_id=16}
  ROOT %add.167 = s32[33]{0:T(128)S(1)} add(%pad.23, %pad.22), metadata={op_name="jit(tgmm)/concatenate" stack_frame_id=16}
}

%fused_computation.72 (param_0.222: s32[31], param_1.333: s32[1]) -> s32[32,1] {
  %param_1.333 = s32[1]{0:T(128)} parameter(1)
  %constant.388 = s32[]{:T(128)} constant(0)
  %pad.25 = s32[32]{0:T(128)} pad(%param_1.333, %constant.388), padding=0_31, metadata={op_name="jit(tgmm)/jit(_roll_static)/concatenate" stack_frame_id=6}
  %param_0.222 = s32[31]{0:T(128)S(1)} parameter(0)
  %pad.24 = s32[32]{0:T(128)} pad(%param_0.222, %constant.388), padding=1_0, metadata={op_name="jit(tgmm)/jit(_roll_static)/concatenate" stack_frame_id=6}
  %add.168 = s32[32]{0:T(128)} add(%pad.25, %pad.24), metadata={op_name="jit(tgmm)/jit(_roll_static)/concatenate" stack_frame_id=6}
  ROOT %bitcast.18 = s32[32,1]{0,1:T(1,128)S(1)} bitcast(%add.168)
}

%fused_computation.73 (param_0.224: s32[35]) -> s32[70] {
  %param_0.224 = s32[35]{0:T(128)S(1)} parameter(0)
  %constant.386 = s32[]{:T(128)} constant(0)
  %pad.27 = s32[70]{0:T(128)} pad(%param_0.224, %constant.386), padding=0_35, metadata={op_name="jit(tgmm)/jit(_roll_dynamic)/concatenate" stack_frame_id=6}
  %pad.26 = s32[70]{0:T(128)} pad(%param_0.224, %constant.386), padding=35_0, metadata={op_name="jit(tgmm)/jit(_roll_dynamic)/concatenate" stack_frame_id=6}
  ROOT %add.169 = s32[70]{0:T(128)S(1)} add(%pad.27, %pad.26), metadata={op_name="jit(tgmm)/jit(_roll_dynamic)/concatenate" stack_frame_id=6}
}

%fused_computation.74 (param_0.226: f32[1], param_1.329: f32[4]) -> f32[5] {
  %param_1.329 = f32[4]{0:T(128)S(1)} parameter(1)
  %constant.354 = f32[]{:T(128)} constant(-inf)
  %pad.29 = f32[5]{0:T(128)} pad(%param_1.329, %constant.354), padding=0_1, metadata={op_name="jit(tgmm)/jit(_linspace)/concatenate" stack_frame_id=6}
  %param_0.226 = f32[1]{0:T(128)} parameter(0)
  %pad.28 = f32[5]{0:T(128)} pad(%param_0.226, %constant.354), padding=4_0, metadata={op_name="jit(tgmm)/jit(_linspace)/concatenate" stack_frame_id=6}
  ROOT %maximum.1 = f32[5]{0:T(128)S(1)} maximum(%pad.29, %pad.28), metadata={op_name="jit(tgmm)/jit(_linspace)/concatenate" stack_frame_id=6}
}

%fused_computation.75 (param_0.229: s32[3], param_1.332: s32[1]) -> s32[4,1] {
  %param_1.332 = s32[1]{0:T(128)} parameter(1)
  %constant.385 = s32[]{:T(128)} constant(0)
  %pad.31 = s32[4]{0:T(128)} pad(%param_1.332, %constant.385), padding=0_3, metadata={op_name="jit(tgmm)/jit(_roll_static)/concatenate" stack_frame_id=6}
  %param_0.229 = s32[3]{0:T(128)S(1)} parameter(0)
  %pad.30 = s32[4]{0:T(128)} pad(%param_0.229, %constant.385), padding=1_0, metadata={op_name="jit(tgmm)/jit(_roll_static)/concatenate" stack_frame_id=6}
  %add.170 = s32[4]{0:T(128)} add(%pad.31, %pad.30), metadata={op_name="jit(tgmm)/jit(_roll_static)/concatenate" stack_frame_id=6}
  ROOT %bitcast.19 = s32[4,1]{0,1:T(1,128)S(1)} bitcast(%add.170)
}

%fused_computation.76 (param_0.231: s32[35]) -> s32[70] {
  %param_0.231 = s32[35]{0:T(128)S(1)} parameter(0)
  %constant.387 = s32[]{:T(128)} constant(0)
  %pad.33 = s32[70]{0:T(128)} pad(%param_0.231, %constant.387), padding=0_35, metadata={op_name="jit(tgmm)/jit(_roll_dynamic)/concatenate" stack_frame_id=6}
  %pad.32 = s32[70]{0:T(128)} pad(%param_0.231, %constant.387), padding=35_0, metadata={op_name="jit(tgmm)/jit(_roll_dynamic)/concatenate" stack_frame_id=6}
  ROOT %add.171 = s32[70]{0:T(128)S(1)} add(%pad.33, %pad.32), metadata={op_name="jit(tgmm)/jit(_roll_dynamic)/concatenate" stack_frame_id=6}
}

%fused_computation.81 (param_0.258: f32[5]) -> s32[4] {
  %param_0.258 = f32[5]{0:T(128)S(1)} parameter(0)
  %slice.56 = f32[4]{0:T(128)} slice(%param_0.258), slice={[1:5]}, metadata={op_name="jit(tgmm)/slice" stack_frame_id=16}
  %constant.380 = f32[]{:T(128)} constant(1)
  %broadcast.362 = f32[4]{0:T(128)} broadcast(%constant.380), dimensions={}, metadata={op_name="jit(tgmm)/jit(_linspace)" stack_frame_id=6}
  %add.193 = f32[4]{0:T(128)} add(%slice.56, %broadcast.362), metadata={op_name="jit(tgmm)/add" stack_frame_id=16}
  ROOT %convert_element_type.23 = s32[4]{0:T(128)S(1)} convert(%add.193), metadata={op_name="jit(tgmm)/convert_element_type" stack_frame_id=16}
}

%region_12.38 (scatter-add.12: s32[], scatter-add.13: s32[]) -> s32[] {
  %scatter-add.13 = s32[]{:T(128)} parameter(1), metadata={op_name="scatter-add"}, backend_config={"flag_configs":[],"scoped_memory_configs":[{"memory_space":"1","offset":"0","size":"0"}],"used_scoped_memory_configs":[]}
  %scatter-add.12 = s32[]{:T(128)} parameter(0), metadata={op_name="scatter-add"}, backend_config={"flag_configs":[],"scoped_memory_configs":[{"memory_space":"1","offset":"0","size":"0"}],"used_scoped_memory_configs":[]}
  ROOT %add.26 = s32[]{:T(128)} add(%scatter-add.12, %scatter-add.13), metadata={op_name="jit(tgmm)/add" stack_frame_id=22}, backend_config={"flag_configs":[],"scoped_memory_configs":[{"memory_space":"1","offset":"0","size":"33554432"}],"used_scoped_memory_configs":[],"aliasing_operands":{"lists":[{"indices":["0","2"]}]}}
}

%fused_computation.3.clone (param_0.266: s32[35], param_1.319: s32[4], param_2.329: s32[4]) -> s32[35] {
  %param_0.266 = s32[35]{0:T(128)} parameter(0)
  %param_1.319 = s32[4]{0:T(128)S(1)} parameter(1)
  %reshape.240 = s32[4]{0:T(128)} reshape(%param_1.319), metadata={op_name="jit(tgmm)/select_n" stack_frame_id=16}
  %transpose.40 = s32[4]{0:T(128)} transpose(%reshape.240), dimensions={0}, metadata={op_name="jit(tgmm)/select_n" stack_frame_id=16}
  %param_2.329 = s32[4]{0:T(128)S(1)} parameter(2)
  %reshape.241 = s32[4]{0:T(128)} reshape(%param_2.329)
  %transpose.41 = s32[4]{0:T(128)} transpose(%reshape.241), dimensions={0}
  ROOT %scatter-add.5 = s32[35]{0:T(128)S(1)} scatter(%param_0.266, %transpose.40, %transpose.41), update_window_dims={}, inserted_window_dims={0}, scatter_dims_to_operand_dims={0}, index_vector_dim=1, to_apply=%region_12.38, metadata={op_name="jit(tgmm)/scatter-add" stack_frame_id=16}
}

%fused_computation.84 (param_0.269: s32[]) -> s32[35] {
  %param_0.269 = s32[]{:T(128)} parameter(0)
  ROOT %broadcast.373 = s32[35]{0:T(128)} broadcast(%param_0.269), dimensions={}
}

%fused_computation.83 (param_0.268: s32[4], param_1.321: s32[4], param_2.331: s32[]) -> s32[35] {
  %param_2.331 = s32[]{:T(128)} parameter(2)
  %fusion.20 = s32[35]{0:T(128)} fusion(%param_2.331), kind=kLoop, calls=%fused_computation.84
  %param_0.268 = s32[4]{0:T(128)S(1)} parameter(0)
  %param_1.321 = s32[4]{0:T(128)S(1)} parameter(1)
  ROOT %scatter_custom_fusion.3 = s32[35]{0:T(128)S(1)} fusion(%fusion.20, %param_0.268, %param_1.321), kind=kCustom, calls=%fused_computation.3.clone, metadata={op_name="jit(tgmm)/scatter-add" stack_frame_id=16}
}

%region_2.9 (scatter-add.2: s32[], scatter-add.3: s32[]) -> s32[] {
  %scatter-add.3 = s32[]{:T(128)} parameter(1), metadata={op_name="scatter-add"}, backend_config={"flag_configs":[],"scoped_memory_configs":[{"memory_space":"1","offset":"0","size":"0"}],"used_scoped_memory_configs":[]}
  %scatter-add.2 = s32[]{:T(128)} parameter(0), metadata={op_name="scatter-add"}, backend_config={"flag_configs":[],"scoped_memory_configs":[{"memory_space":"1","offset":"0","size":"0"}],"used_scoped_memory_configs":[]}
  ROOT %add.5 = s32[]{:T(128)} add(%scatter-add.2, %scatter-add.3), metadata={op_name="jit(tgmm)/add" stack_frame_id=22}, backend_config={"flag_configs":[],"scoped_memory_configs":[{"memory_space":"1","offset":"0","size":"33554432"}],"used_scoped_memory_configs":[],"aliasing_operands":{"lists":[{"indices":["0","2"]}]}}
}

%fused_computation.1.clone (param_0.270: s32[35], param_1.322: s32[32], param_2.332: s32[32]) -> s32[35] {
  %param_0.270 = s32[35]{0:T(128)} parameter(0)
  %param_1.322 = s32[32]{0:T(128)S(1)} parameter(1)
  %reshape.242 = s32[32]{0:T(128)} reshape(%param_1.322), metadata={op_name="jit(tgmm)/select_n" stack_frame_id=16}
  %transpose.42 = s32[32]{0:T(128)} transpose(%reshape.242), dimensions={0}, metadata={op_name="jit(tgmm)/select_n" stack_frame_id=16}
  %param_2.332 = s32[32]{0:T(128)S(1)} parameter(2)
  %reshape.243 = s32[32]{0:T(128)} reshape(%param_2.332), metadata={op_name="jit(tgmm)/jit(_where)/broadcast_in_dim" stack_frame_id=6}
  %transpose.43 = s32[32]{0:T(128)} transpose(%reshape.243), dimensions={0}, metadata={op_name="jit(tgmm)/jit(_where)/broadcast_in_dim" stack_frame_id=6}
  ROOT %scatter-add.6 = s32[35]{0:T(128)S(1)} scatter(%param_0.270, %transpose.42, %transpose.43), update_window_dims={}, inserted_window_dims={0}, scatter_dims_to_operand_dims={0}, index_vector_dim=1, to_apply=%region_2.9, metadata={op_name="jit(tgmm)/scatter-add" stack_frame_id=16}
}

%fused_computation.86 (param_0.273: s32[]) -> s32[35] {
  %param_0.273 = s32[]{:T(128)} parameter(0)
  ROOT %broadcast.376 = s32[35]{0:T(128)} broadcast(%param_0.273), dimensions={}
}

%fused_computation.85 (param_0.272: s32[32], param_1.324: s32[32], param_2.334: s32[]) -> s32[35] {
  %param_2.334 = s32[]{:T(128)} parameter(2)
  %fusion.22 = s32[35]{0:T(128)} fusion(%param_2.334), kind=kLoop, calls=%fused_computation.86
  %param_0.272 = s32[32]{0:T(128)S(1)} parameter(0)
  %param_1.324 = s32[32]{0:T(128)S(1)} parameter(1)
  ROOT %scatter_custom_fusion.4 = s32[35]{0:T(128)S(1)} fusion(%fusion.22, %param_0.272, %param_1.324), kind=kCustom, calls=%fused_computation.1.clone, metadata={op_name="jit(tgmm)/scatter-add" stack_frame_id=16}
}

%region_9.32 (scatter-add.7: f32[], scatter-add.8: f32[]) -> f32[] {
  %scatter-add.8 = f32[]{:T(128)} parameter(1), metadata={op_name="scatter-add"}, backend_config={"flag_configs":[],"scoped_memory_configs":[{"memory_space":"1","offset":"0","size":"0"}],"used_scoped_memory_configs":[]}
  %scatter-add.7 = f32[]{:T(128)} parameter(0), metadata={op_name="scatter-add"}, backend_config={"flag_configs":[],"scoped_memory_configs":[{"memory_space":"1","offset":"0","size":"0"}],"used_scoped_memory_configs":[]}
  ROOT %add.22 = f32[]{:T(128)} add(%scatter-add.7, %scatter-add.8), metadata={op_name="jit(tgmm)/add" stack_frame_id=22}, backend_config={"flag_configs":[],"scoped_memory_configs":[{"memory_space":"1","offset":"0","size":"33554432"}],"used_scoped_memory_configs":[],"aliasing_operands":{"lists":[]}}
}

%fused_computation.2.clone (param_0.274: f32[5], param_1.325: s32[32], param_2.335: f32[32]) -> f32[5] {
  %param_0.274 = f32[5]{0:T(128)} parameter(0)
  %param_1.325 = s32[32]{0:T(128)S(1)} parameter(1)
  %reshape.244 = s32[32]{0:T(128)} reshape(%param_1.325), metadata={op_name="jit(tgmm)/broadcast_in_dim" stack_frame_id=16}
  %transpose.44 = s32[32]{0:T(128)} transpose(%reshape.244), dimensions={0}, metadata={op_name="jit(tgmm)/broadcast_in_dim" stack_frame_id=16}
  %param_2.335 = f32[32]{0:T(128)S(1)} parameter(2)
  %reshape.245 = f32[32]{0:T(128)} reshape(%param_2.335), metadata={op_name="jit(tgmm)/broadcast_in_dim" stack_frame_id=16}
  %transpose.45 = f32[32]{0:T(128)} transpose(%reshape.245), dimensions={0}, metadata={op_name="jit(tgmm)/broadcast_in_dim" stack_frame_id=16}
  ROOT %scatter-add.9 = f32[5]{0:T(128)S(1)} scatter(%param_0.274, %transpose.44, %transpose.45), update_window_dims={}, inserted_window_dims={0}, scatter_dims_to_operand_dims={0}, index_vector_dim=1, to_apply=%region_9.32, metadata={op_name="jit(tgmm)/scatter-add" stack_frame_id=16}
}

%fused_computation.88 (param_0.277: f32[]) -> f32[5] {
  %param_0.277 = f32[]{:T(128)} parameter(0)
  ROOT %broadcast.378 = f32[5]{0:T(128)} broadcast(%param_0.277), dimensions={}
}

%fused_computation.87 (param_0.276: s32[32], param_1.327: f32[32], param_2.337: f32[]) -> f32[5] {
  %param_2.337 = f32[]{:T(128)} parameter(2)
  %fusion.24 = f32[5]{0:T(128)} fusion(%param_2.337), kind=kLoop, calls=%fused_computation.88
  %param_0.276 = s32[32]{0:T(128)S(1)} parameter(0)
  %param_1.327 = f32[32]{0:T(128)S(1)} parameter(1)
  ROOT %scatter_custom_fusion.5 = f32[5]{0:T(128)S(1)} fusion(%fusion.24, %param_0.276, %param_1.327), kind=kCustom, calls=%fused_computation.2.clone, metadata={op_name="jit(tgmm)/scatter-add" stack_frame_id=16}
}

%fused_computation.89 (param_0.299: s32[33], param_1.361: s32[32]) -> (pred[32], f32[32]) {
  %param_1.361 = s32[32]{0:T(128)} parameter(1)
  %constant.425.clone.1 = s32[]{:T(128)} constant(0)
  %broadcast.399.clone.1 = s32[32]{0:T(128)} broadcast(%constant.425.clone.1), dimensions={}
  %eq.51.clone.1 = pred[32]{0:T(512)(128)(4,1)} compare(%param_1.361, %broadcast.399.clone.1), direction=EQ, metadata={op_name="jit(tgmm)/eq" stack_frame_id=16}
  %param_0.299 = s32[33]{0:T(128)S(1)} parameter(0)
  %slice.60.clone.1 = s32[32]{0:T(128)} slice(%param_0.299), slice={[0:32]}, metadata={op_name="jit(tgmm)/slice" stack_frame_id=16}
  %compare.140.clone.1 = pred[32]{0:T(512)(128)(4,1)} compare(%slice.60.clone.1, %broadcast.399.clone.1), direction=LT, metadata={op_name="jit(tgmm)/jit(remainder)/rem" stack_frame_id=6}
  %negate.107.clone.1 = s32[32]{0:T(128)} negate(%slice.60.clone.1), metadata={op_name="jit(tgmm)/jit(remainder)/rem" stack_frame_id=6}
  %select.198.clone.1 = s32[32]{0:T(128)} select(%compare.140.clone.1, %negate.107.clone.1, %slice.60.clone.1), metadata={op_name="jit(tgmm)/jit(remainder)/rem" stack_frame_id=6}
  %constant.422.clone.1 = s32[]{:T(128)} constant(2047), metadata={op_name="jit(tgmm)/jit(floor_divide)/rem" stack_frame_id=6}
  %broadcast.395.clone.1 = s32[32]{0:T(128)} broadcast(%constant.422.clone.1), dimensions={}, metadata={op_name="jit(tgmm)/sub" stack_frame_id=16}
  %and.83.clone.1 = s32[32]{0:T(128)} and(%select.198.clone.1, %broadcast.395.clone.1), metadata={op_name="jit(tgmm)/jit(remainder)/rem" stack_frame_id=6}
  %negate.106.clone.1 = s32[32]{0:T(128)} negate(%and.83.clone.1), metadata={op_name="jit(tgmm)/jit(remainder)/rem" stack_frame_id=6}
  %select.197.clone.1 = s32[32]{0:T(128)} select(%compare.140.clone.1, %negate.106.clone.1, %and.83.clone.1), metadata={op_name="jit(tgmm)/jit(remainder)/rem" stack_frame_id=6}
  %ne.115.clone.1 = pred[32]{0:T(512)(128)(4,1)} compare(%select.197.clone.1, %broadcast.399.clone.1), direction=LT, metadata={op_name="jit(tgmm)/jit(remainder)/lt" stack_frame_id=6}
  %ne.114.clone.1 = pred[32]{0:T(512)(128)(4,1)} compare(%select.197.clone.1, %broadcast.399.clone.1), direction=NE, metadata={op_name="jit(tgmm)/jit(remainder)/ne" stack_frame_id=6}
  %and.82.clone.1 = pred[32]{0:T(512)(128)(4,1)} and(%ne.115.clone.1, %ne.114.clone.1), metadata={op_name="jit(tgmm)/jit(remainder)/and" stack_frame_id=6}
  %constant.424.clone.1 = s32[]{:T(128)} constant(2048)
  %broadcast.398.clone.1 = s32[32]{0:T(128)} broadcast(%constant.424.clone.1), dimensions={}
  %add.201.clone.1 = s32[32]{0:T(128)} add(%select.197.clone.1, %broadcast.398.clone.1), metadata={op_name="jit(tgmm)/jit(remainder)/add" stack_frame_id=6}
  %select_n.204.clone.1 = s32[32]{0:T(128)} select(%and.82.clone.1, %add.201.clone.1, %select.197.clone.1), metadata={op_name="jit(tgmm)/jit(remainder)/select_n" stack_frame_id=6}
  %eq.50.clone.1 = pred[32]{0:T(512)(128)(4,1)} compare(%select_n.204.clone.1, %broadcast.399.clone.1), direction=EQ, metadata={op_name="jit(tgmm)/eq" stack_frame_id=16}
  %or.8.clone.1 = pred[32]{0:T(512)(128)(4,1)} or(%eq.50.clone.1, %eq.51.clone.1), metadata={op_name="jit(tgmm)/or" stack_frame_id=16}
  %convert_element_type.28.clone.1 = s32[32]{0:T(128)} convert(%or.8.clone.1), metadata={op_name="jit(tgmm)/jit(_where)/convert_element_type" stack_frame_id=6}
  %select_n.203.clone.1 = s32[32]{0:T(128)} select(%eq.51.clone.1, %broadcast.399.clone.1, %convert_element_type.28.clone.1), metadata={op_name="jit(tgmm)/jit(_where)/select_n" stack_frame_id=6}
  %ne.113.clone.1 = pred[32]{0:T(512)(128)(4,1)} compare(%select_n.203.clone.1, %broadcast.399.clone.1), direction=NE, metadata={op_name="jit(tgmm)/jit(_where)/ne" stack_frame_id=6}
  %constant.423.clone.1 = s32[]{:T(128)} constant(4)
  %broadcast_in_dim.45.clone.1 = s32[32]{0:T(128)} broadcast(%constant.423.clone.1), dimensions={}, metadata={op_name="jit(tgmm)/jit(_where)/broadcast_in_dim" stack_frame_id=6}
  %sign.26.clone.1 = s32[32]{0:T(128)} sign(%slice.60.clone.1), metadata={op_name="jit(tgmm)/jit(floor_divide)/sign" stack_frame_id=6}
  %constant.426.clone.1 = s32[]{:T(128)} constant(1)
  %broadcast_in_dim.46.clone.1 = s32[32]{0:T(128)} broadcast(%constant.426.clone.1), dimensions={}, metadata={op_name="jit(tgmm)/jit(_where)/broadcast_in_dim" stack_frame_id=6}
  %ne.112.clone.1 = pred[32]{0:T(512)(128)(4,1)} compare(%sign.26.clone.1, %broadcast_in_dim.46.clone.1), direction=NE, metadata={op_name="jit(tgmm)/jit(floor_divide)/ne" stack_frame_id=6}
  %and.81.clone.1 = pred[32]{0:T(512)(128)(4,1)} and(%ne.112.clone.1, %ne.114.clone.1), metadata={op_name="jit(tgmm)/jit(floor_divide)/and" stack_frame_id=6}
  %constant.421.clone.1 = s32[]{:T(128)} constant(11), metadata={op_name="jit(tgmm)/jit(floor_divide)/div" stack_frame_id=6}
  %broadcast.396.clone.1 = s32[32]{0:T(128)} broadcast(%constant.421.clone.1), dimensions={}, metadata={op_name="jit(tgmm)/jit(floor_divide)/div" stack_frame_id=6}
  %shift-right-logical.32.clone.1 = s32[32]{0:T(128)} shift-right-logical(%select.198.clone.1, %broadcast.396.clone.1), metadata={op_name="jit(tgmm)/jit(floor_divide)/div" stack_frame_id=6}
  %negate.105.clone.1 = s32[32]{0:T(128)} negate(%shift-right-logical.32.clone.1), metadata={op_name="jit(tgmm)/jit(floor_divide)/div" stack_frame_id=6}
  %select.196.clone.1 = s32[32]{0:T(128)} select(%compare.140.clone.1, %negate.105.clone.1, %shift-right-logical.32.clone.1), metadata={op_name="jit(tgmm)/jit(floor_divide)/div" stack_frame_id=6}
  %constant.420.clone.1 = s32[]{:T(128)} constant(-1)
  %broadcast.397.clone.1 = s32[32]{0:T(128)} broadcast(%constant.420.clone.1), dimensions={}
  %add.200.clone.1 = s32[32]{0:T(128)} add(%select.196.clone.1, %broadcast.397.clone.1), metadata={op_name="jit(tgmm)/jit(floor_divide)/sub" stack_frame_id=6}
  %select_n.202.clone.1 = s32[32]{0:T(128)} select(%and.81.clone.1, %add.200.clone.1, %select.196.clone.1), metadata={op_name="jit(tgmm)/jit(floor_divide)/jit(_where)/select_n" stack_frame_id=6}
  %select_n.201.clone.1 = s32[32]{0:T(128)} select(%ne.113.clone.1, %broadcast_in_dim.45.clone.1, %select_n.202.clone.1), metadata={op_name="jit(tgmm)/jit(_where)/select_n" stack_frame_id=6}
  %convert_element_type.27.clone.1 = f32[32]{0:T(128)S(1)} convert(%select_n.201.clone.1), metadata={op_name="jit(tgmm)/convert_element_type" stack_frame_id=16}
  %ne.111 = pred[32]{0:T(512)(128)(4,1)S(1)} compare(%convert_element_type.27.clone.1, %convert_element_type.27.clone.1), direction=NE, metadata={op_name="jit(tgmm)/jit(searchsorted)/jit(_searchsorted_scan_impl)/vmap(jit(_searchsorted_scan_impl))/while/body/closed_call/ne" stack_frame_id=40}
  ROOT %tuple.30 = (pred[32]{0:T(512)(128)(4,1)S(1)}, f32[32]{0:T(128)S(1)}) tuple(%ne.111, %convert_element_type.27.clone.1)
}

%fused_computation.91 (param_0.308: s32[4]) -> (s32[1], s32[1], s32[1], s32[1]) {
  %param_0.308 = s32[4]{0:T(128)S(1)} parameter(0)
  %slice.66 = s32[1]{0:T(128)} slice(%param_0.308), slice={[3:4]}, metadata={op_name="jit(tgmm)/jit(_take)/gather" stack_frame_id=28}
  %slice.67 = s32[1]{0:T(128)} slice(%param_0.308), slice={[1:2]}, metadata={op_name="jit(tgmm)/jit(_take)/gather" stack_frame_id=28}
  %slice.68 = s32[1]{0:T(128)} slice(%param_0.308), slice={[0:1]}, metadata={op_name="jit(tgmm)/jit(_take)/gather" stack_frame_id=28}
  %slice.69 = s32[1]{0:T(128)} slice(%param_0.308), slice={[2:3]}, metadata={op_name="jit(tgmm)/jit(_take)/gather" stack_frame_id=28}
  ROOT %tuple.39 = (s32[1]{0:T(128)}, s32[1]{0:T(128)}, s32[1]{0:T(128)}, s32[1]{0:T(128)}) tuple(%slice.66, %slice.67, %slice.68, %slice.69)
}

%fused_computation.90.clone.clone (param_0.312: f32[5]) -> (f32[1], f32[1], f32[1], f32[1], f32[1]) {
  %param_0.312 = f32[5]{0:T(128)S(1)} parameter(0)
  %slice.75 = f32[1]{0:T(128)} slice(%param_0.312), slice={[4:5]}, metadata={op_name="jit(tgmm)/jit(searchsorted)/jit(_searchsorted_scan_impl)/vmap(jit(_searchsorted_scan_impl))/while/body/closed_call/gather" stack_frame_id=40}
  %slice.76 = f32[1]{0:T(128)} slice(%param_0.312), slice={[2:3]}, metadata={op_name="jit(tgmm)/jit(searchsorted)/jit(_searchsorted_scan_impl)/vmap(jit(_searchsorted_scan_impl))/while/body/closed_call/gather" stack_frame_id=40}
  %slice.77 = f32[1]{0:T(128)} slice(%param_0.312), slice={[1:2]}, metadata={op_name="jit(tgmm)/jit(searchsorted)/jit(_searchsorted_scan_impl)/vmap(jit(_searchsorted_scan_impl))/while/body/closed_call/gather" stack_frame_id=40}
  %slice.78 = f32[1]{0:T(128)} slice(%param_0.312), slice={[0:1]}, metadata={op_name="jit(tgmm)/jit(searchsorted)/jit(_searchsorted_scan_impl)/vmap(jit(_searchsorted_scan_impl))/while/body/closed_call/gather" stack_frame_id=40}
  %slice.79 = f32[1]{0:T(128)} slice(%param_0.312), slice={[3:4]}, metadata={op_name="jit(tgmm)/jit(searchsorted)/jit(_searchsorted_scan_impl)/vmap(jit(_searchsorted_scan_impl))/while/body/closed_call/gather" stack_frame_id=40}
  ROOT %tuple.47 = (f32[1]{0:T(128)}, f32[1]{0:T(128)}, f32[1]{0:T(128)}, f32[1]{0:T(128)}, f32[1]{0:T(128)}) tuple(%slice.75, %slice.76, %slice.77, %slice.78, %slice.79)
}

%fused_computation.20.clone.clone (param_0.313: u32[32], param_1.376: pred[], param_2.389: u32[32], param_3.263: f32[], param_4.241: f32[], param_5.230: f32[], param_6.201: f32[], param_7.183: f32[], param_8.170: pred[32], param_9.122: f32[32]) -> (u32[32], pred[32]) {
  %param_8.170 = pred[32]{0:T(512)(128)(4,1)S(1)} parameter(8)
  %constant.419.clone.3 = f32[]{:T(128)} constant(nan), metadata={op_name="jit(tgmm)/jit(searchsorted)/jit(_searchsorted_scan_impl)/vmap(jit(_searchsorted_scan_impl))/while/body/closed_call" stack_frame_id=34}
  %broadcast.390.clone.3 = f32[32]{0:T(128)} broadcast(%constant.419.clone.3), dimensions={}, metadata={op_name="jit(tgmm)/jit(searchsorted)/jit(_searchsorted_scan_impl)/vmap(jit(_searchsorted_scan_impl))/while/body/closed_call" stack_frame_id=34}
  %param_9.122 = f32[32]{0:T(128)S(1)} parameter(9)
  %constant.418.clone.3 = f32[]{:T(128)} constant(0), metadata={op_name="jit(tgmm)/jit(searchsorted)/jit(_searchsorted_scan_impl)/vmap(jit(_searchsorted_scan_impl))/while/body/closed_call" stack_frame_id=34}
  %broadcast.389.clone.3 = f32[32]{0:T(128)} broadcast(%constant.418.clone.3), dimensions={}, metadata={op_name="jit(tgmm)/jit(searchsorted)/jit(_searchsorted_scan_impl)/vmap(jit(_searchsorted_scan_impl))/while/body/closed_call" stack_frame_id=34}
  %eq.49.clone.3 = pred[32]{0:T(512)(128)(4,1)} compare(%param_9.122, %broadcast.389.clone.3), direction=EQ, metadata={op_name="jit(tgmm)/jit(searchsorted)/jit(_searchsorted_scan_impl)/vmap(jit(_searchsorted_scan_impl))/while/body/closed_call/eq" stack_frame_id=40}
  %select_n.200.clone.3 = f32[32]{0:T(128)} select(%eq.49.clone.3, %broadcast.389.clone.3, %param_9.122), metadata={op_name="jit(tgmm)/jit(searchsorted)/jit(_searchsorted_scan_impl)/vmap(jit(_searchsorted_scan_impl))/while/body/closed_call/select_n" stack_frame_id=40}
  %select_n.199.clone.3 = f32[32]{0:T(128)} select(%param_8.170, %broadcast.390.clone.3, %select_n.200.clone.3), metadata={op_name="jit(tgmm)/jit(searchsorted)/jit(_searchsorted_scan_impl)/vmap(jit(_searchsorted_scan_impl))/while/body/closed_call/select_n" stack_frame_id=40}
  %bitcast-convert.15.clone.3 = s32[32]{0:T(128)} bitcast-convert(%select_n.199.clone.3)
  %constant.417.clone.3 = s32[]{:T(128)} constant(0)
  %broadcast.388.clone.3 = s32[32]{0:T(128)} broadcast(%constant.417.clone.3), dimensions={}
  %compare.134.clone.3 = pred[32]{0:T(512)(128)(4,1)} compare(%bitcast-convert.15.clone.3, %broadcast.388.clone.3), direction=LT
  %constant.416.clone.3 = s32[]{:T(128)} constant(2147483647)
  %broadcast.387.clone.3 = s32[32]{0:T(128)} broadcast(%constant.416.clone.3), dimensions={}
  %xor.16.clone.3 = s32[32]{0:T(128)} xor(%broadcast.387.clone.3, %bitcast-convert.15.clone.3)
  %select.188.clone.3 = s32[32]{0:T(128)} select(%compare.134.clone.3, %xor.16.clone.3, %bitcast-convert.15.clone.3)
  %param_1.376 = pred[]{:T(512)S(6)} parameter(1)
  %broadcast.394.clone.3 = pred[32]{0:T(512)(128)(4,1)} broadcast(%param_1.376), dimensions={}
  %constant.60.clone.13 = u32[]{:T(128)} constant(0), metadata={op_name="jit(tgmm)/jit(searchsorted)/jit(_searchsorted_scan_impl)/vmap(jit(_searchsorted_scan_impl))" stack_frame_id=6}
  %broadcast.393.clone.3 = u32[32]{0:T(128)} broadcast(%constant.60.clone.13), dimensions={}
  %param_2.389 = u32[32]{0:T(128)S(1)} parameter(2)
  %select.195.clone.3 = u32[32]{0:T(128)} select(%broadcast.394.clone.3, %broadcast.393.clone.3, %param_2.389)
  %constant.61.clone.13 = u32[]{:T(128)} constant(5), metadata={op_name="jit(tgmm)/jit(searchsorted)/jit(_searchsorted_scan_impl)/vmap(jit(_searchsorted_scan_impl))" stack_frame_id=6}
  %broadcast.392.clone.3 = u32[32]{0:T(128)} broadcast(%constant.61.clone.13), dimensions={}
  %param_0.313 = u32[32]{0:T(128)S(1)} parameter(0)
  %select.194.clone.3 = u32[32]{0:T(128)} select(%broadcast.394.clone.3, %broadcast.392.clone.3, %param_0.313)
  %sub.44.clone.3 = u32[32]{0:T(128)} subtract(%select.194.clone.3, %select.195.clone.3), metadata={op_name="jit(tgmm)/jit(searchsorted)/jit(_searchsorted_scan_impl)/vmap(jit(_searchsorted_scan_impl))/while/body/closed_call/sub" stack_frame_id=40}
  %constant.444 = u32[]{:T(128)} constant(1), metadata={op_name="jit(tgmm)/jit(searchsorted)/jit(_searchsorted_scan_impl)/vmap(jit(_searchsorted_scan_impl))/while/body/closed_call/sub" stack_frame_id=40}
  %broadcast.391.clone.3 = u32[32]{0:T(128)} broadcast(%constant.444), dimensions={}, metadata={op_name="jit(tgmm)/jit(searchsorted)/jit(_searchsorted_scan_impl)/vmap(jit(_searchsorted_scan_impl))/while/body/closed_call/sub" stack_frame_id=40}
  %shift-right-logical.31.clone.3 = u32[32]{0:T(128)} shift-right-logical(%sub.44.clone.3, %broadcast.391.clone.3), metadata={op_name="jit(tgmm)/jit(searchsorted)/jit(_searchsorted_scan_impl)/vmap(jit(_searchsorted_scan_impl))/while/body/closed_call/jit(floor_divide)/div" stack_frame_id=40}
  %add.199.clone.3 = u32[32]{0:T(128)} add(%select.195.clone.3, %shift-right-logical.31.clone.3), metadata={op_name="jit(tgmm)/jit(searchsorted)/jit(_searchsorted_scan_impl)/vmap(jit(_searchsorted_scan_impl))/while/body/closed_call/add" stack_frame_id=40}
  %constant.412.clone.3 = u32[]{:T(128)} constant(4), metadata={op_name="jit(tgmm)/jit(searchsorted)/jit(_searchsorted_scan_impl)/vmap(jit(_searchsorted_scan_impl))/while/body/closed_call/broadcast_in_dim" stack_frame_id=40}
  %broadcast.381.clone.3 = u32[32]{0:T(128)} broadcast(%constant.412.clone.3), dimensions={}, metadata={op_name="jit(tgmm)/jit(searchsorted)/jit(_searchsorted_scan_impl)/vmap(jit(_searchsorted_scan_impl))/while/body/closed_call/broadcast_in_dim" stack_frame_id=40}
  %compare.139.clone.3 = pred[32]{0:T(512)(128)(4,1)} compare(%add.199.clone.3, %broadcast.381.clone.3), direction=GE, metadata={op_name="jit(tgmm)/jit(searchsorted)/jit(_searchsorted_scan_impl)/vmap(jit(_searchsorted_scan_impl))/while/body/closed_call/gather" stack_frame_id=40}
  %param_7.183 = f32[]{:T(128)} parameter(7)
  %broadcast.380.clone.3 = f32[32]{0:T(128)} broadcast(%param_7.183), dimensions={}, metadata={op_name="jit(tgmm)/jit(searchsorted)/jit(_searchsorted_scan_impl)/vmap(jit(_searchsorted_scan_impl))/while/body/closed_call/gather" stack_frame_id=40}
  %constant.413.clone.3 = u32[]{:T(128)} constant(3), metadata={op_name="jit(tgmm)/jit(searchsorted)/jit(_searchsorted_scan_impl)/vmap(jit(_searchsorted_scan_impl))/while/body/closed_call/broadcast_in_dim" stack_frame_id=40}
  %broadcast.383.clone.3 = u32[32]{0:T(128)} broadcast(%constant.413.clone.3), dimensions={}, metadata={op_name="jit(tgmm)/jit(searchsorted)/jit(_searchsorted_scan_impl)/vmap(jit(_searchsorted_scan_impl))/while/body/closed_call/broadcast_in_dim" stack_frame_id=40}
  %compare.138.clone.3 = pred[32]{0:T(512)(128)(4,1)} compare(%add.199.clone.3, %broadcast.383.clone.3), direction=GE, metadata={op_name="jit(tgmm)/jit(searchsorted)/jit(_searchsorted_scan_impl)/vmap(jit(_searchsorted_scan_impl))/while/body/closed_call/gather" stack_frame_id=40}
  %param_6.201 = f32[]{:T(128)} parameter(6)
  %broadcast.382.clone.3 = f32[32]{0:T(128)} broadcast(%param_6.201), dimensions={}, metadata={op_name="jit(tgmm)/jit(searchsorted)/jit(_searchsorted_scan_impl)/vmap(jit(_searchsorted_scan_impl))/while/body/closed_call/gather" stack_frame_id=40}
  %constant.414.clone.3 = u32[]{:T(128)} constant(2), metadata={op_name="jit(tgmm)/jit(searchsorted)/jit(_searchsorted_scan_impl)/vmap(jit(_searchsorted_scan_impl))/while/body/closed_call/broadcast_in_dim" stack_frame_id=40}
  %broadcast.385.clone.3 = u32[32]{0:T(128)} broadcast(%constant.414.clone.3), dimensions={}, metadata={op_name="jit(tgmm)/jit(searchsorted)/jit(_searchsorted_scan_impl)/vmap(jit(_searchsorted_scan_impl))/while/body/closed_call/broadcast_in_dim" stack_frame_id=40}
  %compare.137.clone.3 = pred[32]{0:T(512)(128)(4,1)} compare(%add.199.clone.3, %broadcast.385.clone.3), direction=GE, metadata={op_name="jit(tgmm)/jit(searchsorted)/jit(_searchsorted_scan_impl)/vmap(jit(_searchsorted_scan_impl))/while/body/closed_call/gather" stack_frame_id=40}
  %param_5.230 = f32[]{:T(128)} parameter(5)
  %broadcast.384.clone.3 = f32[32]{0:T(128)} broadcast(%param_5.230), dimensions={}, metadata={op_name="jit(tgmm)/jit(searchsorted)/jit(_searchsorted_scan_impl)/vmap(jit(_searchsorted_scan_impl))/while/body/closed_call/gather" stack_frame_id=40}
  %compare.136.clone.3 = pred[32]{0:T(512)(128)(4,1)} compare(%add.199.clone.3, %broadcast.391.clone.3), direction=GE, metadata={op_name="jit(tgmm)/jit(searchsorted)/jit(_searchsorted_scan_impl)/vmap(jit(_searchsorted_scan_impl))/while/body/closed_call/gather" stack_frame_id=40}
  %param_4.241 = f32[]{:T(128)} parameter(4)
  %broadcast.386.clone.3 = f32[32]{0:T(128)} broadcast(%param_4.241), dimensions={}, metadata={op_name="jit(tgmm)/jit(searchsorted)/jit(_searchsorted_scan_impl)/vmap(jit(_searchsorted_scan_impl))/while/body/closed_call/gather" stack_frame_id=40}
  %param_3.263 = f32[]{:T(128)} parameter(3)
  %broadcast.379.clone.3 = f32[32]{0:T(128)} broadcast(%param_3.263), dimensions={}, metadata={op_name="jit(tgmm)/jit(searchsorted)/jit(_searchsorted_scan_impl)/vmap(jit(_searchsorted_scan_impl))/while/body/closed_call/gather" stack_frame_id=40}
  %select.193.clone.3 = f32[32]{0:T(128)} select(%compare.136.clone.3, %broadcast.386.clone.3, %broadcast.379.clone.3), metadata={op_name="jit(tgmm)/jit(searchsorted)/jit(_searchsorted_scan_impl)/vmap(jit(_searchsorted_scan_impl))/while/body/closed_call/gather" stack_frame_id=40}
  %select.192.clone.3 = f32[32]{0:T(128)} select(%compare.137.clone.3, %broadcast.384.clone.3, %select.193.clone.3), metadata={op_name="jit(tgmm)/jit(searchsorted)/jit(_searchsorted_scan_impl)/vmap(jit(_searchsorted_scan_impl))/while/body/closed_call/gather" stack_frame_id=40}
  %select.191.clone.3 = f32[32]{0:T(128)} select(%compare.138.clone.3, %broadcast.382.clone.3, %select.192.clone.3), metadata={op_name="jit(tgmm)/jit(searchsorted)/jit(_searchsorted_scan_impl)/vmap(jit(_searchsorted_scan_impl))/while/body/closed_call/gather" stack_frame_id=40}
  %select.190.clone.3 = f32[32]{0:T(128)} select(%compare.139.clone.3, %broadcast.380.clone.3, %select.191.clone.3), metadata={op_name="jit(tgmm)/jit(searchsorted)/jit(_searchsorted_scan_impl)/vmap(jit(_searchsorted_scan_impl))/while/body/closed_call/gather" stack_frame_id=40}
  %ne.110.clone.3 = pred[32]{0:T(512)(128)(4,1)} compare(%select.190.clone.3, %select.190.clone.3), direction=NE, metadata={op_name="jit(tgmm)/jit(searchsorted)/jit(_searchsorted_scan_impl)/vmap(jit(_searchsorted_scan_impl))/while/body/closed_call/ne" stack_frame_id=40}
  %eq.48.clone.3 = pred[32]{0:T(512)(128)(4,1)} compare(%select.190.clone.3, %broadcast.389.clone.3), direction=EQ, metadata={op_name="jit(tgmm)/jit(searchsorted)/jit(_searchsorted_scan_impl)/vmap(jit(_searchsorted_scan_impl))/while/body/closed_call/eq" stack_frame_id=40}
  %select_n.198.clone.3 = f32[32]{0:T(128)} select(%eq.48.clone.3, %broadcast.389.clone.3, %select.190.clone.3), metadata={op_name="jit(tgmm)/jit(searchsorted)/jit(_searchsorted_scan_impl)/vmap(jit(_searchsorted_scan_impl))/while/body/closed_call/select_n" stack_frame_id=40}
  %select_n.197.clone.3 = f32[32]{0:T(128)} select(%ne.110.clone.3, %broadcast.390.clone.3, %select_n.198.clone.3), metadata={op_name="jit(tgmm)/jit(searchsorted)/jit(_searchsorted_scan_impl)/vmap(jit(_searchsorted_scan_impl))/while/body/closed_call/select_n" stack_frame_id=40}
  %bitcast-convert.14.clone.3 = s32[32]{0:T(128)} bitcast-convert(%select_n.197.clone.3)
  %compare.135.clone.3 = pred[32]{0:T(512)(128)(4,1)} compare(%bitcast-convert.14.clone.3, %broadcast.388.clone.3), direction=LT
  %xor.17.clone.3 = s32[32]{0:T(128)} xor(%broadcast.387.clone.3, %bitcast-convert.14.clone.3)
  %select.189.clone.3 = s32[32]{0:T(128)} select(%compare.135.clone.3, %xor.17.clone.3, %bitcast-convert.14.clone.3)
  %lt_to.7.clone.3 = pred[32]{0:T(512)(128)(4,1)S(1)} compare(%select.188.clone.3, %select.189.clone.3), direction=LT, metadata={op_name="jit(tgmm)/jit(searchsorted)/jit(_searchsorted_scan_impl)/vmap(jit(_searchsorted_scan_impl))/while/body/closed_call/lt_to" stack_frame_id=40}
  %select_n.214 = u32[32]{0:T(128)S(1)} select(%lt_to.7.clone.3, %add.199.clone.3, %select.194.clone.3), metadata={op_name="jit(tgmm)/jit(searchsorted)/jit(_searchsorted_scan_impl)/vmap(jit(_searchsorted_scan_impl))/while/body/closed_call/select_n" stack_frame_id=40}
  ROOT %tuple.48 = (u32[32]{0:T(128)S(1)}, pred[32]{0:T(512)(128)(4,1)S(1)}) tuple(%select_n.214, %lt_to.7.clone.3)
}

%fused_computation.19.clone.clone (param_0.314: pred[32], param_1.377: u32[32], param_2.390: pred[], param_3.264: u32[32]) -> u32[32] {
  %param_0.314 = pred[32]{0:T(512)(128)(4,1)S(1)} parameter(0)
  %param_2.390 = pred[]{:T(512)S(6)} parameter(2)
  %broadcast.412 = pred[32]{0:T(512)(128)(4,1)} broadcast(%param_2.390), dimensions={}
  %constant.60.clone.14 = u32[]{:T(128)} constant(0), metadata={op_name="jit(tgmm)/jit(searchsorted)/jit(_searchsorted_scan_impl)/vmap(jit(_searchsorted_scan_impl))" stack_frame_id=6}
  %broadcast.411 = u32[32]{0:T(128)} broadcast(%constant.60.clone.14), dimensions={}
  %param_1.377 = u32[32]{0:T(128)S(1)} parameter(1)
  %select.210 = u32[32]{0:T(128)} select(%broadcast.412, %broadcast.411, %param_1.377)
  %constant.61.clone.14 = u32[]{:T(128)} constant(5), metadata={op_name="jit(tgmm)/jit(searchsorted)/jit(_searchsorted_scan_impl)/vmap(jit(_searchsorted_scan_impl))" stack_frame_id=6}
  %broadcast.414 = u32[32]{0:T(128)} broadcast(%constant.61.clone.14), dimensions={}
  %param_3.264 = u32[32]{0:T(128)S(1)} parameter(3)
  %select.211 = u32[32]{0:T(128)} select(%broadcast.412, %broadcast.414, %param_3.264)
  %sub.47 = u32[32]{0:T(128)} subtract(%select.211, %select.210), metadata={op_name="jit(tgmm)/jit(searchsorted)/jit(_searchsorted_scan_impl)/vmap(jit(_searchsorted_scan_impl))/while/body/closed_call/sub" stack_frame_id=40}
  %constant.445 = u32[]{:T(128)} constant(1), metadata={op_name="jit(tgmm)/jit(searchsorted)/jit(_searchsorted_scan_impl)/vmap(jit(_searchsorted_scan_impl))/while/body/closed_call/sub" stack_frame_id=40}
  %broadcast.413 = u32[32]{0:T(128)} broadcast(%constant.445), dimensions={}, metadata={op_name="jit(tgmm)/jit(searchsorted)/jit(_searchsorted_scan_impl)/vmap(jit(_searchsorted_scan_impl))/while/body/closed_call/sub" stack_frame_id=40}
  %shift-right-logical.37 = u32[32]{0:T(128)} shift-right-logical(%sub.47, %broadcast.413), metadata={op_name="jit(tgmm)/jit(searchsorted)/jit(_searchsorted_scan_impl)/vmap(jit(_searchsorted_scan_impl))/while/body/closed_call/jit(floor_divide)/div" stack_frame_id=40}
  %add.209 = u32[32]{0:T(128)} add(%select.210, %shift-right-logical.37), metadata={op_name="jit(tgmm)/jit(searchsorted)/jit(_searchsorted_scan_impl)/vmap(jit(_searchsorted_scan_impl))/while/body/closed_call/add" stack_frame_id=40}
  ROOT %select_n.215 = u32[32]{0:T(128)S(1)} select(%param_0.314, %select.210, %add.209), metadata={op_name="jit(tgmm)/jit(searchsorted)/jit(_searchsorted_scan_impl)/vmap(jit(_searchsorted_scan_impl))/while/body/closed_call/select_n" stack_frame_id=40}
}

%wide.wide.region_7.27.sunk.clone.clone.sunk (wide.wide.arg_tuple.0: (s32[], u32[32], u32[32], f32[5], f32[32], /*index=5*/pred[32], s32[], s32[])) -> (s32[], u32[32], u32[32], f32[5], f32[32], /*index=5*/pred[32], s32[], s32[]) {
  %constant.103..sunk = s32[]{:T(128)} constant(0), backend_config={"flag_configs":[],"scoped_memory_configs":[{"memory_space":"1","offset":"0","size":"0"}],"used_scoped_memory_configs":[]}
  %constant.101..sunk = s32[]{:T(128)} constant(1), backend_config={"flag_configs":[],"scoped_memory_configs":[{"memory_space":"1","offset":"0","size":"0"}],"used_scoped_memory_configs":[]}
  %wide.wide.arg_tuple.0 = (s32[]{:T(128)}, u32[32]{0:T(128)S(1)}, u32[32]{0:T(128)S(1)}, f32[5]{0:T(128)S(1)}, f32[32]{0:T(128)S(1)}, /*index=5*/pred[32]{0:T(512)(128)(4,1)S(1)}, s32[]{:T(128)}, s32[]{:T(128)}) parameter(0), backend_config={"flag_configs":[],"scoped_memory_configs":[{"memory_space":"1","offset":"0","size":"0"}],"used_scoped_memory_configs":[]}
  %get-tuple-element.190 = s32[]{:T(128)} get-tuple-element(%wide.wide.arg_tuple.0), index=0, backend_config={"flag_configs":[],"scoped_memory_configs":[{"memory_space":"1","offset":"0","size":"0"}],"used_scoped_memory_configs":[]}
  %compare.145 = pred[]{:T(512)S(6)} compare(%get-tuple-element.190, %constant.103..sunk), direction=EQ, backend_config={"flag_configs":[],"scoped_memory_configs":[{"memory_space":"1","offset":"0","size":"33554432"}],"used_scoped_memory_configs":[],"aliasing_operands":{"lists":[]}}
  %add.210 = s32[]{:T(128)} add(%get-tuple-element.190, %constant.101..sunk), metadata={op_name="jit(tgmm)/jit(searchsorted)/jit(_searchsorted_scan_impl)/vmap(jit(_searchsorted_scan_impl))/while/body/add" stack_frame_id=34}, backend_config={"flag_configs":[],"scoped_memory_configs":[{"memory_space":"1","offset":"0","size":"33554432"}],"used_scoped_memory_configs":[],"aliasing_operands":{"lists":[{"indices":["0","2"]}]}}
  %get-tuple-element.204 = s32[]{:T(128)} get-tuple-element(%wide.wide.arg_tuple.0), index=6, metadata={op_name="jit(tgmm)/jit(searchsorted)/jit(_searchsorted_scan_impl)/vmap(jit(_searchsorted_scan_impl))" stack_frame_id=6}, backend_config={"flag_configs":[],"scoped_memory_configs":[{"memory_space":"1","offset":"0","size":"0"}],"used_scoped_memory_configs":[]}
  %get-tuple-element.205 = s32[]{:T(128)} get-tuple-element(%wide.wide.arg_tuple.0), index=7, backend_config={"flag_configs":[],"scoped_memory_configs":[{"memory_space":"1","offset":"0","size":"0"}],"used_scoped_memory_configs":[]}
  %get-tuple-element.191 = u32[32]{0:T(128)S(1)} get-tuple-element(%wide.wide.arg_tuple.0), index=1, backend_config={"flag_configs":[],"scoped_memory_configs":[{"memory_space":"1","offset":"0","size":"0"}],"used_scoped_memory_configs":[]}
  %get-tuple-element.192 = u32[32]{0:T(128)S(1)} get-tuple-element(%wide.wide.arg_tuple.0), index=2, backend_config={"flag_configs":[],"scoped_memory_configs":[{"memory_space":"1","offset":"0","size":"0"}],"used_scoped_memory_configs":[]}
  %get-tuple-element.201 = f32[5]{0:T(128)S(1)} get-tuple-element(%wide.wide.arg_tuple.0), index=3, backend_config={"flag_configs":[],"scoped_memory_configs":[{"memory_space":"1","offset":"0","size":"0"}],"used_scoped_memory_configs":[]}
  %get-tuple-element.202 = f32[32]{0:T(128)S(1)} get-tuple-element(%wide.wide.arg_tuple.0), index=4, backend_config={"flag_configs":[],"scoped_memory_configs":[{"memory_space":"1","offset":"0","size":"0"}],"used_scoped_memory_configs":[]}
  %get-tuple-element.203 = pred[32]{0:T(512)(128)(4,1)S(1)} get-tuple-element(%wide.wide.arg_tuple.0), index=5, backend_config={"flag_configs":[],"scoped_memory_configs":[{"memory_space":"1","offset":"0","size":"0"}],"used_scoped_memory_configs":[]}
  %fusion.34 = (f32[1]{0:T(128)}, f32[1]{0:T(128)}, f32[1]{0:T(128)}, f32[1]{0:T(128)}, f32[1]{0:T(128)}) fusion(%get-tuple-element.201), kind=kLoop, calls=%fused_computation.90.clone.clone, metadata={op_name="jit(tgmm)/jit(searchsorted)/jit(_searchsorted_scan_impl)/vmap(jit(_searchsorted_scan_impl))/while/body/closed_call/gather" stack_frame_id=40}, backend_config={"flag_configs":[],"scoped_memory_configs":[{"memory_space":"1","offset":"0","size":"5872027"}],"used_scoped_memory_configs":[],"aliasing_operands":{"lists":[]}}
  %get-tuple-element.179 = f32[1]{0:T(128)} get-tuple-element(%fusion.34), index=0, metadata={op_name="jit(tgmm)/jit(searchsorted)/jit(_searchsorted_scan_impl)/vmap(jit(_searchsorted_scan_impl))/while/body/closed_call/gather" stack_frame_id=40}, backend_config={"flag_configs":[],"scoped_memory_configs":[{"memory_space":"1","offset":"0","size":"0"}],"used_scoped_memory_configs":[]}
  %get-tuple-element.178 = f32[1]{0:T(128)} get-tuple-element(%fusion.34), index=4, metadata={op_name="jit(tgmm)/jit(searchsorted)/jit(_searchsorted_scan_impl)/vmap(jit(_searchsorted_scan_impl))/while/body/closed_call/gather" stack_frame_id=40}, backend_config={"flag_configs":[],"scoped_memory_configs":[{"memory_space":"1","offset":"0","size":"0"}],"used_scoped_memory_configs":[]}
  %get-tuple-element.177 = f32[1]{0:T(128)} get-tuple-element(%fusion.34), index=1, metadata={op_name="jit(tgmm)/jit(searchsorted)/jit(_searchsorted_scan_impl)/vmap(jit(_searchsorted_scan_impl))/while/body/closed_call/gather" stack_frame_id=40}, backend_config={"flag_configs":[],"scoped_memory_configs":[{"memory_space":"1","offset":"0","size":"0"}],"used_scoped_memory_configs":[]}
  %get-tuple-element.176 = f32[1]{0:T(128)} get-tuple-element(%fusion.34), index=2, metadata={op_name="jit(tgmm)/jit(searchsorted)/jit(_searchsorted_scan_impl)/vmap(jit(_searchsorted_scan_impl))/while/body/closed_call/gather" stack_frame_id=40}, backend_config={"flag_configs":[],"scoped_memory_configs":[{"memory_space":"1","offset":"0","size":"0"}],"used_scoped_memory_configs":[]}
  %get-tuple-element.175 = f32[1]{0:T(128)} get-tuple-element(%fusion.34), index=3, metadata={op_name="jit(tgmm)/jit(searchsorted)/jit(_searchsorted_scan_impl)/vmap(jit(_searchsorted_scan_impl))/while/body/closed_call/gather" stack_frame_id=40}, backend_config={"flag_configs":[],"scoped_memory_configs":[{"memory_space":"1","offset":"0","size":"0"}],"used_scoped_memory_configs":[]}
  %bitcast.27 = f32[]{:T(128)} bitcast(%get-tuple-element.175), metadata={op_name="jit(tgmm)/jit(searchsorted)/jit(_searchsorted_scan_impl)/vmap(jit(_searchsorted_scan_impl))/while/body/closed_call/gather" stack_frame_id=40}, backend_config={"flag_configs":[],"scoped_memory_configs":[{"memory_space":"1","offset":"0","size":"0"}],"used_scoped_memory_configs":[]}
  %bitcast.28 = f32[]{:T(128)} bitcast(%get-tuple-element.176), metadata={op_name="jit(tgmm)/jit(searchsorted)/jit(_searchsorted_scan_impl)/vmap(jit(_searchsorted_scan_impl))/while/body/closed_call/gather" stack_frame_id=40}, backend_config={"flag_configs":[],"scoped_memory_configs":[{"memory_space":"1","offset":"0","size":"0"}],"used_scoped_memory_configs":[]}
  %bitcast.29 = f32[]{:T(128)} bitcast(%get-tuple-element.177), metadata={op_name="jit(tgmm)/jit(searchsorted)/jit(_searchsorted_scan_impl)/vmap(jit(_searchsorted_scan_impl))/while/body/closed_call/gather" stack_frame_id=40}, backend_config={"flag_configs":[],"scoped_memory_configs":[{"memory_space":"1","offset":"0","size":"0"}],"used_scoped_memory_configs":[]}
  %bitcast.30 = f32[]{:T(128)} bitcast(%get-tuple-element.178), metadata={op_name="jit(tgmm)/jit(searchsorted)/jit(_searchsorted_scan_impl)/vmap(jit(_searchsorted_scan_impl))/while/body/closed_call/gather" stack_frame_id=40}, backend_config={"flag_configs":[],"scoped_memory_configs":[{"memory_space":"1","offset":"0","size":"0"}],"used_scoped_memory_configs":[]}
  %bitcast.31 = f32[]{:T(128)} bitcast(%get-tuple-element.179), metadata={op_name="jit(tgmm)/jit(searchsorted)/jit(_searchsorted_scan_impl)/vmap(jit(_searchsorted_scan_impl))/while/body/closed_call/gather" stack_frame_id=40}, backend_config={"flag_configs":[],"scoped_memory_configs":[{"memory_space":"1","offset":"0","size":"0"}],"used_scoped_memory_configs":[]}
  %fusion.35 = (u32[32]{0:T(128)S(1)}, pred[32]{0:T(512)(128)(4,1)S(1)}) fusion(%get-tuple-element.192, %compare.145, %get-tuple-element.191, %bitcast.27, %bitcast.28, /*index=5*/%bitcast.29, %bitcast.30, %bitcast.31, %get-tuple-element.203, %get-tuple-element.202), kind=kLoop, calls=%fused_computation.20.clone.clone, metadata={op_name="jit(tgmm)/jit(searchsorted)/jit(_searchsorted_scan_impl)/vmap(jit(_searchsorted_scan_impl))/while/body/closed_call/select_n" stack_frame_id=40}, backend_config={"flag_configs":[],"scoped_memory_configs":[{"memory_space":"1","offset":"0","size":"5872027"}],"used_scoped_memory_configs":[],"aliasing_operands":{"lists":[]}}
  %get-tuple-element.200 = u32[32]{0:T(128)S(1)} get-tuple-element(%fusion.35), index=0, metadata={op_name="jit(tgmm)/jit(searchsorted)/jit(_searchsorted_scan_impl)/vmap(jit(_searchsorted_scan_impl))/while/body/closed_call/select_n" stack_frame_id=40}, backend_config={"flag_configs":[],"scoped_memory_configs":[{"memory_space":"1","offset":"0","size":"0"}],"used_scoped_memory_configs":[]}
  %get-tuple-element.180 = pred[32]{0:T(512)(128)(4,1)S(1)} get-tuple-element(%fusion.35), index=1, metadata={op_name="jit(tgmm)/jit(searchsorted)/jit(_searchsorted_scan_impl)/vmap(jit(_searchsorted_scan_impl))/while/body/closed_call/select_n" stack_frame_id=40}, backend_config={"flag_configs":[],"scoped_memory_configs":[{"memory_space":"1","offset":"0","size":"0"}],"used_scoped_memory_configs":[]}
  %fusion.36 = u32[32]{0:T(128)S(1)} fusion(%get-tuple-element.180, %get-tuple-element.191, %compare.145, %get-tuple-element.192), kind=kLoop, calls=%fused_computation.19.clone.clone, metadata={op_name="jit(tgmm)/jit(searchsorted)/jit(_searchsorted_scan_impl)/vmap(jit(_searchsorted_scan_impl))/while/body/closed_call/select_n" stack_frame_id=40}, backend_config={"flag_configs":[],"scoped_memory_configs":[{"memory_space":"1","offset":"0","size":"5872027"}],"used_scoped_memory_configs":[],"aliasing_operands":{"lists":[{"indices":["1","4"]}]}}
  %copy.19 = u32[32]{0:T(128)S(1)} copy(%get-tuple-element.200), backend_config={"flag_configs":[],"scoped_memory_configs":[{"memory_space":"1","offset":"0","size":"5872027"}],"used_scoped_memory_configs":[],"aliasing_operands":{"lists":[]}}
  ROOT %tuple.52 = (s32[]{:T(128)}, u32[32]{0:T(128)S(1)}, u32[32]{0:T(128)S(1)}, f32[5]{0:T(128)S(1)}, f32[32]{0:T(128)S(1)}, /*index=5*/pred[32]{0:T(512)(128)(4,1)S(1)}, s32[]{:T(128)}, s32[]{:T(128)}) tuple(%add.210, %fusion.36, %copy.19, %get-tuple-element.201, %get-tuple-element.202, /*index=5*/%get-tuple-element.203, %get-tuple-element.204, %get-tuple-element.205), backend_config={"flag_configs":[],"scoped_memory_configs":[{"memory_space":"1","offset":"0","size":"0"}],"used_scoped_memory_configs":[]}
}

%wide.wide.region_8.28.clone.clone (wide.wide.arg_tuple.5: (s32[], u32[32], u32[32], f32[5], f32[32], /*index=5*/pred[32], s32[], s32[])) -> pred[] {
  %constant.439 = s32[]{:T(128)} constant(3), metadata={op_name="jit(tgmm)/jit(searchsorted)/jit(_searchsorted_scan_impl)/vmap(jit(_searchsorted_scan_impl))" stack_frame_id=6}, backend_config={"flag_configs":[],"scoped_memory_configs":[{"memory_space":"1","offset":"0","size":"0"}],"used_scoped_memory_configs":[]}
  %wide.wide.arg_tuple.5 = (s32[]{:T(128)}, u32[32]{0:T(128)S(1)}, u32[32]{0:T(128)S(1)}, f32[5]{0:T(128)S(1)}, f32[32]{0:T(128)S(1)}, /*index=5*/pred[32]{0:T(512)(128)(4,1)S(1)}, s32[]{:T(128)}, s32[]{:T(128)}) parameter(0), backend_config={"flag_configs":[],"scoped_memory_configs":[{"memory_space":"1","offset":"0","size":"0"}],"used_scoped_memory_configs":[]}
  %get-tuple-element.137 = s32[]{:T(128)} get-tuple-element(%wide.wide.arg_tuple.5), index=0, backend_config={"flag_configs":[],"scoped_memory_configs":[{"memory_space":"1","offset":"0","size":"0"}],"used_scoped_memory_configs":[]}
  ROOT %lt.83 = pred[]{:T(512)} compare(%get-tuple-element.137, %constant.439), direction=LT, metadata={op_name="jit(tgmm)/jit(searchsorted)/jit(_searchsorted_scan_impl)/vmap(jit(_searchsorted_scan_impl))/while/cond/lt" stack_frame_id=34}, backend_config={"flag_configs":[],"scoped_memory_configs":[{"memory_space":"1","offset":"0","size":"33554432"}],"used_scoped_memory_configs":[],"aliasing_operands":{"lists":[]}}
}

ENTRY %main.47 (group_sizes.1: s32[32], lhs.1: bf16[512,8192], rhs.1: f32[8192,2048]) -> bf16[32,512,2048] {
  %constant.103 = s32[]{:T(128)} constant(0), backend_config={"flag_configs":[],"scoped_memory_configs":[{"memory_space":"1","offset":"0","size":"0"}],"used_scoped_memory_configs":[]}
  %constant.206 = f32[1]{0:T(128)} constant({3}), metadata={op_name="jit(tgmm)/jit(_linspace)/reshape" stack_frame_id=6}, backend_config={"flag_configs":[],"scoped_memory_configs":[{"memory_space":"1","offset":"0","size":"0"}],"used_scoped_memory_configs":[]}
  %constant.122 = s32[1]{0:T(128)} constant({0}), backend_config={"flag_configs":[],"scoped_memory_configs":[{"memory_space":"1","offset":"0","size":"0"}],"used_scoped_memory_configs":[]}
  %constant.226 = s32[1,1]{0,1:T(1,128)} constant({ {0} }), backend_config={"flag_configs":[],"scoped_memory_configs":[{"memory_space":"1","offset":"0","size":"0"}],"used_scoped_memory_configs":[]}
  %constant.101 = s32[]{:T(128)} constant(1), backend_config={"flag_configs":[],"scoped_memory_configs":[{"memory_space":"1","offset":"0","size":"0"}],"used_scoped_memory_configs":[]}
  %constant.106 = f32[]{:T(128)} constant(0), backend_config={"flag_configs":[],"scoped_memory_configs":[{"memory_space":"1","offset":"0","size":"0"}],"used_scoped_memory_configs":[]}
  %constant.104 = f32[]{:T(128)} constant(1), backend_config={"flag_configs":[],"scoped_memory_configs":[{"memory_space":"1","offset":"0","size":"0"}],"used_scoped_memory_configs":[]}
  %constant.102 = s32[]{:T(128)} constant(35), backend_config={"flag_configs":[],"scoped_memory_configs":[{"memory_space":"1","offset":"0","size":"0"}],"used_scoped_memory_configs":[]}
  %constant.248 = s32[]{:T(128)} constant(105), metadata={op_name="jit(tgmm)/jit(_roll_dynamic)" stack_frame_id=6}, backend_config={"flag_configs":[],"scoped_memory_configs":[{"memory_space":"1","offset":"0","size":"0"}],"used_scoped_memory_configs":[]}
  %group_sizes.1 = s32[32]{0:T(128)} parameter(0), metadata={op_name="group_sizes"}, backend_config={"flag_configs":[],"scoped_memory_configs":[{"memory_space":"1","offset":"0","size":"0"}],"used_scoped_memory_configs":[]}
  %rhs.1 = f32[8192,2048]{1,0:T(8,128)} parameter(2), metadata={op_name="rhs"}, backend_config={"flag_configs":[],"scoped_memory_configs":[{"memory_space":"1","offset":"0","size":"0"}],"used_scoped_memory_configs":[]}
  %lhs.1 = bf16[512,8192]{1,0:T(8,128)(2,1)} parameter(1), metadata={op_name="lhs"}, backend_config={"flag_configs":[],"scoped_memory_configs":[{"memory_space":"1","offset":"0","size":"0"}],"used_scoped_memory_configs":[]}
  %copy.11 = s32[]{:T(128)} copy(%constant.103), backend_config={"flag_configs":[],"scoped_memory_configs":[{"memory_space":"1","offset":"0","size":"33554432"}],"used_scoped_memory_configs":[],"aliasing_operands":{"lists":[]}}
  %fusion.10 = f32[4]{0:T(128)S(1)} fusion(), kind=kLoop, calls=%fused_computation.66, metadata={op_name="jit(tgmm)/jit(_linspace)/add" stack_frame_id=6}, backend_config={"flag_configs":[],"scoped_memory_configs":[{"memory_space":"1","offset":"0","size":"5872027"}],"used_scoped_memory_configs":[],"aliasing_operands":{"lists":[]}}
  %pad_maximum_fusion = f32[5]{0:T(128)S(1)} fusion(%constant.206, %fusion.10), kind=kLoop, calls=%fused_computation.74, metadata={op_name="jit(tgmm)/jit(_linspace)/concatenate" stack_frame_id=6}, backend_config={"flag_configs":[],"scoped_memory_configs":[{"memory_space":"1","offset":"0","size":"5872027"}],"used_scoped_memory_configs":[],"aliasing_operands":{"lists":[]}}
  %custom-call.1 = u32[32]{0:T(128)S(1)} custom-call(), custom_call_target="AllocateBuffer", backend_config={"flag_configs":[],"scoped_memory_configs":[{"memory_space":"1","offset":"0","size":"33554432"}],"used_scoped_memory_configs":[],"aliasing_operands":{"lists":[]}}
  %custom-call = u32[32]{0:T(128)S(1)} custom-call(), custom_call_target="AllocateBuffer", backend_config={"flag_configs":[],"scoped_memory_configs":[{"memory_space":"1","offset":"0","size":"33554432"}],"used_scoped_memory_configs":[],"aliasing_operands":{"lists":[]}}
  %iota.6 = s32[4]{0:T(128)S(1)} iota(), iota_dimension=0, metadata={op_name="jit(tgmm)/iota" stack_frame_id=16}, backend_config={"flag_configs":[],"scoped_memory_configs":[{"memory_space":"1","offset":"0","size":"5872027"}],"used_scoped_memory_configs":[],"aliasing_operands":{"lists":[]}}
  %iota.5 = s32[32]{0:T(128)S(1)} iota(), iota_dimension=0, metadata={op_name="jit(tgmm)/iota" stack_frame_id=16}, backend_config={"flag_configs":[],"scoped_memory_configs":[{"memory_space":"1","offset":"0","size":"5872027"}],"used_scoped_memory_configs":[],"aliasing_operands":{"lists":[]}}
  %fusion.30 = (s32[1]{0:T(128)}, s32[1]{0:T(128)}, s32[1]{0:T(128)}, s32[1]{0:T(128)}) fusion(%iota.6), kind=kLoop, calls=%fused_computation.91, metadata={op_name="jit(tgmm)/jit(_take)/gather" stack_frame_id=28}, backend_config={"flag_configs":[],"scoped_memory_configs":[{"memory_space":"1","offset":"0","size":"5872027"}],"used_scoped_memory_configs":[],"aliasing_operands":{"lists":[]}}
  %get-tuple-element.130 = s32[1]{0:T(128)} get-tuple-element(%fusion.30), index=3, metadata={op_name="jit(tgmm)/jit(_take)/gather" stack_frame_id=28}, backend_config={"flag_configs":[],"scoped_memory_configs":[{"memory_space":"1","offset":"0","size":"0"}],"used_scoped_memory_configs":[]}
  %get-tuple-element.129 = s32[1]{0:T(128)} get-tuple-element(%fusion.30), index=2, metadata={op_name="jit(tgmm)/jit(_take)/gather" stack_frame_id=28}, backend_config={"flag_configs":[],"scoped_memory_configs":[{"memory_space":"1","offset":"0","size":"0"}],"used_scoped_memory_configs":[]}
  %get-tuple-element.128 = s32[1]{0:T(128)} get-tuple-element(%fusion.30), index=1, metadata={op_name="jit(tgmm)/jit(_take)/gather" stack_frame_id=28}, backend_config={"flag_configs":[],"scoped_memory_configs":[{"memory_space":"1","offset":"0","size":"0"}],"used_scoped_memory_configs":[]}
  %get-tuple-element.127 = s32[1]{0:T(128)} get-tuple-element(%fusion.30), index=0, metadata={op_name="jit(tgmm)/jit(_take)/gather" stack_frame_id=28}, backend_config={"flag_configs":[],"scoped_memory_configs":[{"memory_space":"1","offset":"0","size":"0"}],"used_scoped_memory_configs":[]}
  %bitcast.33 = s32[32,1]{0,1:T(1,128)} bitcast(%group_sizes.1)
  %copy.5 = s32[32,1]{1,0:T(8,128)S(1)} copy(%bitcast.33), backend_config={"flag_configs":[],"scoped_memory_configs":[{"memory_space":"1","offset":"0","size":"33554432"}],"used_scoped_memory_configs":[],"aliasing_operands":{"lists":[]}}
  %reduce-window = s32[32,1]{1,0:T(8,128)S(1)} reduce-window(%copy.5, %constant.103), window={size=32x1 pad=31_0x0_0}, to_apply=%region_0.1, backend_config={"flag_configs":[{"flag_type":"XLA_TPU_STORE_TO_LOAD_FORWARDING_WINDOW","value":{"integer_value":"100000"}}],"scoped_memory_configs":[{"memory_space":"1","offset":"0","size":"33554432"}],"used_scoped_memory_configs":[],"aliasing_operands":{"lists":[]}}
  %reduce.4 = s32[32]{0:T(128)S(1)} reduce(%reduce-window, %constant.103), dimensions={1}, to_apply=%reduce-window.reduce_sub_computation, backend_config={"flag_configs":[],"scoped_memory_configs":[{"memory_space":"1","offset":"0","size":"33554432"}],"used_scoped_memory_configs":[],"aliasing_operands":{"lists":[]}}
  %slice_reduce_fusion = s32[31]{0:T(128)S(1)} fusion(%reduce-window), kind=kLoop, calls=%fused_computation.31, metadata={op_name="jit(tgmm)/slice" stack_frame_id=16}, backend_config={"flag_configs":[],"scoped_memory_configs":[{"memory_space":"1","offset":"0","size":"5872027"}],"used_scoped_memory_configs":[],"aliasing_operands":{"lists":[]}}
  %pad_add_fusion.1 = s32[33]{0:T(128)S(1)} fusion(%reduce.4, %constant.122), kind=kLoop, calls=%fused_computation.71, metadata={op_name="jit(tgmm)/concatenate" stack_frame_id=16}, backend_config={"flag_configs":[],"scoped_memory_configs":[{"memory_space":"1","offset":"0","size":"5872027"}],"used_scoped_memory_configs":[],"aliasing_operands":{"lists":[]}}
  %fusion.12 = (s32[]{:T(128)}, s32[32]{0:T(128)S(1)}) fusion(%slice_reduce_fusion, %constant.122, %reduce.4, %group_sizes.1), kind=kLoop, calls=%fused_computation.68, metadata={op_name="jit(tgmm)/reduce_sum" stack_frame_id=16}, backend_config={"flag_configs":[],"scoped_memory_configs":[{"memory_space":"1","offset":"0","size":"5872027"}],"used_scoped_memory_configs":[],"aliasing_operands":{"lists":[]}}
  %get-tuple-element.120 = s32[]{:T(128)} get-tuple-element(%fusion.12), index=0, metadata={op_name="jit(tgmm)/reduce_sum" stack_frame_id=16}, backend_config={"flag_configs":[],"scoped_memory_configs":[{"memory_space":"1","offset":"0","size":"0"}],"used_scoped_memory_configs":[]}
  %get-tuple-element.121 = s32[32]{0:T(128)S(1)} get-tuple-element(%fusion.12), index=1, metadata={op_name="jit(tgmm)/reduce_sum" stack_frame_id=16}, backend_config={"flag_configs":[],"scoped_memory_configs":[{"memory_space":"1","offset":"0","size":"0"}],"used_scoped_memory_configs":[]}
  %slice.0 = s32[1]{0:T(128)} slice(%get-tuple-element.121), slice={[31:32]}, metadata={op_name="jit(tgmm)/jit(_roll_static)/slice" stack_frame_id=6}, backend_config={"flag_configs":[],"scoped_memory_configs":[{"memory_space":"1","offset":"0","size":"5872027"}],"used_scoped_memory_configs":[],"aliasing_operands":{"lists":[]}}
  %bitcast.34 = s32[31]{0:T(128)S(1)} bitcast(%get-tuple-element.121)
  %add_bitcast_fusion = s32[32,1]{0,1:T(1,128)S(1)} fusion(%bitcast.34, %slice.0), kind=kLoop, calls=%fused_computation.72, backend_config={"flag_configs":[],"scoped_memory_configs":[{"memory_space":"1","offset":"0","size":"5872027"}],"used_scoped_memory_configs":[],"aliasing_operands":{"lists":[]}}
  %dynamic-update-slice.4 = s32[32,1]{0,1:T(1,128)S(1)} dynamic-update-slice(%add_bitcast_fusion, %constant.226, %constant.103, %constant.103), metadata={op_name="jit(tgmm)/scatter" stack_frame_id=16}, backend_config={"flag_configs":[],"scoped_memory_configs":[{"memory_space":"1","offset":"0","size":"33554432"}],"indices_config":{"index_known_bits":[{"zeroes":"4294967295","ones":"0","bitwidth":"32"},{"zeroes":"4294967295","ones":"0","bitwidth":"32"}],"is_index_aligned":[]},"used_scoped_memory_configs":[],"aliasing_operands":{"lists":[{"indices":["0","4"]},{"indices":["2","3"]}]}}
  %fusion.26 = (pred[32]{0:T(512)(128)(4,1)S(1)}, f32[32]{0:T(128)S(1)}) fusion(%pad_add_fusion.1, %group_sizes.1), kind=kLoop, calls=%fused_computation.89, metadata={op_name="jit(tgmm)/jit(searchsorted)/jit(_searchsorted_scan_impl)/vmap(jit(_searchsorted_scan_impl))/while/body/closed_call/ne" stack_frame_id=40}, backend_config={"flag_configs":[],"scoped_memory_configs":[{"memory_space":"1","offset":"0","size":"5872027"}],"used_scoped_memory_configs":[],"aliasing_operands":{"lists":[]}}
  %get-tuple-element.186 = f32[32]{0:T(128)S(1)} get-tuple-element(%fusion.26), index=1, metadata={op_name="jit(tgmm)/jit(searchsorted)/jit(_searchsorted_scan_impl)/vmap(jit(_searchsorted_scan_impl))/while/body/closed_call/ne" stack_frame_id=40}, backend_config={"flag_configs":[],"scoped_memory_configs":[{"memory_space":"1","offset":"0","size":"0"}],"used_scoped_memory_configs":[]}
  %get-tuple-element.187 = pred[32]{0:T(512)(128)(4,1)S(1)} get-tuple-element(%fusion.26), index=0, metadata={op_name="jit(tgmm)/jit(searchsorted)/jit(_searchsorted_scan_impl)/vmap(jit(_searchsorted_scan_impl))/while/body/closed_call/ne" stack_frame_id=40}, backend_config={"flag_configs":[],"scoped_memory_configs":[{"memory_space":"1","offset":"0","size":"0"}],"used_scoped_memory_configs":[]}
  %tuple.50 = (s32[]{:T(128)}, u32[32]{0:T(128)S(1)}, u32[32]{0:T(128)S(1)}, f32[5]{0:T(128)S(1)}, f32[32]{0:T(128)S(1)}, /*index=5*/pred[32]{0:T(512)(128)(4,1)S(1)}, s32[]{:T(128)}, s32[]{:T(128)}) tuple(%copy.11, %custom-call, %custom-call.1, %pad_maximum_fusion, %get-tuple-element.186, /*index=5*/%get-tuple-element.187, %constant.101, %constant.103), backend_config={"flag_configs":[],"scoped_memory_configs":[{"memory_space":"1","offset":"0","size":"0"}],"used_scoped_memory_configs":[]}
  %while.19 = (s32[]{:T(128)}, u32[32]{0:T(128)S(1)}, u32[32]{0:T(128)S(1)}, f32[5]{0:T(128)S(1)}, f32[32]{0:T(128)S(1)}, /*index=5*/pred[32]{0:T(512)(128)(4,1)S(1)}, s32[]{:T(128)}, s32[]{:T(128)}) while(%tuple.50), condition=%wide.wide.region_8.28.clone.clone, body=%wide.wide.region_7.27.sunk.clone.clone.sunk, metadata={op_name="jit(tgmm)/jit(searchsorted)/jit(_searchsorted_scan_impl)/vmap(jit(_searchsorted_scan_impl))/while" stack_frame_id=28}, backend_config={"flag_configs":[],"scoped_memory_configs":[{"memory_space":"1","offset":"0","size":"131072"}],"used_scoped_memory_configs":[]}
  %while.13 = u32[32]{0:T(128)S(1)} get-tuple-element(%while.19), index=2, metadata={op_name="jit(tgmm)/jit(searchsorted)/jit(_searchsorted_scan_impl)/vmap(jit(_searchsorted_scan_impl))/while" stack_frame_id=28}, backend_config={"flag_configs":[],"scoped_memory_configs":[{"memory_space":"1","offset":"0","size":"0"}],"used_scoped_memory_configs":[]}
  %get-tuple-element.206 = f32[32]{0:T(128)S(1)} get-tuple-element(%while.19), index=4
  %compare_select_fusion.15 = s32[32]{0:T(128)S(1)} fusion(%get-tuple-element.206, %while.13), kind=kLoop, calls=%fused_computation.36, metadata={op_name="jit(tgmm)/select_n" stack_frame_id=16}, backend_config={"flag_configs":[],"scoped_memory_configs":[{"memory_space":"1","offset":"0","size":"5872027"}],"used_scoped_memory_configs":[],"aliasing_operands":{"lists":[]}}
  %broadcast.217 = f32[32]{0:T(128)S(1)} broadcast(%constant.104), dimensions={}, metadata={op_name="jit(tgmm)/broadcast_in_dim" stack_frame_id=16}, backend_config={"flag_configs":[],"scoped_memory_configs":[{"memory_space":"1","offset":"0","size":"5872027"}],"used_scoped_memory_configs":[],"output_chunk_bound_config":{"output_chunk_bound":[]},"aliasing_operands":{"lists":[]}}
  %scatter_custom_fusion.1 = f32[5]{0:T(128)S(1)} fusion(%compare_select_fusion.15, %broadcast.217, %constant.106), kind=kCustom, calls=%fused_computation.87, metadata={op_name="jit(tgmm)/scatter-add" stack_frame_id=16}, backend_config={"flag_configs":[],"scoped_memory_configs":[{"memory_space":"1","offset":"0","size":"33554432"}],"used_scoped_memory_configs":[],"aliasing_operands":{"lists":[]}}
  %add_convert_fusion = s32[4]{0:T(128)S(1)} fusion(%scatter_custom_fusion.1), kind=kLoop, calls=%fused_computation.81, metadata={op_name="jit(tgmm)/convert_element_type" stack_frame_id=16}, backend_config={"flag_configs":[],"scoped_memory_configs":[{"memory_space":"1","offset":"0","size":"5872027"}],"used_scoped_memory_configs":[],"aliasing_operands":{"lists":[]}}
  %slice.2 = s32[1]{0:T(128)} slice(%add_convert_fusion), slice={[3:4]}, metadata={op_name="jit(tgmm)/jit(_roll_static)/slice" stack_frame_id=6}, backend_config={"flag_configs":[],"scoped_memory_configs":[{"memory_space":"1","offset":"0","size":"5872027"}],"used_scoped_memory_configs":[],"aliasing_operands":{"lists":[]}}
  %bitcast.37 = s32[3]{0:T(128)S(1)} bitcast(%add_convert_fusion)
  %add_bitcast_fusion.1 = s32[4,1]{0,1:T(1,128)S(1)} fusion(%bitcast.37, %slice.2), kind=kLoop, calls=%fused_computation.75, backend_config={"flag_configs":[],"scoped_memory_configs":[{"memory_space":"1","offset":"0","size":"5872027"}],"used_scoped_memory_configs":[],"aliasing_operands":{"lists":[]}}
  %dynamic-update-slice.5 = s32[4,1]{0,1:T(1,128)S(1)} dynamic-update-slice(%add_bitcast_fusion.1, %constant.226, %constant.103, %constant.103), metadata={op_name="jit(tgmm)/scatter" stack_frame_id=16}, backend_config={"flag_configs":[],"scoped_memory_configs":[{"memory_space":"1","offset":"0","size":"33554432"}],"indices_config":{"index_known_bits":[{"zeroes":"4294967295","ones":"0","bitwidth":"32"},{"zeroes":"4294967295","ones":"0","bitwidth":"32"}],"is_index_aligned":[]},"used_scoped_memory_configs":[],"aliasing_operands":{"lists":[{"indices":["0","4"]},{"indices":["2","3"]}]}}
  %reduce-window.3 = s32[4,1]{0,1:T(1,128)S(1)} reduce-window(%dynamic-update-slice.5, %constant.103), window={size=4x1 pad=3_0x0_0}, to_apply=%region_11.35, backend_config={"flag_configs":[{"flag_type":"XLA_TPU_STORE_TO_LOAD_FORWARDING_WINDOW","value":{"integer_value":"100000"}}],"scoped_memory_configs":[{"memory_space":"1","offset":"0","size":"33554432"}],"used_scoped_memory_configs":[],"aliasing_operands":{"lists":[]}}
  %fusion.13 = s32[4]{0:T(128)S(1)} fusion(%reduce-window.3), kind=kLoop, calls=%fused_computation.69, metadata={op_name="jit(tgmm)/select_n" stack_frame_id=16}, backend_config={"flag_configs":[],"scoped_memory_configs":[{"memory_space":"1","offset":"0","size":"5872027"}],"used_scoped_memory_configs":[],"aliasing_operands":{"lists":[]}}
  %broadcast.218 = s32[4]{0:T(128)S(1)} broadcast(%constant.101), dimensions={}, backend_config={"flag_configs":[],"scoped_memory_configs":[{"memory_space":"1","offset":"0","size":"5872027"}],"used_scoped_memory_configs":[],"output_chunk_bound_config":{"output_chunk_bound":[]},"aliasing_operands":{"lists":[]}}
  %scatter_custom_fusion.2 = s32[35]{0:T(128)S(1)} fusion(%fusion.13, %broadcast.218, %constant.103), kind=kCustom, calls=%fused_computation.83, metadata={op_name="jit(tgmm)/scatter-add" stack_frame_id=16}, backend_config={"flag_configs":[],"scoped_memory_configs":[{"memory_space":"1","offset":"0","size":"33554432"}],"used_scoped_memory_configs":[],"aliasing_operands":{"lists":[]}}
  %copy.6 = s32[32,1]{1,0:T(8,128)S(1)} copy(%dynamic-update-slice.4), metadata={op_name="jit(tgmm)/scatter" stack_frame_id=16}, backend_config={"flag_configs":[],"scoped_memory_configs":[{"memory_space":"1","offset":"0","size":"33554432"}],"used_scoped_memory_configs":[],"aliasing_operands":{"lists":[]}}
  %reduce-window.1 = s32[32,1]{1,0:T(8,128)S(1)} reduce-window(%copy.6, %constant.103), window={size=32x1 pad=31_0x0_0}, to_apply=%region_0.1.clone, backend_config={"flag_configs":[{"flag_type":"XLA_TPU_STORE_TO_LOAD_FORWARDING_WINDOW","value":{"integer_value":"100000"}}],"scoped_memory_configs":[{"memory_space":"1","offset":"0","size":"33554432"}],"used_scoped_memory_configs":[],"aliasing_operands":{"lists":[]}}
  %fusion.6 = s32[32]{0:T(128)S(1)} fusion(%reduce-window.1), kind=kLoop, calls=%fused_computation.30, metadata={op_name="jit(tgmm)/select_n" stack_frame_id=16}, backend_config={"flag_configs":[],"scoped_memory_configs":[{"memory_space":"1","offset":"0","size":"5872027"}],"used_scoped_memory_configs":[],"aliasing_operands":{"lists":[]}}
  %broadcast_in_dim.10 = s32[32]{0:T(128)S(1)} broadcast(%constant.101), dimensions={}, metadata={op_name="jit(tgmm)/jit(_where)/broadcast_in_dim" stack_frame_id=6}, backend_config={"flag_configs":[],"scoped_memory_configs":[{"memory_space":"1","offset":"0","size":"5872027"}],"used_scoped_memory_configs":[],"output_chunk_bound_config":{"output_chunk_bound":[]},"aliasing_operands":{"lists":[]}}
  %scatter_custom_fusion = s32[35]{0:T(128)S(1)} fusion(%fusion.6, %broadcast_in_dim.10, %constant.103), kind=kCustom, calls=%fused_computation.85, metadata={op_name="jit(tgmm)/scatter-add" stack_frame_id=16}, backend_config={"flag_configs":[],"scoped_memory_configs":[{"memory_space":"1","offset":"0","size":"33554432"}],"used_scoped_memory_configs":[],"aliasing_operands":{"lists":[]}}
  %bitcast.36 = s32[35,1]{0,1:T(1,128)S(1)} bitcast(%scatter_custom_fusion)
  %copy.7 = s32[35,1]{1,0:T(8,128)S(1)} copy(%bitcast.36), backend_config={"flag_configs":[],"scoped_memory_configs":[{"memory_space":"1","offset":"0","size":"33554432"}],"used_scoped_memory_configs":[],"aliasing_operands":{"lists":[]}}
  %reduce-window.2 = s32[35,1]{1,0:T(8,128)S(1)} reduce-window(%copy.7, %constant.103), window={size=35x1 pad=34_0x0_0}, to_apply=%region_3.10, backend_config={"flag_configs":[{"flag_type":"XLA_TPU_STORE_TO_LOAD_FORWARDING_WINDOW","value":{"integer_value":"100000"}}],"scoped_memory_configs":[{"memory_space":"1","offset":"0","size":"33554432"}],"used_scoped_memory_configs":[],"aliasing_operands":{"lists":[]}}
  %add_reduce_fusion.3 = (s32[35]{0:T(128)S(1)}, s32[35]{0:T(128)S(1)}, s32[35]{0:T(128)S(1)}) fusion(%reduce-window.2), kind=kLoop, calls=%fused_computation.29, metadata={op_name="jit(tgmm)/sub" stack_frame_id=16}, backend_config={"flag_configs":[],"scoped_memory_configs":[{"memory_space":"1","offset":"0","size":"7549748"}],"used_scoped_memory_configs":[],"aliasing_operands":{"lists":[]}}
  %get-tuple-element.101 = s32[35]{0:T(128)S(1)} get-tuple-element(%add_reduce_fusion.3), index=2, metadata={op_name="jit(tgmm)/sub" stack_frame_id=16}, backend_config={"flag_configs":[],"scoped_memory_configs":[{"memory_space":"1","offset":"0","size":"0"}],"used_scoped_memory_configs":[]}
  %get-tuple-element.100 = s32[35]{0:T(128)S(1)} get-tuple-element(%add_reduce_fusion.3), index=1, metadata={op_name="jit(tgmm)/sub" stack_frame_id=16}, backend_config={"flag_configs":[],"scoped_memory_configs":[{"memory_space":"1","offset":"0","size":"0"}],"used_scoped_memory_configs":[]}
  %get-tuple-element.99 = s32[35]{0:T(128)S(1)} get-tuple-element(%add_reduce_fusion.3), index=0, metadata={op_name="jit(tgmm)/sub" stack_frame_id=16}, backend_config={"flag_configs":[],"scoped_memory_configs":[{"memory_space":"1","offset":"0","size":"0"}],"used_scoped_memory_configs":[]}
  %pad_clamp_fusion = s32[1024]{0:T(1024)S(1)} fusion(%get-tuple-element.100), kind=kLoop, calls=%fused_computation.32, metadata={op_name="jit(tgmm)/jit(_take)/gather" stack_frame_id=28}, backend_config={"flag_configs":[],"scoped_memory_configs":[{"memory_space":"1","offset":"0","size":"5872027"}],"used_scoped_memory_configs":[],"aliasing_operands":{"lists":[]}}
  %gather_custom_fusion = s32[35]{0:T(128)S(1)} fusion(%iota.5, %pad_clamp_fusion), kind=kCustom, calls=%fused_computation, metadata={op_name="jit(tgmm)/jit(_take)/gather" stack_frame_id=28}, backend_config={"flag_configs":[],"scoped_memory_configs":[{"memory_space":"1","offset":"0","size":"33554432"}],"used_scoped_memory_configs":[],"aliasing_operands":{"lists":[]}}
  %fusion.11 = (s32[]{:T(128)}, s32[35]{0:T(128)S(1)}) fusion(%gather_custom_fusion, %get-tuple-element.101, %get-tuple-element.99), kind=kLoop, calls=%fused_computation.67, metadata={op_name="jit(tgmm)/reduce_sum" stack_frame_id=16}, backend_config={"flag_configs":[],"scoped_memory_configs":[{"memory_space":"1","offset":"0","size":"5872027"}],"used_scoped_memory_configs":[],"aliasing_operands":{"lists":[]}}
  %get-tuple-element.118 = s32[]{:T(128)} get-tuple-element(%fusion.11), index=0, metadata={op_name="jit(tgmm)/reduce_sum" stack_frame_id=16}, backend_config={"flag_configs":[],"scoped_memory_configs":[{"memory_space":"1","offset":"0","size":"0"}],"used_scoped_memory_configs":[]}
  %neg.2 = s32[]{:T(128)S(6)} negate(%get-tuple-element.118), metadata={op_name="jit(tgmm)/neg" stack_frame_id=16}, backend_config={"flag_configs":[],"scoped_memory_configs":[{"memory_space":"1","offset":"0","size":"33554432"}],"used_scoped_memory_configs":[],"aliasing_operands":{"lists":[]}}
  %rem.17 = s32[]{:T(128)S(6)} remainder(%neg.2, %constant.102), metadata={op_name="jit(tgmm)/jit(_roll_dynamic)/jit(remainder)/rem" stack_frame_id=6}, backend_config={"flag_configs":[],"scoped_memory_configs":[{"memory_space":"1","offset":"0","size":"33554432"}],"used_scoped_memory_configs":[],"aliasing_operands":{"lists":[{"indices":["0","2"]}]}}
  %add.113 = s32[]{:T(128)S(6)} add(%rem.17, %constant.102), metadata={op_name="jit(tgmm)/jit(_roll_dynamic)/jit(remainder)/add" stack_frame_id=6}, backend_config={"flag_configs":[],"scoped_memory_configs":[{"memory_space":"1","offset":"0","size":"33554432"}],"used_scoped_memory_configs":[],"aliasing_operands":{"lists":[]}}
  %ne.46 = pred[]{:T(512)S(6)} compare(%rem.17, %constant.103), direction=NE, metadata={op_name="jit(tgmm)/jit(_roll_dynamic)/jit(remainder)/ne" stack_frame_id=6}, backend_config={"flag_configs":[],"scoped_memory_configs":[{"memory_space":"1","offset":"0","size":"33554432"}],"used_scoped_memory_configs":[],"aliasing_operands":{"lists":[]}}
  %ne.45 = pred[]{:T(512)S(6)} compare(%rem.17, %constant.103), direction=LT, metadata={op_name="jit(tgmm)/jit(_roll_dynamic)/jit(remainder)/lt" stack_frame_id=6}, backend_config={"flag_configs":[],"scoped_memory_configs":[{"memory_space":"1","offset":"0","size":"33554432"}],"used_scoped_memory_configs":[],"aliasing_operands":{"lists":[]}}
  %and.32 = pred[]{:T(512)S(6)} and(%ne.45, %ne.46), metadata={op_name="jit(tgmm)/jit(_roll_dynamic)/jit(remainder)/and" stack_frame_id=6}, backend_config={"flag_configs":[],"scoped_memory_configs":[{"memory_space":"1","offset":"0","size":"33554432"}],"used_scoped_memory_configs":[],"aliasing_operands":{"lists":[{"indices":["0","2"]}]}}
  %select_n.105 = s32[]{:T(128)S(6)} select(%and.32, %add.113, %rem.17), metadata={op_name="jit(tgmm)/jit(_roll_dynamic)/jit(remainder)/select_n" stack_frame_id=6}, backend_config={"flag_configs":[],"scoped_memory_configs":[{"memory_space":"1","offset":"0","size":"33554432"}],"used_scoped_memory_configs":[],"aliasing_operands":{"lists":[{"indices":["1","3"]}]}}
  %subtract.2 = s32[]{:T(128)S(6)} subtract(%constant.248, %select_n.105), metadata={op_name="jit(tgmm)/jit(_roll_dynamic)/add" stack_frame_id=6}, backend_config={"flag_configs":[],"scoped_memory_configs":[{"memory_space":"1","offset":"0","size":"33554432"}],"used_scoped_memory_configs":[],"aliasing_operands":{"lists":[{"indices":["1","2"]}]}}
  %sub.26 = s32[]{:T(128)S(6)} subtract(%constant.102, %select_n.105), metadata={op_name="jit(tgmm)/jit(_roll_dynamic)/sub" stack_frame_id=6}, backend_config={"flag_configs":[],"scoped_memory_configs":[{"memory_space":"1","offset":"0","size":"33554432"}],"used_scoped_memory_configs":[],"aliasing_operands":{"lists":[{"indices":["1","2"]}]}}
  %lt.57 = pred[]{:T(512)S(6)} compare(%sub.26, %constant.103), direction=LT, metadata={op_name="jit(tgmm)/jit(_roll_dynamic)/lt" stack_frame_id=6}, backend_config={"flag_configs":[],"scoped_memory_configs":[{"memory_space":"1","offset":"0","size":"33554432"}],"used_scoped_memory_configs":[],"aliasing_operands":{"lists":[]}}
  %select_n.106 = s32[]{:T(128)S(6)} select(%lt.57, %subtract.2, %sub.26), metadata={op_name="jit(tgmm)/jit(_roll_dynamic)/select_n" stack_frame_id=6}, backend_config={"flag_configs":[],"scoped_memory_configs":[{"memory_space":"1","offset":"0","size":"33554432"}],"used_scoped_memory_configs":[],"aliasing_operands":{"lists":[{"indices":["1","3"]}]}}
  %get-tuple-element.119 = s32[35]{0:T(128)S(1)} get-tuple-element(%fusion.11), index=1, metadata={op_name="jit(tgmm)/reduce_sum" stack_frame_id=16}, backend_config={"flag_configs":[],"scoped_memory_configs":[{"memory_space":"1","offset":"0","size":"0"}],"used_scoped_memory_configs":[]}
  %pad_add_fusion.2 = s32[70]{0:T(128)S(1)} fusion(%get-tuple-element.119), kind=kLoop, calls=%fused_computation.73, metadata={op_name="jit(tgmm)/jit(_roll_dynamic)/concatenate" stack_frame_id=6}, backend_config={"flag_configs":[],"scoped_memory_configs":[{"memory_space":"1","offset":"0","size":"5872027"}],"used_scoped_memory_configs":[],"aliasing_operands":{"lists":[]}}
  %dynamic_slice.2 = s32[35]{0:T(128)S(1)} dynamic-slice(%pad_add_fusion.2, %select_n.106), dynamic_slice_sizes={35}, metadata={op_name="jit(tgmm)/jit(_roll_dynamic)/dynamic_slice" stack_frame_id=6}, backend_config={"flag_configs":[],"scoped_memory_configs":[{"memory_space":"1","offset":"0","size":"5872027"}],"indices_config":{"index_known_bits":[{"zeroes":"4294967232","ones":"0","bitwidth":"32"}],"is_index_aligned":[]},"used_scoped_memory_configs":[],"aliasing_operands":{"lists":[]}}
  %bitcast.35 = s32[35,1]{0,1:T(1,128)S(1)} bitcast(%scatter_custom_fusion.2)
  %copy.8 = s32[35,1]{1,0:T(8,128)S(1)} copy(%bitcast.35), backend_config={"flag_configs":[],"scoped_memory_configs":[{"memory_space":"1","offset":"0","size":"33554432"}],"used_scoped_memory_configs":[],"aliasing_operands":{"lists":[]}}
  %reduce-window.4 = s32[35,1]{1,0:T(8,128)S(1)} reduce-window(%copy.8, %constant.103), window={size=35x1 pad=34_0x0_0}, to_apply=%region_3.10.clone, backend_config={"flag_configs":[{"flag_type":"XLA_TPU_STORE_TO_LOAD_FORWARDING_WINDOW","value":{"integer_value":"100000"}}],"scoped_memory_configs":[{"memory_space":"1","offset":"0","size":"33554432"}],"used_scoped_memory_configs":[],"aliasing_operands":{"lists":[]}}
  %bitcast.10 = s32[]{:T(128)} bitcast(%get-tuple-element.129), metadata={op_name="jit(tgmm)/jit(_take)/gather" stack_frame_id=28}, backend_config={"flag_configs":[],"scoped_memory_configs":[{"memory_space":"1","offset":"0","size":"0"}],"used_scoped_memory_configs":[]}
  %bitcast.9 = s32[]{:T(128)} bitcast(%get-tuple-element.128), metadata={op_name="jit(tgmm)/jit(_take)/gather" stack_frame_id=28}, backend_config={"flag_configs":[],"scoped_memory_configs":[{"memory_space":"1","offset":"0","size":"0"}],"used_scoped_memory_configs":[]}
  %bitcast.8 = s32[]{:T(128)} bitcast(%get-tuple-element.130), metadata={op_name="jit(tgmm)/jit(_take)/gather" stack_frame_id=28}, backend_config={"flag_configs":[],"scoped_memory_configs":[{"memory_space":"1","offset":"0","size":"0"}],"used_scoped_memory_configs":[]}
  %bitcast.7 = s32[]{:T(128)} bitcast(%get-tuple-element.127), metadata={op_name="jit(tgmm)/jit(_take)/gather" stack_frame_id=28}, backend_config={"flag_configs":[],"scoped_memory_configs":[{"memory_space":"1","offset":"0","size":"0"}],"used_scoped_memory_configs":[]}
  %add_reduce_fusion.2 = (s32[35]{0:T(128)S(1)}, s32[35]{0:T(128)S(1)}, s32[35]{0:T(128)S(1)}) fusion(%reduce-window.4, %bitcast.10, %bitcast.9, %bitcast.8, %bitcast.7), kind=kLoop, calls=%fused_computation.28, metadata={op_name="jit(tgmm)/sub" stack_frame_id=16}, backend_config={"flag_configs":[],"scoped_memory_configs":[{"memory_space":"1","offset":"0","size":"7549748"}],"used_scoped_memory_configs":[],"aliasing_operands":{"lists":[]}}
  %get-tuple-element.98 = s32[35]{0:T(128)S(1)} get-tuple-element(%add_reduce_fusion.2), index=2, metadata={op_name="jit(tgmm)/sub" stack_frame_id=16}, backend_config={"flag_configs":[],"scoped_memory_configs":[{"memory_space":"1","offset":"0","size":"0"}],"used_scoped_memory_configs":[]}
  %get-tuple-element.97 = s32[35]{0:T(128)S(1)} get-tuple-element(%add_reduce_fusion.2), index=1, metadata={op_name="jit(tgmm)/sub" stack_frame_id=16}, backend_config={"flag_configs":[],"scoped_memory_configs":[{"memory_space":"1","offset":"0","size":"0"}],"used_scoped_memory_configs":[]}
  %get-tuple-element.96 = s32[35]{0:T(128)S(1)} get-tuple-element(%add_reduce_fusion.2), index=0, metadata={op_name="jit(tgmm)/sub" stack_frame_id=16}, backend_config={"flag_configs":[],"scoped_memory_configs":[{"memory_space":"1","offset":"0","size":"0"}],"used_scoped_memory_configs":[]}
  %and_select_fusion = s32[35]{0:T(128)S(1)} fusion(%get-tuple-element.97, %get-tuple-element.98, %get-tuple-element.96), kind=kLoop, calls=%fused_computation.37, metadata={op_name="jit(tgmm)/jit(_take)/select_n" stack_frame_id=28}, backend_config={"flag_configs":[],"scoped_memory_configs":[{"memory_space":"1","offset":"0","size":"5872027"}],"used_scoped_memory_configs":[],"aliasing_operands":{"lists":[]}}
  %pad_add_fusion.3 = s32[70]{0:T(128)S(1)} fusion(%and_select_fusion), kind=kLoop, calls=%fused_computation.76, metadata={op_name="jit(tgmm)/jit(_roll_dynamic)/concatenate" stack_frame_id=6}, backend_config={"flag_configs":[],"scoped_memory_configs":[{"memory_space":"1","offset":"0","size":"5872027"}],"used_scoped_memory_configs":[],"aliasing_operands":{"lists":[]}}
  %dynamic_slice.3 = s32[35]{0:T(128)S(1)} dynamic-slice(%pad_add_fusion.3, %select_n.106), dynamic_slice_sizes={35}, metadata={op_name="jit(tgmm)/jit(_roll_dynamic)/dynamic_slice" stack_frame_id=6}, backend_config={"flag_configs":[],"scoped_memory_configs":[{"memory_space":"1","offset":"0","size":"5872027"}],"indices_config":{"index_known_bits":[{"zeroes":"4294967232","ones":"0","bitwidth":"32"}],"is_index_aligned":[]},"used_scoped_memory_configs":[],"aliasing_operands":{"lists":[]}}
  %copy.9 = bf16[512,8192]{0,1:T(8,128)(2,1)S(1)} copy(%lhs.1), metadata={op_name="lhs"}, backend_config={"flag_configs":[],"scoped_memory_configs":[{"memory_space":"1","offset":"0","size":"33554432"}],"used_scoped_memory_configs":[],"aliasing_operands":{"lists":[]}}
  %bitcast.1 = s32[1]{0:T(128)} bitcast(%get-tuple-element.120), metadata={op_name="jit(tgmm)/jit(atleast_1d)/broadcast_in_dim" stack_frame_id=6}, backend_config={"flag_configs":[],"scoped_memory_configs":[{"memory_space":"1","offset":"0","size":"0"}],"used_scoped_memory_configs":[]}
  %bitcast.32 = bf16[8192,512]{1,0:T(8,128)(2,1)S(1)} bitcast(%copy.9)
  ROOT %pallas_tpu_ragged_dot_tgmm.1 = bf16[32,512,2048]{2,1,0:T(8,128)(2,1)} custom-call(%bitcast.1, %pad_add_fusion.1, %dynamic_slice.2, %dynamic_slice.3, %constant.122, /*index=5*/%bitcast.32, %rhs.1), custom_call_target="tpu_custom_call", operand_layout_constraints={s32[1]{0}, s32[33]{0}, s32[35]{0}, s32[35]{0}, s32[1]{0}, bf16[8192,512]{1,0}, f32[8192,2048]{1,0}}, frontend_attributes={kernel_metadata={
"xprof_metadata":"{\"tiling\": {\"tile_m\": 2048, \"tile_k\": 256, \"tile_n\": 128}, \"prefer_element_type\": \"bfloat16\", \"num_actual_groups\": 32, \"input_buffer_count\": 2}"
}}, metadata={op_name="jit(tgmm)/pallas_tpu_ragged_dot_tgmm/pallas_tpu_ragged_dot_tgmm/pallas_call" stack_frame_id=16}, backend_config={"flag_configs":[],"scoped_memory_configs":[{"memory_space":"1","offset":"0","size":"33554432"}],"custom_call_config":{"body":"…","cost_estimate":{"flops":"17179869184","transcendentals":"0","bytes_accessed":"335544320","remote_bytes_transferred":"0"},"needs_layout_passes":true,"allow_input_fusion":[],"serialization_format":"1","output_memory_colors":[],"output_memory_space_colors":[],"input_memory_space_colors":[]},"used_scoped_memory_configs":[],"aliasing_operands":{"lists":[]}}
}

